model_zoo/team01_fudan.pth (torch, 360441 bytes, 282 tensors)

fea_conv_1.eval_conv.bias f4 [24]
000000 40 84 7d bc 00 c9 30 bb e0 1b d2 3b e7 07 f1 3e
       -0.015473425 -0.0026975274 0.0064120144 0.47076342
000010 62 87 cb bc 80 1d 7a 3b 28 54 39 3c a0 0c 2a 3c
       -0.024844829 0.0038164556 0.011311568 0.010378987
000020 b0 5a 84 bc d0 1d 24 bc 40 20 24 3c 9e 4b 86 be
       -0.016156524 -0.0100168735 0.010017455 -0.26229566
000030 18 cc 11 bd e0 0d 9c bb b0 4a c0 be 20 76 e1 bc
       -0.03559503 -0.004762396 -0.37556982 -0.027522147
000040 10 30 c1 bc 1e d1 b1 bd 7c a1 96 bc b8 93 76 bc
       -0.023582488 -0.08682464 -0.018387549 -0.015049867
000050 50 7d 52 bd a4 69 f8 bc 00 a0 42 bb c0 9d 26 bc
       -0.05138904 -0.03032381 -0.0029697418 -0.0101694465

B1.c1_d.weight f4 [8, 24, 1, 1]
000000 ba cd c3 3d 47 86 a5 be 89 a6 13 c0 80 f5 87 3c
       0.095607236 -0.32329008 -2.3070395 0.016596556
000010 ad 93 85 be e5 85 9d be 06 4d e1 be 64 95 87 3e
       -0.2608923 -0.30766216 -0.44004077 0.26481164
000020 47 de 87 40 40 26 80 3c 76 2d 82 be 4e 40 83 3d
       4.2458835 0.015643239 -0.2542531 0.064087495
000030 a7 27 44 3f 84 53 1d 3f e2 78 2d bf 79 fd 3c 3f
       0.76623005 0.6145556 -0.6776258 0.7382427
000040 cc 7b 50 be bf 4a 3d 3d 52 dc 06 3e aa 54 14 3f
       -0.20359725 0.04621386 0.13169983 0.5794169
000050 ea 9a ab bf 26 e7 1c bf f2 4a 19 bf 27 a9 12 3d
       -1.3406651 -0.61290205 -0.5987998 0.035805847
000060 97 9d fa bd 71 f8 43 bd 3c 87 cc be 00 70 c2 3c
       -0.12237089 -0.047844354 -0.39946926 0.023735046
000070 4f e4 bb be 0f cf 2e 3c ab 95 04 3f c3 bc 5f bc
       -0.36697623 0.010669484 0.51790875 -0.013655844
000080 a2 5b 2b bf 91 17 89 3d e7 81 4e bd 8f f7 a1 3d
       -0.66936696 0.06693948 -0.050416853 0.07908546
000090 9a 9d 58 3d 61 ef de 3f 05 fd 0f 3d 00 ac 5e 3e
       0.052884676 1.7416803 0.035153408 0.217453
0000a0 d7 e6 cd be 0c 25 a0 3b e1 ef 8c be c9 c9 3f bf
       -0.4021518 0.004887229 -0.27526763 -0.74917275
0000b0 f1 5a eb 3e 1e 2a 13 be 74 69 6a bf 00 23 b4 3e
       0.4596782 -0.14371535 -0.9156716 0.35182953
0000c0 92 1a af 3e 82 01 b1 3e 75 1e 62 bf 65 c0 b7 3e
       0.3419996 0.34571463 -0.88327724 0.35888973
0000d0 51 73 1d bf 85 8d c2 3d a3 c2 7a 3f b8 d5 9d be
       -0.61504084 0.09499649 0.9795324 -0.30827117
0000e0 a9 1f e3 bf 2f 15 f3 be ba c2 c6 3d 78 46 30 bd
       -1.7744037 -0.474771 0.0970511 -0.043035954
0000f0 cf f3 ee 3d 42 1c 88 40 0b 69 1c 3e eb 35 a2 3e
       0.116675965 4.2534494 0.15274446 0.3168176
000100 5c 2b 52 3f d1 46 cf bd 4e 97 f6 3e 09 17 7e bf
       0.8209741 -0.10120929 0.4816231 -0.992539
000110 33 3f 1f 3f fb 53 c9 be ad b2 de bf f0 4a 01 bd
       0.6220581 -0.39321885 -1.7398278 -0.031565607
000120 59 60 a3 be 20 9c 3e 3f 15 5c 0d c0 f0 b7 01 3f
       -0.31909445 0.7445698 -2.2087452 0.5067129
000130 c6 56 dc 3e f3 94 63 bf 79 14 af bf 21 6e 19 bf
       0.43034953 -0.88899153 -1.3678123 -0.5993367
000140 89 09 d7 40 40 17 96 be 6e b0 52 be 62 d6 69 3e
       6.719914 -0.29314613 -0.20575115 0.22835687
000150 03 13 c5 3f 00 76 f6 bf 59 ea 9d bd 6b 46 c1 3f
       1.5396427 -1.9254761 -0.07710714 1.5099615
000160 b2 2e 90 3c 37 ef a9 3e e4 76 5f be 99 18 f4 3d
       0.017600391 0.3319032 -0.21822697 0.11918754
000170 f6 02 27 3c a5 36 4c bf 80 99 1c c0 ec 55 94 be
       0.010193577 -0.7977088 -2.446869 -0.28971803
000180 c2 a0 db 3c 2d 91 b6 3e 28 76 b9 be dd 3b fd 3d
       0.026810054 0.35657635 -0.3622296 0.12364934
000190 8a 30 b2 3c 1c d0 d0 3d 7d 14 a1 be 02 30 1e 3e
       0.02175166 0.10195944 -0.31460944 0.15448001
0001a0 4f 81 bf 3f 1b dc c0 bd 0a 59 04 3f c9 bc 69 bd
       1.4961337 -0.09416982 0.5169836 -0.057064805
0001b0 38 69 54 be 63 e5 28 41 96 09 55 be fc 56 fa 3e
       -0.20743263 10.556003 -0.20804438 0.4889449
0001c0 34 d8 43 bd 85 2c 5e be d0 36 aa 3e 2c 04 76 3f
       -0.04781361 -0.2169667 0.33244944 0.96100116
0001d0 4f 03 20 3e a4 c5 50 be 11 35 42 3f aa 44 9d bd
       0.15626262 -0.20387894 0.7586222 -0.07679112
0001e0 70 53 a1 bc 95 20 96 be 9b 6d eb c0 0b e2 0b 3f
       -0.019693106 -0.29321733 -7.3571296 0.5464179
0001f0 43 91 0b 40 03 57 13 3e 07 b0 ad bf c3 d1 1d 3f
       2.180741 0.14388661 -1.3569344 0.61648196
000200 d0 27 25 c0 5e 2a f7 3f f8 c5 d1 bd 95 43 80 3e
       -2.580555 1.9309804 -0.10242838 0.2505156
000210 38 11 4a 3e 71 79 08 40 a9 92 f9 bc 14 aa 52 3f
       0.19733131 2.1324122 -0.03046544 0.8229077
000220 92 85 20 3f 7b 89 89 3d 8d 34 3f be 9d dc 55 c0
       0.6270381 0.067156754 -0.1867239 -3.3415902
000230 e3 cd 9c bf ae cc 0e be c7 5b 57 be 4b 01 a9 3e
       -1.2250332 -0.13945267 -0.21031104 0.330088
000240 a9 cf 15 bd d7 57 11 be f0 5d 12 3f fc 24 cd 3c
       -0.036574993 -0.14193664 0.5717459 0.02504205
000250 fa bf a6 be aa 6b 1d bd 1e 34 20 3e da e1 a7 bd
       -0.32568341 -0.038432755 0.15644881 -0.08197375
000260 08 4a 88 3e ff 72 92 bc aa c8 b4 3c 6f 28 3c 3f
       0.2661898 -0.0178771 0.02206834 0.73499197
000270 d9 00 5e bc d3 16 cd be 89 ca ac bd 34 6a 2b 3f
       -0.013550007 -0.40056476 -0.08437068 0.6695893
000280 48 49 e1 bc 1a 77 5d 3e 2d 5c 10 be 8c 08 52 3e
       -0.027500764 0.21627465 -0.14097662 0.20511073
000290 27 db 5c 3e 19 06 8f be e6 66 dd bd a8 fa 7f bc
       0.21567975 -0.2793434 -0.10810642 -0.015623726
0002a0 02 4a 45 3d 45 c9 8c 3e 80 0c db bf 6a bf 0a 3e
       0.048166282 0.27497306 -1.711319 0.13549581
0002b0 df 41 c5 3e 58 36 a1 be ca c2 12 bf fc a0 65 be
       0.38526818 -0.31486773 -0.57328475 -0.22424692
0002c0 ea 61 c4 3f c8 ff 19 3e 9e 62 41 bc 31 74 0a 3f
       1.5342381 0.15038979 -0.011803297 0.54083544
0002d0 fc 88 5f bd 9e 0c f6 3e e7 4c 37 be 49 a5 69 3f
       -0.054573998 0.480565 -0.1790043 0.9126783
0002e0 26 7f 18 3d 8d 79 57 3f 53 e0 1d bc 89 0e 1f 3f
       0.037230633 0.84169847 -0.009636003 0.62131554
0002f0 b9 40 0a bf 53 5c cb 3d 2b 16 e8 be 76 52 8d be
       -0.5400501 0.09929719 -0.45329413 -0.27601975

B1.c1_d.bias f4 [8]
000000 b0 dc 55 be 81 5c e1 3c 5b 9d 01 be a7 dd 28 3c
       -0.20884967 0.02750993 -0.12657683 0.010306752
000010 5c b7 82 bd 72 1d 2f be e5 2a 15 3e 4a 08 a0 3d
       -0.06382629 -0.17101076 0.14567144 0.07814081

B1.c1_r.pw.weight f4 [24, 24, 1, 1]
000000 46 e6 5e be 83 7b 80 3e 10 d6 09 bd 88 41 5f bd
       -0.2176753 0.25094232 -0.03365141 -0.054505855
000010 21 5d a3 be c0 c6 62 be f2 7c 90 3e d6 b8 ec 3d
       -0.3190699 -0.2214613 0.28220326 0.11558692
000020 17 97 9c 3e b8 38 e9 3d d2 78 82 40 3d fa bb be
       0.30584022 0.11387771 4.0772486 -0.36714354
000030 da 8f 96 3d bc ca cc be 17 e7 c1 bd 82 15 f2 be
       0.07351656 -0.39998424 -0.09467905 -0.47282034
000040 22 87 50 40 0a 61 46 be ca b4 a5 3e 9f 46 a3 3c
       3.2582479 -0.19372955 0.32364494 0.019931136
000050 20 a1 2f bf 6e a3 a8 be 15 3c 41 3f 7a 30 35 bf
       -0.6860523 -0.32937187 0.754823 -0.70777094
000060 34 b3 05 bf 8f 1a 27 3f b2 81 29 3f 11 fd dc bb
       -0.5222657 0.652749 0.66213524 -0.006744035
000070 a7 f1 cc bc 11 70 24 3d cb 20 9e be f5 35 2b bd
       -0.025017573 0.040145937 -0.30884394 -0.041799504
000080 ca a3 22 3f c8 38 04 3d 0d 6f 52 3f c3 62 b5 be
       0.6353117 0.032280713 0.822007 -0.35426912
000090 6f 16 f1 be 3d 7f 04 3f cf 8a 8e 3e 94 0d d8 3e
       -0.47087428 0.5175665 0.27840278 0.4219786
0000a0 f2 65 94 bf 4c 91 84 be 72 2b 8d bf bf bd 56 3e
       -1.1593611 -0.25892103 -1.1028883 0.2097082
0000b0 e1 b5 09 3f 17 9d be be 6a bf 3e bf cf 11 98 3f
       0.5379315 -0.37229225 -0.74510825 1.1880435
0000c0 8f 7c 5d bc a6 9a 27 3e 15 06 c0 bd 51 8a 00 3e
       -0.013518467 0.16367587 -0.0937616 0.12552764
0000d0 1f fe 96 3e c2 95 9e 3e 96 be 94 be 83 42 5b be
       0.29490754 0.3097363 -0.29051656 -0.21412091
0000e0 50 ea 71 be af 56 a9 bd 6b 33 e2 3b 5b f4 b2 3d
       -0.2362454 -0.08268487 0.006903102 0.08738013
0000f0 04 f8 ad be 81 1f 88 3f 2f ad 80 be ef 03 82 3f
       -0.33978283 1.0634614 -0.2513213 1.015745
000100 e0 47 47 c0 14 e2 01 3e 02 a6 0f 3f fa 3b 25 3e
       -3.113762 0.12683898 0.5611268 0.1613616
000110 12 d3 30 bf 40 e1 dd 3e 39 95 35 bf 7c 32 e8 3e
       -0.6907207 0.43335915 -0.7093082 0.45351017
000120 ea 2d f4 be dd 0f 6a 3d f7 c2 e0 3d 1a 29 c3 3e
       -0.4769128 0.057144035 0.109746866 0.38117296
000130 cf 33 1c 3f 6c 96 f9 3c 92 b2 f5 be db 83 a0 be
       0.61016554 0.030467235 -0.479878 -0.31350598
000140 c0 7d 91 3d 9b 4c 67 bd 06 25 b3 c0 d4 8e f3 3d
       0.07104063 -0.05646954 -5.5982695 0.11892477
000150 df 4a e0 be 3f 80 2c 3e 51 94 11 3e 31 ad 9a 3f
       -0.43807122 0.16845797 0.14216734 1.2084104
000160 3e 84 a7 bf 6b 9f 06 bc ec 45 91 bf 05 85 c1 3e
       -1.3087232 -0.008216719 -1.1349463 0.37796798
000170 18 97 ad 3f a5 64 d6 be ba 4f 91 3e 01 f4 2f bd
       1.3561735 -0.4187366 0.2838114 -0.04295731
000180 5f fe f7 3d c9 b0 3d 3d bc ff 38 be c3 11 5c 3f
       0.12109064 0.046311174 -0.18066305 0.859646
000190 6a 35 97 3f e2 48 04 bf 60 bc 25 3e 95 e3 c3 3e
       1.1813176 -0.5167371 0.1618514 0.3825957
0001a0 8a 6f a3 be ef 3e 37 3e 15 04 39 bd 67 56 a4 3f
       -0.31921035 0.17895101 -0.04516991 1.2838868
0001b0 48 a3 79 bf e4 93 eb 3d 5b 38 e4 bd 63 51 86 3e
       -0.9751477 0.11502817 -0.111435615 0.26233968
0001c0 67 1e 5e bd 0a 35 b9 3d 96 9b 04 3b 30 c9 c3 3e
       -0.054228213 0.090433195 0.0020234338 0.3823943
0001d0 27 de d2 be 2c f1 39 3c 32 2a 6c be b0 0f eb be
       -0.41185114 0.011349004 -0.23062971 -0.45910406
0001e0 6a 3f 91 bd e4 76 53 be 29 b9 14 3e bc b3 af be
       -0.070921734 -0.20650822 0.14523758 -0.34316814
0001f0 6f 1b 72 bc 30 f7 c7 be 49 5d 40 be f5 85 a2 bd
       -0.0147770485 -0.39055777 -0.18785585 -0.079357065
000200 10 88 fe bc 59 da ba bd a1 ef 3a 3e c6 d2 88 bf
       -0.031070739 -0.09123678 0.18255474 -1.0689323
000210 fe b5 90 3e 48 60 e0 bd 2c 6b a1 3c 7b 88 ad 3d
       0.2826385 -0.10955864 0.019704424 0.08473297
000220 57 29 5c 3e d9 66 4b 3d 95 cc 8a bd b6 4d 35 3d
       0.21500145 0.04965863 -0.06777302 0.044263564
000230 16 37 fd bc 1d 57 93 be 86 3a 29 3e 43 eb 2d 3e
       -0.030910056 -0.287774 0.16526231 0.16984276
000240 fb b8 71 3e cb 4e 3c be 72 3a 49 bf f8 91 88 be
       0.2360572 -0.18389432 -0.78604805 -0.26673865
000250 8a 40 b7 be 6a 9f 8e be 72 62 4a bf 5c 77 c8 3e
       -0.35791427 -0.27855998 -0.79056466 0.39153564
000260 4a e6 31 3e ff 53 06 3e 0d f5 2f c0 47 66 8b be
       0.17373005 0.1311798 -2.7493317 -0.2722647
000270 4d 42 4b bc c0 91 33 bf b2 96 11 3e a5 09 0c bf
       -0.012405944 -0.7014427 0.14217642 -0.54702216
000280 8e 52 d5 3d 44 b0 9d bd 52 b9 56 be 4b 26 c6 be
       0.10416137 -0.076996356 -0.20969132 -0.3870109
000290 cd a0 14 c0 95 2e 76 3d 72 ab 9f 3f 71 72 23 bf
       -2.3223145 0.060103018 1.2474196 -0.638465
0002a0 e7 f6 89 bc bd 63 7a be 66 37 c2 3b 7e d9 10 3e
       -0.016841365 -0.2445211 0.005927014 0.14145467
0002b0 92 cc a7 3e 66 69 77 be 99 2f ff 3d 6c 4e d5 be
       0.32773262 -0.241613 0.124602504 -0.41661394
0002c0 4c 0e 33 bf 0a 26 88 bd f9 36 c1 3c 3b a1 a2 3f
       -0.6994369 -0.066478804 0.023585783 1.2705454
0002d0 c7 50 47 3e 4c 43 af be 22 5c 48 3d 7f b6 ae 3c
       0.19464408 -0.3423103 0.04891599 0.021327255
0002e0 e7 cb 4d be 3f 0a b8 bd 32 d5 1e bc b8 ee 9a 3e
       -0.20097314 -0.08986329 -0.009694384 0.30260253
0002f0 51 4c d7 3d ed 7a ad 3d e2 18 f7 bd b4 78 22 bd
       0.10512603 0.08470712 -0.12065293 -0.039665893
000300 8e 20 5b 3c 00 45 aa 3e 7b c4 34 be 9c 49 3f bf
       0.013374461 0.33255768 -0.17653076 -0.74721694
000310 ab 83 b9 be ac 43 6f 3e 8d ba a0 bd 27 b5 46 bd
       -0.36233267 0.23365659 -0.07848082 -0.048512604
000320 99 e7 da be 78 27 28 bc 94 7d aa be 39 dd e5 bf
       -0.4275482 -0.010263316 -0.33298934 -1.7958137
000330 da 24 60 3e 97 cc 9e 3e 6d 92 ea 3e a1 b8 e3 bd
       0.21889058 0.31015465 0.4581484 -0.111191995
000340 17 88 b4 3f 8e fb a9 3d 6c 83 84 bd 45 a3 b5 bb
       1.4104031 0.082999334 -0.06470379 -0.005543145
000350 57 c9 65 3e 94 f8 de 3d 90 d0 a8 3e 38 9e 4a 3e
       0.22440086 0.10887256 0.3297162 0.19786918
000360 ec 43 c2 bd be 78 a7 3c 29 5b 2a 3d b8 0f bc be
       -0.09485611 0.020443317 0.041590843 -0.36730742
000370 70 a0 d6 be 5a 26 09 3e 2d cc 2c be 7c 92 fb 3d
       -0.4191928 0.13393536 -0.16874762 0.12283799
000380 09 cf 36 3e 40 eb 48 3f 83 45 16 3e 0c d5 72 bf
       0.17852415 0.78483963 0.14674954 -0.94856334
000390 10 cd 53 3e 05 dd ba 3e 4f ce 7d 3d f6 18 9e be
       0.20683694 0.3649675 0.06196433 -0.3087842
0003a0 d6 d3 8a 3e 78 f3 96 3e 31 48 8c 3c bb 03 4f be
       0.27114743 0.29482627 0.017124267 -0.20216267
0003b0 69 94 1f 3e 89 5f aa 3a d6 5b a0 bd ce 3d e0 3d
       0.15583958 0.0012998442 -0.07830016 0.10949288
0003c0 6f 30 27 3e 2b f2 b1 3c ad b2 39 bf b0 5a df 3d
       0.1632707 0.02172192 -0.7253826 0.10905969
0003d0 42 e9 b0 3c 5b 3f a0 bd 76 93 2b 3f 05 04 6e 3e
       0.021595601 -0.07824584 0.6702188 0.23243721
0003e0 06 38 eb bf cc 10 58 3e 89 20 09 40 23 21 98 3d
       -1.8376472 0.21100157 2.1426108 0.07428195
0003f0 62 2d e1 bc 44 9c a3 bf 5e cd 80 3e 17 69 eb 3e
       -0.02748746 -1.2782063 0.25156683 0.45978615

B1.c1_r.dw.weight f4 [24, 1, 3, 3]
000000 cc b7 a0 3c e6 dc a3 bd 1d 64 97 3c f8 06 8f bd
       0.019618891 -0.080011174 0.018480355 -0.06983751
000010 c5 10 32 40 de 7b a7 bd 1d b3 a1 3c 8d 2f b1 bd
       2.7822735 -0.08177923 0.019738728 -0.08651648
000020 6f 94 b7 3c 1f 44 1a bd 70 1c 32 be 5e 2d 3b bd
       0.022409646 -0.03766262 -0.1739366 -0.045697562
000030 46 d9 23 be 7d 13 e4 3d dc 73 2c be e0 b3 04 bd
       -0.16000852 0.111365296 -0.16841072 -0.032398105
000040 6f 6f 22 be 23 11 2b bd d9 4c ce bd 49 b2 78 be
       -0.15862821 -0.04176439 -0.10073251 -0.2428676
000050 9d dc bb bd f2 85 80 be a7 bb 69 3d 99 65 68 be
       -0.09172938 -0.25102192 0.057063725 -0.22695006
000060 40 d3 b3 bd 91 a5 72 be 93 4b c2 bd 46 bf 2b be
       -0.08780527 -0.23695971 -0.09487071 -0.16772184
000070 2c e5 17 bf 36 2f 24 be 15 73 1a bf d3 42 38 40
       -0.59334064 -0.16033635 -0.6033185 2.8790786
000080 61 65 26 bf b7 c3 17 be a2 6a 26 bf 8f 3a 09 be
       -0.6499844 -0.14820753 -0.6500646 -0.13401245
000090 10 2c 22 be 04 ee 0d bf f8 2e 24 be 53 5b 11 bf
       -0.15837121 -0.5544131 -0.16033542 -0.56779975
0000a0 90 41 f2 3f 1e 9b 0e bf e9 23 0c be 36 10 16 bf
       1.8926258 -0.5570544 -0.13685574 -0.58618486
0000b0 d7 61 10 be 17 a7 1f 3d b0 88 30 3d 40 73 23 3d
       -0.14099823 0.03897771 0.043099105 0.039904833
0000c0 25 b1 8f 3d a0 b0 e2 3f 20 c1 42 3d 04 d3 23 3d
       0.070162095 1.7710152 0.04754746 0.039996162
0000d0 8e aa 56 3d b0 5e 2e 3d b7 71 40 bc 72 d5 61 bd
       0.052408747 0.04257077 -0.011745862 -0.055135198
0000e0 f4 b8 1f 3b 17 fe 0d bd 4a 3f 9a 3f 31 14 1a bd
       0.0024371715 -0.034666147 1.2050564 -0.037616912
0000f0 25 3f 79 3a e4 9b cd bc a3 18 95 3b 26 72 d9 3d
       0.00095080055 -0.025098749 0.004550056 0.10617475
000100 07 10 ad 3e 52 ab ea 3d 27 8f bb 3e d8 5f a4 3e
       0.3380129 0.11458458 0.36632654 0.32104373
000110 2a 62 b1 3e 4c 70 f3 3d c6 db a9 3e c0 0c 11 3e
       0.34645206 0.11886653 0.33175486 0.1416502
000120 00 32 51 bd 6d 20 0a bd 0d 55 60 bd 23 da 51 bd
       -0.051073074 -0.03372233 -0.05476861 -0.051233422
000130 62 ed 0e 40 be 03 2d bd 39 9f 2e bd 2a 66 36 bd
       2.2332387 -0.042239897 -0.042632315 -0.044531025
000140 bb e7 32 bd 7c c6 cc 3d a5 73 78 3e 5c 07 c2 3d
       -0.043678027 0.099987954 0.24262865 0.0947406
000150 1a d5 8b 3e 25 51 02 c0 ab e3 86 3e a0 b7 c3 3d
       0.2731102 -2.0362027 0.26345572 0.09556508
000160 af da 8c 3e 80 42 b4 3d b4 7f 0e 3d 4e 2e 17 3e
       0.27510592 0.08801746 0.034789756 0.14763758
000170 4d 0e 93 3c a3 42 26 3e b2 fb 0f 3e 13 4e 27 3e
       0.017951155 0.16236357 0.14060858 0.16338377
000180 17 08 01 3d eb e4 1b 3e 31 89 07 3d 71 e6 52 3a
       0.031501856 0.15224044 0.03308982 0.00080452027
000190 f7 8a b8 bc f4 a3 1a 3b 1e c0 b5 bc 40 78 c0 bf
       -0.022527201 0.0023596259 -0.022186335 -1.5036697
0001a0 d6 5a ab bc 25 43 9c 39 a2 70 a1 bc 39 00 3d b8
       -0.020917337 0.00029804665 -0.019707028 -4.506132e-05
0001b0 04 a6 7c 3e 34 c2 db 3e 13 10 80 3e 83 de d8 3e
       0.24672705 0.42921603 0.25012264 0.42357263
0001c0 41 dc 22 c0 4b b9 ec 3e 0c 0d 4b 3e cd c7 01 3f
       -2.5446932 0.46235117 0.19829196 0.50695497
0001d0 b8 a2 51 3e 65 ae 0c bf 58 04 8e 3e 4e 13 13 bf
       0.20472229 -0.54953605 0.2773769 -0.5745133
0001e0 a2 72 84 3e 7d cf a8 3f 67 3a 85 3e 93 7a 10 bf
       0.25868708 1.318832 0.2602112 -0.56437033
0001f0 03 ca 80 3e 10 ac 08 bf 73 83 39 3e 07 ba 20 3f
       0.25154123 -0.53387547 0.1811655 0.62783855
000200 43 05 34 3e 79 e3 2f 3f 44 94 62 c0 9f 59 2f 3f
       0.17580132 0.6870647 -3.5402994 0.68496126
000210 5f 8e 09 3e f9 18 31 3f 48 a2 1a 3e e3 d1 86 3d
       0.13433217 0.6917873 0.15100968 0.065830015
000220 bf 72 c8 3e 26 d4 89 3d 5b d8 c1 3e fc 68 d5 bf
       0.39150044 0.06729917 0.3786038 -1.6672664
000230 10 29 c8 3e f1 9d 92 3d 24 1c ca 3e 0d 82 4f 3d
       0.39093828 0.07159031 0.39474595 0.050661135
000240 69 82 c1 bc c3 82 92 3c fa cb 02 bd 19 a2 0a 3d
       -0.023621755 0.017884618 -0.03193281 0.033845995
000250 b3 dc 41 40 97 a0 e8 3c ac 92 2a bd 53 d6 c4 3c
       3.0290954 0.028396888 -0.041643783 0.024027979
000260 af 9e b6 bc 96 d2 f8 3b d3 20 a1 bd 2c 37 37 3b
       -0.022292463 0.007593463 -0.07867589 0.002795647
000270 b6 01 8b bd 8b 42 fe bf fd 28 9a bd 7d f1 db 3b
       -0.06787436 -1.9864057 -0.07527349 0.0067121373
000280 de b8 90 bd 7f f6 91 3b af 35 c4 bd c3 62 4d be
       -0.070665106 0.0044544335 -0.09580552 -0.20057206
000290 2f 8a f7 bd 01 0a 6a be 17 ab ee 3f 6c c2 33 be
       -0.12086903 -0.22855379 1.8645962 -0.17554635
0002a0 1d a5 d8 bd 15 1f 53 be 20 2b d8 bd a1 93 0d b9
       -0.10578368 -0.20617326 -0.105551004 -0.00013501804
0002b0 d0 c8 a7 3c 1d f6 05 ba 6e da a0 3c c3 ab d3 3f
       0.020481497 -0.0005110221 0.019635405 1.6536793
0002c0 ed 4d ba 3c 7c 7d 72 ba f9 06 97 3c 05 16 97 bb
       0.022742236 -0.0009250266 0.018435942 -0.004610779
0002d0 ca 16 c5 3d 96 f2 2f 3f 01 9b a6 3d a9 42 2d 3f
       0.09623487 0.6872953 0.081350334 0.6767984
0002e0 e7 42 4f c0 39 e4 37 3f 6b 8d 9d 3d ce ba 35 3f
       -3.2384584 0.71832615 0.07692989 0.70988166
0002f0 22 b2 9d 3d 5b c8 b3 bd 6d 11 fe be 3d 3c 7a bd
       0.07699992 -0.08778449 -0.4962267 -0.061092604
000300 95 af ff be fe 5c 20 40 8e 44 04 bf 70 57 8a bd
       -0.49938646 2.5056758 -0.51667106 -0.06754959
000310 c4 87 fd be 24 39 bb bd 81 35 2b bd 05 3c 3a be
       -0.49517643 -0.09141758 -0.041799072 -0.18186958
000320 10 6a 2b bc af 05 47 be 1a 0f b1 3e 71 b7 37 be
       -0.010462299 -0.19435762 0.34581834 -0.17941071
000330 fc 76 82 bc 8e 16 49 be d8 e8 08 bd 5f 65 3c 3e
       -0.015925877 -0.1963751 -0.033425182 0.18398045
000340 86 26 74 3f 4b c1 38 3e 22 6f 76 3f 85 05 92 c0
       0.9537128 0.18042485 0.96263325 -4.563174
000350 1d 17 7d 3f 5d 69 35 3e 16 7f 75 3f a3 99 31 3e
       0.98863393 0.17715974 0.9589704 0.17343764

B1.c1_r.dw.bias f4 [24]
000000 ee d4 e1 bd fb d2 e2 3b 30 7b 01 3e d1 71 05 bf
       -0.11026941 0.0069221235 0.12644649 -0.52126795
000010 67 c5 3a be aa 94 25 bf c9 3a 67 ba 9c 9c ad 3d
       -0.18239366 -0.6467997 -0.00088207104 0.084771365
000020 13 d7 9e bf b6 fa ae bd dc 8c a0 3c dc e5 14 3c
       -1.2409385 -0.08543913 0.019598417 0.009088006
000030 4b d1 16 be 6f 34 51 3d b4 5a 5a be 78 90 9a 3d
       -0.14728276 0.051075395 -0.21323663 0.075470865
000040 3a 65 4e bb e1 c6 b1 bf 40 f9 f5 3d 12 8f 98 bd
       -0.0031493441 -1.3888818 0.12010431 -0.074491635
000050 c1 f2 08 3e c3 6e f6 bb cd 12 2f 3d d3 c7 fd 38
       0.13373853 -0.007520528 0.04274254 0.000121012

B1.c2_d.weight f4 [8, 24, 1, 1]
000000 95 1e be bd fe 7d 2e 3d 8d d7 56 bd 2a 29 a3 bc
       -0.09283177 0.042600624 -0.05245166 -0.01991709
000010 af 90 78 bf 8b 60 85 3f 5d 38 a5 bd ae 43 5e be
       -0.9709577 1.0420088 -0.08067391 -0.21705505
000020 30 e0 b1 3e 64 fe 81 3f 8a 8c 20 3f e5 dd 09 3f
       0.34741354 1.0155759 0.62714446 0.5385421
000030 39 4a f0 bd 43 42 cc bd ac fc 98 bd 3b 29 24 3e
       -0.11732907 -0.09973576 -0.07470068 0.16031353
000040 f6 06 eb bd aa 1f 5c bd 23 ca 68 3e 22 c4 c6 3e
       -0.11475937 -0.053741135 0.22733359 0.38821512
000050 e2 32 7c 3d c5 ff b7 3e f9 c5 08 bf 2b e1 71 bb
       0.061571963 0.35937324 -0.5342708 -0.0036907892
000060 7e 15 95 3d ea 6c f7 be 1f 8b c7 bc 60 36 89 bd
       0.0727949 -0.48325282 -0.02435833 -0.06699824
000070 2c 0c 12 bf 5e bf 96 3e df 90 a3 3d 08 57 38 3e
       -0.5704982 0.29442877 0.07986616 0.1800195
000080 d2 e6 4c 3e 4b 4b 14 3f d8 d2 ac be 9c c7 76 3e
       0.20009926 0.5792739 -0.3375461 0.24099582
000090 fa be 6b be 3c 59 e5 3e ce f7 34 bf 4c 99 1d bf
       -0.2302207 0.44794643 -0.7069062 -0.6156204
0000a0 a7 c4 13 3d 71 c1 76 3e 65 24 04 3e e4 51 3d 3d
       0.036076214 0.2409723 0.12904508 0.046220675
0000b0 93 3a 4c 3d 8c 1f 88 be 14 f4 f5 3e 2e c4 26 bd
       0.04986055 -0.26586568 0.4803778 -0.040714435
0000c0 07 fb 16 be 12 a6 4b 3f b3 de 71 3e af c0 10 be
       -0.14744197 0.7955028 0.2362011 -0.14136003
0000d0 8b c9 da 3d 94 8a 1e 3e 9c 96 67 bd 3b 4b 53 3e
       0.106829725 0.15482551 -0.056540117 0.20634167
0000e0 53 f9 08 bf c8 fd 5b 3d 5b 0d 8a 3f 68 d6 a3 be
       -0.5350544 0.05370882 1.0785326 -0.31999516
0000f0 f6 b7 e3 be 0c 69 e4 be 58 13 f8 bd 9e 29 f0 3e
       -0.4447629 -0.44611394 -0.121130645 0.4690675
000100 1f 5f da 3c 55 7b 8f be 6c 5a 5f bd f8 3e 93 3d
       0.026656685 -0.28023782 -0.054529592 0.07189745
000110 ac c9 15 3d 8c 71 16 3e c8 4c a8 3a 11 ab 0f bd
       0.036569282 0.14691752 0.0012840265 -0.03507525
000120 c4 68 a5 bd ab 01 61 3f 6f e8 80 be 4e 80 a1 3d
       -0.08076623 0.8789317 -0.25177333 0.078858
000130 66 6f 00 be 06 e7 17 bf fe 66 f5 bd 67 4c 05 3f
       -0.12542495 -0.5933689 -0.11982535 0.52069706
000140 1b 33 56 be 44 ca cd be 97 c1 d2 3e f7 8f 09 3e
       -0.20917933 -0.4019338 0.41163322 0.13433824
000150 fb 01 89 bd 93 97 6a be f1 af 94 3e db c2 23 3f
       -0.06689831 -0.22909383 0.29040483 0.639692
000160 9d e2 8e bd 20 ef 4f bf f0 c6 9c bd ab b6 42 be
       -0.06976817 -0.8122425 -0.07655132 -0.19014995
000170 7c cf 4f bd 5a 2d 7c bc 15 1e 1d bf c6 5a 3a 3c
       -0.050734982 -0.015391672 -0.61374027 0.011374181
000180 bb 82 26 3c 90 4d f2 3e 99 66 3f 3d 9f 02 88 bc
       0.0101630045 0.473248 0.046728704 -0.016602812
000190 2d f6 9e 3e 25 58 00 3f 97 f5 ae 3d 7e ac a8 3e
       0.31047192 0.501345 0.08542936 0.329441
0001a0 10 a4 08 be 48 99 5d be 17 10 f6 3d 6c 2a e9 bd
       -0.13343835 -0.21640503 0.12014788 -0.113850445
0001b0 53 ce 82 be 6e f3 87 3e 98 45 19 be 03 1c d3 3d
       -0.25548038 0.2655291 -0.14967954 0.10308077
0001c0 2d 6b 96 3c c6 5f 10 3f e2 60 e1 be 3a 1f a4 be
       0.018361652 0.5639614 -0.44019228 -0.32055074
0001d0 08 fc c2 3b ba 78 91 bf 42 df 6b 3e b5 62 37 bc
       0.0059504546 -1.1364968 0.23034385 -0.011192967
0001e0 a2 0d d9 3c 4a 7f 3e 3f c6 8e 8b be 67 00 89 3c
       0.026495758 0.7441298 -0.27257365 0.016723825
0001f0 53 1f c1 be 08 a1 78 bd 19 3b 8b 3d 05 69 98 3d
       -0.3771921 -0.060700446 0.06798381 0.07441906
000200 91 de 92 bf 02 ad 6a 3d 7f 80 6d 3c 91 65 5e bf
       -1.1474172 0.0572939 0.014495968 -0.8687373
000210 b1 d7 6c 3d 2c 38 57 3d 6c 95 5e 3e df 11 16 3d
       0.057822887 0.052543804 0.21736687 0.036638137
000220 e0 1c 33 bd 3d 8a 3b 3f c9 74 f7 3c c9 a2 8c 3f
       -0.04372871 0.7325781 0.030207055 1.0987178
000230 a7 c3 ae bc d5 ca 30 be 59 c2 1f bd a2 37 69 3c
       -0.021333529 -0.17264874 -0.039003704 0.014234455
000240 b7 64 84 3c 3b fd a8 bd ef b3 b3 3d de da b5 bc
       0.016161306 -0.08251425 0.08774554 -0.02219909
000250 27 38 8c 3e 5b eb ce bd 7b a7 78 3d 04 bf 3d 3f
       0.2738659 -0.10103484 0.060706597 0.7411959
000260 e8 0c a2 be e5 74 bd be 23 bd 27 3d 57 f7 c8 3d
       -0.31650472 -0.37003246 0.04095186 0.09812801
000270 d0 d5 f7 bf f6 67 46 3e ba a0 d2 bc 5c d6 33 be
       -1.9362125 0.19375595 -0.025711406 -0.1756224
000280 a6 c9 ca 3c 14 fd 2a 3e 6c b4 8e be b2 0a 04 3e
       0.024754357 0.16698104 -0.27872026 0.12894705
000290 0b ff f0 3b 70 7c 07 3d 68 4c 08 3f 22 c1 ad bc
       0.0073546222 0.033077657 0.53241587 -0.021210257
0002a0 c5 d6 2c be 30 82 0b 40 18 59 cb bc a9 80 a4 3b
       -0.16878803 2.179821 -0.024822757 0.0050202203
0002b0 a3 10 84 bf 34 f5 5e 3f 5e 78 29 3e ca 7d b1 3d
       -1.0317577 0.870929 0.16549823 0.086665705
0002c0 fb 47 d1 bd 32 7f 7b 3f ab 9b 4f be cd f5 07 3e
       -0.10218807 0.9824096 -0.20274226 0.1327736
0002d0 bc 25 90 be ca 3f c3 be 7f 31 bc bd e5 d4 2d 3f
       -0.2815379 -0.38134605 -0.09189128 0.67902976
0002e0 b8 ec 80 bd 81 82 45 3d bd e1 92 3e 23 c6 eb 3e
       -0.062951505 0.04822016 0.2868785 0.46049604
0002f0 9c e8 b2 bc 7c 3c a5 3e 93 5f 97 bf d1 9f ea b9
       -0.021839432 0.32272708 -1.1826042 -0.0004475103

B1.c2_d.bias f4 [8]
000000 e8 80 63 bd 8d 5d 0a be 6b 6b c8 bd 14 b8 ca bd
       -0.055542856 -0.1351225 -0.09786113 -0.09898391
000010 ac 1c fd bd b9 a6 2f bd ac 7d 2b be ed 4d e5 bd
       -0.12358984 -0.04288361 -0.16747159 -0.11196504

B1.c2_r.pw.weight f4 [24, 24, 1, 1]
000000 e1 23 fd be e7 60 30 bf 01 b2 a2 3e 64 ab 8e 3d
       -0.49441436 -0.6889786 0.3177643 0.06966284
000010 e0 bf f3 3e 3b 78 34 bf 15 91 c1 bb 84 56 6c 3f
       0.47607327 -0.7049596 -0.0059071877 0.9231951
000020 3e 57 ca be 53 e8 09 c0 a4 80 bb 3e 24 b2 d2 be
       -0.39519686 -2.154805 0.36621583 -0.41151536
000030 87 c4 e6 be 12 7e 45 3f 74 94 7a 3e 44 21 32 40
       -0.45071813 0.77145493 0.24470693 2.7832804
000040 96 e4 27 bc 41 a0 b6 be c0 c1 42 be dc c1 d4 be
       -0.01024737 -0.3566914 -0.19019222 -0.41554153
000050 16 8a 7e be 1c 47 48 be f4 f6 0d c0 fc d5 a2 bf
       -0.24857363 -0.19558376 -2.2181978 -1.2721553
000060 16 36 3d bd 19 d0 a4 3f f6 68 0e 3f 50 4a 20 3d
       -0.04619416 1.2876006 0.5562891 0.03913337
000070 43 f0 57 bf 67 45 10 bf c6 54 ba be 21 05 8a 3f
       -0.84350985 -0.563559 -0.36392802 1.0782815
000080 f7 5a d2 3e 81 3f 3a 3f f1 f3 44 3f 5d fa 9a bf
       0.41085026 0.7275315 0.76934725 -1.2107655
000090 ac b4 45 bd b9 10 b8 be e9 b6 81 be 8e 17 d8 3f
       -0.048268005 -0.35950258 -0.25334862 1.6882188
0000a0 7b e4 f8 bd 39 ab 5b bf 2f cf f7 3e c0 cb 9e 3f
       -0.12152954 -0.8580814 0.48400256 1.240593
0000b0 c9 d0 f6 bd 10 31 de bc f3 bd 5c be 7f 8d 26 3c
       -0.12051541 -0.027123004 -0.21556835 0.010165571
0000c0 8e 25 55 3d 22 92 fd bf 4d 6a d4 bf 31 86 3d bd
       0.052037768 -1.9810221 -1.659494 -0.046270553
0000d0 9c e5 b4 3f 4e 73 d6 3d ad 86 ea 3e 3f 1c f8 3e
       1.4132571 0.104712114 0.45805874 0.4845905
0000e0 66 37 e8 3e 4c 94 9d bf 44 73 f4 be 82 f1 f7 bd
       0.45354766 -1.2310882 -0.4774419 -0.12106611
0000f0 3d bd 18 3e ae 7e cf 3e e7 0d 30 3e c7 2f 94 3e
       0.14915939 0.40526336 0.17192803 0.289427
000100 19 ca 1a 3d 6f bd 1e 3e 3c 5b 66 bf 93 95 fd bd
       0.03779039 0.1550195 -0.8998296 -0.12382045
000110 53 e8 48 3c 25 71 3d be 86 5a be 3f 31 4e 21 bd
       0.012262422 -0.18500192 1.4871376 -0.03938121
000120 90 f3 15 bf f8 94 ba 3f 23 c0 13 bf 3b 54 8e bf
       -0.5857477 1.4576712 -0.5771505 -1.1119455
000130 60 a5 83 3e 4c 5c 2e 3e 99 6e 3f 3e cc a4 fd be
       0.2571211 0.17027396 0.18694533 -0.49539793
000140 59 32 93 be f6 0e 2e be 2a dd 2d bb d6 8f 24 3f
       -0.2874935 -0.16997895 -0.002652953 0.64281976
000150 ce 7e 29 be 1b 86 d1 3e c2 85 d8 3c fe dd 58 3b
       -0.16552278 0.40922627 0.026430968 0.0033091302
000160 f9 a7 73 3e ea 10 84 be 46 62 55 bd fe 6c 9c bf
       0.23794545 -0.25794154 -0.052095674 -1.2220762
000170 92 0d 98 be 87 cb 30 bd 6f 2c ae 3f cd 5e 80 bc
       -0.29697853 -0.04316285 1.360731 -0.015670205
000180 b3 4b 12 bd f8 15 6b c0 a9 1d 49 3f a2 cf ac b9
       -0.035716724 -3.6732159 0.7856088 -0.00032961095
000190 75 da 8b be 50 b6 b0 bf f9 94 fe be 65 03 ce be
       -0.27315107 -1.3805637 -0.49723032 -0.40236965
0001a0 74 3f 34 3f 48 bf 5e bf a0 45 b7 bf 1b 5f 29 3f
       0.7040932 -0.8701062 -1.4318123 0.66160744
0001b0 21 4c 2d 3f a2 9f 93 bf b3 2b 9d 3e b2 2b e7 3f
       0.6769429 -1.1533091 0.30697402 1.806021
0001c0 a4 1b 15 bd 93 ce 87 3f 38 0f 3d 3f d2 e3 81 3c
       -0.036403313 1.0609916 0.73851347 0.015855704
0001d0 7a 42 97 be fb 16 0e 3f 35 ec a1 bf 67 21 61 3e
       -0.29542905 0.55503815 -1.265021 0.21985398
0001e0 92 59 0a 3d f4 82 6e be 46 43 da 3d 87 47 49 3b
       0.033776827 -0.23292142 0.10657363 0.00307128
0001f0 25 d6 29 bf 6c 53 ce bf 97 df fc 3c 62 47 ad 3f
       -0.66342384 -1.6119208 0.030868335 1.3537409
000200 ce b6 33 be 4c 6f e9 3f 8a 14 3d be 5e 2d fc 3e
       -0.17550203 1.823709 -0.18464866 0.49253362
000210 8c 2f 44 3f e9 49 ac 39 46 c9 c1 be 9b e7 91 3e
       0.7663505 0.00032861464 -0.37848872 0.28497013
000220 05 b3 21 ba 12 cf 70 be 1d 31 a9 be 7a 78 cd bc
       -0.00061683386 -0.23516491 -0.33045283 -0.025081862
000230 5b 19 3e bc d0 c4 00 be 82 30 8e 3e 39 87 2f 3c
       -0.011602725 -0.12575078 0.27771384 0.010713392
000240 07 c0 5c bf 5b cc a6 be 1e d5 10 3f 08 c9 f6 bd
       -0.8623051 -0.32577786 0.5657519 -0.120500624
000250 9f 66 cd bf 8c b0 83 3f c3 3e 28 bf d6 a4 bb 3c
       -1.6046942 1.0288253 -0.65720767 0.022905748
000260 59 5d 04 bf 2e 66 c0 3f 13 f6 8c bf 26 91 ad 3d
       -0.5170494 1.5031183 -1.1012596 0.084749505
000270 8d 2b 24 bf 72 73 0b 3f 05 16 6d 3c 22 0a 39 c0
       -0.64128953 0.5447303 0.014470582 -2.8912435
000280 b6 fb a9 bd 96 11 5f 3d dc 69 f7 3e 10 57 55 3e
       -0.08299963 0.05446013 0.48322952 0.20833993
000290 9c 55 8f bf f8 b8 6c bd 11 32 da 3f 20 a8 85 3a
       -1.1198001 -0.057793587 1.7046529 0.00101972
0002a0 5b 64 80 bf 6c 32 e6 3e c0 5a c0 3e 24 50 9d bd
       -1.0030626 0.44960344 0.37569237 -0.07681301
0002b0 e3 38 09 bf da e8 d2 3e 5c 3c ac 3e 90 e4 6e bf
       -0.5360243 0.41193277 0.336398 -0.9331751
0002c0 b0 57 60 bf a8 0b 52 3f 94 22 93 bf a0 0c e2 3e
       -0.876338 0.82049036 -1.1494927 0.44150257
0002d0 0e 15 41 be 3d 33 3f 3f 57 4f b6 3d 51 e2 0c be
       -0.18855688 0.7468756 0.089018516 -0.13758208
0002e0 13 9c d1 be 56 49 d9 3d 22 27 4e bf 11 f7 88 bf
       -0.40939388 0.10609691 -0.8052846 -1.0700399
0002f0 66 18 34 bf 0c 47 a0 bd 18 11 01 40 83 9d 9d bc
       -0.7034973 -0.07826051 2.0166683 -0.019240147
000300 40 2f e8 bc 23 26 19 bf 35 a6 32 3f d5 87 89 3c
       -0.028342843 -0.59823817 0.6978486 0.016788403
000310 8a 4a 05 3f e8 b7 d4 bf c8 47 fa 3e 33 96 80 3b
       0.5206686 -1.6618624 0.4888289 0.003924155
000320 d6 07 14 c0 8b 65 d7 bf 5b 03 51 bd 4d ae b0 bf
       -2.3129783 -1.6827863 -0.05102859 -1.3803192
000330 8c eb 09 be 9e 9f a6 be 48 e5 af 3e fb 77 95 3f
       -0.1346876 -0.32543653 0.34354615 1.167724
000340 42 8e 7d be e2 dc 47 3e fc 90 61 3f b0 06 5d bc
       -0.24761298 0.19517854 0.88111854 -0.013490364
000350 84 f9 a3 bd dc eb 62 bf ab 71 57 3f 0b 32 de b9
       -0.08006576 -0.8864114 0.8415782 -0.00042380425
000360 b3 07 ab 3d 2c 7e 31 bf ca d7 c1 3d f6 8f 86 3d
       0.08351078 -0.6933315 0.094649866 0.06570427
000370 4d 00 5f bf b9 67 54 3f 55 5a 16 bd 2b 94 68 3f
       -0.87109834 0.8297077 -0.03670724 0.90851086
000380 6d e9 2e 3e af 10 8d be 27 ba 30 bf e3 28 f3 be
       0.17081232 -0.2755179 -0.69034046 -0.47492132
000390 bd f5 89 be 88 8a 02 3f ca be 60 3f ea 7d 90 3e
       -0.26945296 0.5099263 0.8779112 0.28221065
0003a0 77 e8 67 3c 51 fd 06 3e 3f 22 eb bd 76 5b d4 be
       0.014154545 0.1318257 -0.11481141 -0.4147603
0003b0 f8 ab 61 bd c0 6b 8e 3e a9 2c 8e 3f b0 14 6d 3c
       -0.055095643 0.27816582 1.1107379 0.014470264
0003c0 05 a2 45 3d cb 7d 4b 3f a8 06 ab bd 3b 9f df 3d
       0.048250217 0.7948882 -0.08350879 0.10919043
0003d0 92 c0 04 bb 07 90 03 3d ee 22 9b 3e 7c 21 01 3e
       -0.0020256382 0.032119777 0.30300087 0.1261043
0003e0 a6 15 47 3e d8 fc a9 be 47 29 f4 3f c9 6e 1a be
       0.19441852 -0.33200717 1.9075097 -0.15081324
0003f0 53 29 12 bf 2c 9a 9f 3f ab fd 24 bd 47 ed 19 3f
       -0.57094306 1.2468925 -0.04028098 0.6012768

B1.c2_r.dw.weight f4 [24, 1, 3, 3]
000000 34 6c b3 3d dd 4e 38 3e 8f e9 c6 3d 26 95 34 3e
       0.087608725 0.17998834 0.097125165 0.1763502
000010 55 b0 a9 3f fc b8 31 3e 5e 6a be 3d 3c c8 3d 3e
       1.3256937 0.17355722 0.09297632 0.18533415
000020 b1 41 ca 3d 47 84 48 3d d1 8d 1a 3e 29 b6 70 3d
       0.09875811 0.048954275 0.15093161 0.05876747
000030 35 73 10 3e 97 87 3b bf 5d 44 1b 3e f1 32 7c 3d
       0.14106448 -0.7325377 0.15162797 0.06157202
000040 96 8a 18 3e 5b e0 42 3d 26 4c 2d 3d 28 b6 fa 3d
       0.14896616 0.047577243 0.04230895 0.12241775
000050 1b 9f 81 3d 60 bc cd 3d b4 24 10 3e a8 e4 09 3e
       0.06329175 0.10045695 0.14076501 0.13466132
000060 ff 1b 56 3d 76 54 f2 3d da 0d 47 3d d5 01 c9 bd
       0.052272793 0.11832516 0.048597194 -0.098148026
000070 42 5a e2 bd 31 4f be bd 3e ce e4 bd 25 10 94 3f
       -0.110523716 -0.09292448 -0.1117215 1.1567427
000080 d9 06 e6 bd 10 39 c5 bd fc bb e6 bd 5d 85 ce bd
       -0.11231775 -0.096300244 -0.11266324 -0.10084031
000090 b5 bd 0c 3e 1d d1 36 3e 30 f9 fb 3d bb 3c 37 3e
       0.13744242 0.17853208 0.12303388 0.1789426
0000a0 e3 e9 74 bf 14 d5 41 3e b1 4c 0f 3e d0 01 3e 3e
       -0.9566938 0.18928939 0.13994099 0.18555379
0000b0 86 21 0b 3e 28 57 e8 3d 75 d2 97 3e d7 21 ee 3d
       0.13587007 0.11344749 0.29652753 0.11627548
0000c0 9b b5 98 3e a3 3e a6 bf f1 44 94 3e f0 e1 d3 3d
       0.29826054 -1.2987865 0.28958848 0.103458285
0000d0 5c 39 9b 3e 46 54 e4 3d c6 23 4b 3d a8 3c 00 3e
       0.303172 0.111488864 0.049594663 0.12523139
0000e0 05 b0 76 3d 0b d4 f4 3d 6e 12 80 3f e5 43 fe 3d
       0.06022646 0.119545065 1.0005624 0.124152936
0000f0 c2 9a 55 3d 12 e4 fe 3d d5 0a 4a 3d ad 5b f0 bb
       0.05214954 0.12445845 0.049326736 -0.0073351474
000100 a1 96 3a 3d ab c5 bd 3a 4e 76 47 3d 72 c8 72 3f
       0.045553807 0.0014478465 0.04869681 0.94837105
000110 f3 23 44 3d 8d bf c0 bb 8e de 33 3d c2 43 cc bb
       0.047885846 -0.0058822096 0.043913417 -0.0062336633
000120 76 e7 56 bc 77 bc 09 bc a7 5e d2 bb 2f e1 19 bc
       -0.013116708 -0.00840675 -0.006419975 -0.009392067
000130 e7 9f 92 bf a0 df 0b bc 08 67 3c bc 73 f0 0e bc
       -1.1455048 -0.008537203 -0.011499174 -0.00872432
000140 dc 81 fc bb f3 84 11 3d 21 f6 9d 3d 52 99 16 3d
       -0.00770591 0.03552718 0.07712961 0.03676731
000150 0f a8 9e 3d a2 42 c6 be 89 64 8b 3d e6 27 1f 3d
       0.077468984 -0.38722712 0.06806285 0.03885641
000160 57 c0 90 3d 76 66 23 3d 22 f0 0b bd 85 c6 8c bd
       0.07067936 0.039892636 -0.034164555 -0.06873802
000170 36 5e 1d bd bf 39 8f bd ba 0b 9a bd 88 b2 91 bd
       -0.038419925 -0.06993436 -0.07521768 -0.0711413
000180 19 ed 1f bd a8 96 8e bd 30 c4 13 bd 20 b2 63 3c
       -0.039044473 -0.06962329 -0.03607577 0.013897449
000190 2d 62 e1 3c 5b 4f 8e 3c 9c 6f ef 3c b5 30 87 3f
       0.027512634 0.017371824 0.029228024 1.0561739
0001a0 e0 0a 01 3d b5 72 66 3c 45 87 04 3d 63 70 95 3c
       0.03150451 0.014065434 0.032355566 0.018242067
0001b0 b9 f6 48 bc 4b 13 2b bc 1a da a2 bc 5b 9d 25 bc
       -0.0122658545 -0.0104416115 -0.01987939 -0.010108317
0001c0 64 71 3c bf e2 b4 31 bc c3 0e 6b bc 2e df 9f bc
       -0.7361052 -0.0108463485 -0.014346781 -0.0195156
0001d0 94 0e 2d bc ec 5b ce bc 98 18 ca bd b7 67 31 bd
       -0.010562558 -0.025190316 -0.09867972 -0.0433118
0001e0 94 b7 b9 bd ec f4 ce 3e f1 87 c1 bd 84 34 1b bd
       -0.09068218 0.40421236 -0.09449757 -0.03789188
0001f0 a1 2e b9 bd 7b f7 f4 bc cc bf 9c bd 9b 35 9d be
       -0.09042097 -0.029903164 -0.0765377 -0.3070496
000200 26 87 ad bd dc 02 98 be 3e d7 c4 3f 2a b4 9e be
       -0.08473043 -0.29689682 1.5378187 -0.3099683
000210 86 86 99 bd 67 24 9b be 00 a1 bf bd 8a 88 06 be
       -0.074963614 -0.3030121 -0.0935688 -0.13138023
000220 0d 62 40 be 07 94 07 be 97 6b 35 be 83 05 8d be
       -0.18787403 -0.13240062 -0.17716824 -0.27543268
000230 24 4b 35 be 5d 1f df bd 74 b4 32 be 59 5c ff bd
       -0.17704445 -0.10894654 -0.1745165 -0.12468786
000240 7b e1 2c 3d b9 e0 a6 3d 65 f6 3f 3d 15 1a a4 3d
       0.042207222 0.08148331 0.04686584 0.08012787
000250 ed ac 56 3f 3d 4d 9e 3d e3 6b 2a 3d ab 87 ab 3d
       0.83857614 0.07729576 0.041606795 0.08375486
000260 be a3 2d 3d c8 72 e9 bc f2 67 c5 3c 16 4c ba bc
       0.042392485 -0.028497115 0.024097417 -0.022741359
000270 0f eb a5 3c 0c 52 e2 bf 1e 5f 65 3c cc e5 93 bc
       0.020253686 -1.7681289 0.0139997285 -0.018053912
000280 25 56 9e 3c c0 b2 73 bc 8d 79 f4 bc 58 e6 f5 bd
       0.019328186 -0.01487416 -0.029843116 -0.12006825
000290 97 d4 ff bc 64 12 f3 bd 0c f4 80 3f da db dd bd
       -0.0312293 -0.11868742 1.0074477 -0.10832949
0002a0 ad c3 1e bd 34 a6 e4 bd 6b b5 05 bd df 44 86 3b
       -0.03876083 -0.11164513 -0.032643717 0.0040975655
0002b0 aa d9 1a 3d 57 c7 f3 3b 79 d3 19 3d d4 3a 6e 3f
       0.037805237 0.0074395346 0.03755519 0.93058515
0002c0 1b 6e 36 3d fe 4e 00 3c a2 d2 3d 3d ee 9b 0b 3c
       0.0445386 0.007831333 0.046343453 0.008521063
0002d0 39 24 12 3d 28 36 97 3d 03 cc 3e 3d 54 f6 ac 3d
       0.035679076 0.07383376 0.04658128 0.08445421
0002e0 ea 78 a7 3f b2 18 b4 3d 07 a4 35 3d aa 8f a0 3d
       1.3083775 0.08793773 0.04434588 0.07839902
0002f0 98 05 12 3d 7c d0 d7 bd 3b 16 76 be 02 7c 01 be
       0.035649866 -0.10537812 -0.24031918 -0.12644961
000300 69 76 6e be 6c cb 37 bf 70 4b 67 be d2 5d f2 bd
       -0.23287357 -0.7179477 -0.22587371 -0.11834301
000310 e9 99 67 be 45 31 e0 bd 5b 19 a9 3d 70 78 02 3e
       -0.22617306 -0.109468974 0.08256789 0.12741256
000320 2d ec a2 3d 01 88 ff 3d 49 05 17 bf ce 09 fd 3d
       0.07955203 0.124771126 -0.5899244 0.12355386
000330 a6 5a b5 3d 28 a3 f5 3d e2 9c ae 3d 9c 61 74 bc
       0.088551804 0.1199401 0.08526017 -0.01491585
000340 8f f7 0b bd f8 3d ab bc 11 98 10 bd e6 0a 87 3f
       -0.034171637 -0.020903572 -0.03530127 1.0550201
000350 a7 c8 17 bd ba 15 a2 bc 65 80 16 bd 19 8a 8b bc
       -0.03705659 -0.01978575 -0.03674354 -0.017033624

B1.c2_r.dw.bias f4 [24]
000000 c7 c6 5a be f6 63 e0 bb a3 f0 28 3e 95 91 9a 3e
       -0.2136489 -0.006847854 0.16498046 0.30189195
000010 6f 72 64 3e 88 54 17 3e 7e 78 44 be 49 fa 74 bf
       0.22309278 0.1477834 -0.19186589 -0.95694405
000020 c4 c9 cc be 7f eb 99 3d 13 55 28 3c 7a 61 0e bf
       -0.39997685 0.075156204 0.0102741895 -0.5561749
000030 ad 3d 8f 3e 61 51 e3 3c f5 9e 29 3e 50 84 1b 3e
       0.27976742 0.027748765 0.16564544 0.15187192
000040 05 ca 0e bd 21 e6 86 bf 69 7f 37 3e e2 6f e1 be
       -0.03486063 -1.053898 0.17919697 -0.44030672
000050 ae 89 b1 3e 7d c0 48 bf 1d 27 e4 3d eb 98 92 bd
       0.34675354 -0.78418714 0.11140273 -0.07158073

B1.c3_d.weight f4 [8, 24, 1, 1]
000000 28 d9 72 3d 71 6d 84 3e 11 b1 19 3e c5 9a 02 3d
       0.059289128 0.25864747 0.15008952 0.03188588
000010 13 80 95 3c cc 9f af be 05 3c 45 bd ed 24 1e 3d
       0.018249547 -0.34301603 -0.048152942 0.038609434
000020 73 a0 92 bd 4a 3f 5e bd e0 71 06 bc 9e f6 89 3f
       -0.071595095 -0.054259576 -0.008205861 1.0778387
000030 a4 71 7c 3d 89 21 85 be 37 90 aa bc 07 f7 9d bd
       0.061631814 -0.26002148 -0.02082072 -0.07713132
000040 b0 56 8d 3c 0a ed 02 bf 95 20 7a bd 7c 94 e1 be
       0.01725325 -0.5114294 -0.06106623 -0.44058597
000050 a4 99 5b 3d 52 79 fb bd 62 e4 34 bd ba e7 27 3e
       0.05361332 -0.122789994 -0.044163115 0.1639699
000060 98 f6 45 bd 07 f4 a2 3e 55 f1 83 3e 2e 4b b8 3d
       -0.048330873 0.31826803 0.2577006 0.089987144
000070 85 31 6c 3e 10 2e 0a be 74 e3 dc 3e 36 3b 9e be
       0.23065765 -0.13494134 0.43142283 -0.3090455
000080 4e 21 8f 3e 92 75 02 bf ac aa 17 40 c5 5d 95 3e
       0.27955097 -0.5096065 2.369792 0.29173103
000090 88 7d 60 bd fb 9d 46 3e 8d c5 ff be 1a e8 a8 3e
       -0.054807216 0.19396202 -0.49955407 0.3298958
0000a0 0f ed 9b 3d 6b 7e 69 be 70 32 95 3d 8d 96 55 3c
       0.07613575 -0.22802131 0.07285011 0.013036382
0000b0 54 d1 a6 bd c5 1f 0e 3f 48 4d ac bf ea cd 84 be
       -0.08145395 0.55517226 -1.3461084 -0.2593835
0000c0 ea 3d c9 bd e3 f1 e3 3e 6e 32 9a 3e 6e fd 50 3d
       -0.09826262 0.44520482 0.301166 0.05102294
0000d0 db f2 fd be 5c 35 88 be 35 ad 2b 3e af 72 5e bf
       -0.49599347 -0.2660321 0.16765292 -0.86893743
0000e0 bd df 1e bf b6 d7 25 be b1 52 e2 3c 4c e7 41 bd
       -0.6206015 -0.16195568 0.027627321 -0.047339723
0000f0 b7 e8 98 be fa 54 23 3f 17 93 69 bd 2e 87 7e 3d
       -0.29865047 0.6380154 -0.05702504 0.062140636
000100 68 fa c5 be fb 46 32 3e 71 62 c6 3c b4 7e 9b be
       -0.38667607 0.1740989 0.024216862 -0.30370104
000110 dd 04 2c 3e 20 a4 7f bd 71 7e 91 bd 96 6a da be
       0.1679873 -0.06241238 -0.07104195 -0.42659444
000120 75 d3 8c bc 89 d5 b8 3d ca 36 9e 3d 0d 30 c1 bc
       -0.017190674 0.090251036 0.07725294 -0.023582483
000130 d8 bf 62 bd 19 7e c5 3e 93 df 2a 3d df e5 eb 3c
       -0.055358738 0.38572767 0.041717123 0.028796135
000140 b0 ee 06 3e a4 aa d8 3f 18 20 6a be 54 f6 58 be
       0.1317699 1.6927075 -0.22863805 -0.21187717
000150 34 5f da 3e c9 08 0c be 00 a9 20 3c 33 d8 c0 bc
       0.4265076 -0.13675226 0.009805918 -0.023540592
000160 a5 88 5f 3b e2 83 78 3e 42 3d ab 3d 8b 85 4d 3e
       0.0034108546 0.2426906 0.083612934 0.20070474
000170 5f 09 26 3c ce 37 a7 bd 78 66 0b 3e d3 77 99 3c
       0.01013407 -0.08164941 0.13613307 0.018733894
000180 40 ce f5 bc b3 66 16 bf c1 5f df bc ef 95 0f bb
       -0.030005574 -0.58750457 -0.027267339 -0.0021909436
000190 d3 51 eb 3d 28 17 d5 be 04 b6 39 bc 34 6f 26 3e
       0.11490216 -0.4161923 -0.0113349 0.16253358
0001a0 0f 47 f7 bd d4 f4 02 c0 24 7a 12 be 0e be cc bd
       -0.120741 -2.0461931 -0.14304405 -0.099971876
0001b0 93 b0 53 3d b4 8b 96 be 14 8c 21 bf 28 93 5e 3d
       0.051682066 -0.2940346 -0.6310437 0.054339558
0001c0 ff ff 37 3d bb 2b a1 3c 2e a1 a6 3c 57 f3 6a 3e
       0.04492187 0.019674173 0.020340528 0.2294439
0001d0 ab 19 6e bc c7 59 3c 3f 57 c2 60 be dc 7c d0 3b
       -0.014532487 0.7357449 -0.21949135 0.0063625406
0001e0 8f ef 1d bb 7e 5c 7e 3d 0c bf 2b be fd 65 52 3d
       -0.0024099087 0.062099926 -0.16772097 0.051366795
0001f0 23 e9 41 3e d2 a6 30 3e a2 c2 00 3d e1 4e 25 3e
       0.18936591 0.17251137 0.031435616 0.16143371
000200 67 4c 98 3d 23 91 37 be 5e 6f 1a bd b0 19 37 be
       0.074364476 -0.17926459 -0.037703864 -0.17880893
000210 d6 20 89 bd 43 3d ca bf 38 ac 59 bc 01 68 41 bc
       -0.06695716 -1.5799946 -0.013285689 -0.011804582
000220 3d 78 ee 3c 03 80 46 3e c3 b8 85 3d a2 fc e4 3d
       0.029110068 0.1938477 0.06529381 0.111809984
000230 cd d9 02 bc 98 d3 87 3e dd 9a fc 3d 68 67 c2 3e
       -0.007986498 0.2652862 0.12334225 0.37969518
000240 e6 6f 9d bd e2 2a 18 3f b5 f3 ef 3d bd 99 61 be
       -0.076873586 0.59440434 0.11716405 -0.22031303
000250 af 29 1e bc e0 ff ad bd fe 1e 40 3d ca 82 c7 be
       -0.009653493 -0.0849607 0.046904556 -0.38966972
000260 bd 2c 90 be 16 83 af 3d 8d 5d a4 3e 7a b1 c1 3e
       -0.28159133 0.085699245 0.32102624 0.37830716
000270 5f cb 15 bf f5 71 46 3f ad 68 76 bc a8 77 53 3e
       -0.58513445 0.77517635 -0.015039605 0.20651114
000280 76 23 db be a8 5f 56 be c1 65 8a be df c6 71 ba
       -0.42800492 -0.20934927 -0.27030757 -0.00092230545
000290 95 e9 08 bb 0b 71 38 3e af d6 6c bf d0 68 b8 be
       -0.002089118 0.18011872 -0.9251508 -0.36017466
0002a0 fe 06 16 bd 6d 84 1c bf c3 33 53 3e cb 5d 19 3d
       -0.036627762 -0.61139566 0.20625214 0.037442964
0002b0 32 29 79 3e 3f b5 90 bf 51 2e 30 3d 7f a5 50 3e
       0.24332121 -1.1305312 0.04301292 0.20375632
0002c0 7b d1 4e be 06 7b 96 bf b0 70 5d bd a5 d0 bc 3d
       -0.20197098 -1.1756294 -0.054062545 0.09219483
0002d0 2b f8 8c 3d 9e b1 b5 be bd 8b c8 be d3 cc ed 3d
       0.06883272 -0.35487074 -0.39169112 0.11611333
0002e0 63 48 43 3c 23 04 27 be da a9 06 bd 75 94 57 3e
       0.011919114 -0.16310172 -0.032876827 0.21052726
0002f0 89 d0 32 bd 40 fa 8b 3f 3d 1e e0 be 80 cb 05 bd
       -0.043655906 1.0935745 -0.4377307 -0.032664776

B1.c3_d.bias f4 [8]
000000 84 62 84 bc 61 63 17 bc 70 73 90 be 90 be 17 be
       -0.016160257 -0.009240002 -0.28213072 -0.14818788
000010 0d d4 85 3c 8b 97 17 3d 4f 56 23 3d 8d f1 f5 bd
       0.016336465 0.037009757 0.039877232 -0.12008963
