model_zoo/team13_HannahSR.pth (torch, 360441 bytes, 282 tensors)

fea_conv_1.eval_conv.bias f4 [24]
-0.017855287 -0.0027297437 0.006360054 0.46696493 -0.028132206 0.0036280155 0.0120820105 0.00619711
-0.018202096 -0.007888854 0.009118646 -0.26127768 -0.035343215 -0.005202666 -0.36971825 -0.027904302
-0.026239157 -0.09316777 -0.021942258 -0.014696576 -0.053174272 -0.0324707 0.0009095669 -0.009671718
00000000: 4045 92bc 80e5 32bb 0068 d03b 0716 ef3e
00000010: 8375 e6bc 00c4 6d3b a0f3 453c 2011 cb3b
00000020: 901c 95bc 4040 01bc 6066 153c 30c6 85be
00000030: 0cc4 10bd 207b aabb b64b bdbe 9097 e4bc
00000040: 80f3 d6bc bece bebd 40c0 b3bc e8c9 70bc
00000050: 44cd 59bd ffff 04bd 0070 6e3a 2076 1ebc

B1.c1_d.weight f4 [8, 24, 1, 1]
0.085190035 -0.32616544 -2.31877 0.01384447 -0.26715586 -0.3040658 -0.4572164 0.27226412
4.2436666 0.010324634 -0.24586096 0.06368183 0.7699281 0.6217278 -0.6753624 0.73952806
-0.21333444 0.04107029 0.12926173 0.5721821 -1.3343865 -0.61189395 -0.60411394 0.04187455
-0.123742074 -0.06366923 -0.38554066 0.025252257 -0.3565728 0.008414275 0.5188222 -0.033257045
-0.6725166 0.06147219 -0.048980743 0.07711266 0.054184254 1.7397032 0.03467695 0.2181523
-0.3958872 0.0050866264 -0.2719934 -0.741739 0.45039424 -0.16226222 -0.9320153 0.34915555
0.33866277 0.36338937 -0.88981336 0.3616056 -0.62612784 0.09884803 0.9713541 -0.29531315
-1.7777313 -0.4683668 0.10379764 -0.043148093 0.11777619 4.2527266 0.14954366 0.3115585
0.8057412 -0.10761402 0.48203534 -1.0020374 0.62284094 -0.38510415 -1.7315779 -0.03174288
-0.31601298 0.75235647 -2.2105262 0.5049734 0.4330993 -0.8931997 -1.3694342 -0.6009715
6.7208676 -0.29155552 -0.21348701 0.22671022 1.540713 -1.9262147 -0.0755195 1.5112952
0.018817643 0.34098333 -0.21967925 0.11986893 0.009742522 -0.8002364 -2.4437025 -0.30543336
0.029230513 0.361291 -0.37227723 0.1253423 0.014993892 0.1131853 -0.3096511 0.15695053
1.4971092 -0.0958649 0.5064374 -0.061094966 -0.2078625 10.557788 -0.21011932 0.4864302
-0.037113085 -0.2140849 0.33574232 0.967309 0.15371394 -0.20431258 0.7744802 -0.088933855
-0.020159286 -0.28841823 -7.359838 0.54586065 2.1790545 0.13217516 -1.3565596 0.6236037
-2.5776877 1.9380699 -0.10512642 0.2568829 0.19549485 2.1301866 -0.029827636 0.82504255
0.6308845 0.06721142 -0.19103007 -3.3414185 -1.2217245 -0.13121492 -0.20614299 0.33042854
-0.045989487 -0.14413036 0.5712078 0.02582355 -0.3344397 -0.030972766 0.14836805 -0.08301567
0.26159942 -0.022212526 0.0235019 0.7228622 -0.011871359 -0.40511036 -0.08606118 0.6650705
-0.032289423 0.21815844 -0.13758215 0.19399118 0.22007103 -0.28348428 -0.11248385 -0.01604387
0.05346033 0.274482 -1.7120352 0.13528144 0.38943782 -0.31943986 -0.57141405 -0.2289068
1.5329915 0.1467593 -0.012657821 0.5411844 -0.054194167 0.48776555 -0.17850915 0.9122863
0.036487613 0.8451783 -0.0063907476 0.6285092 -0.5472717 0.09039485 -0.44394445 -0.28055304
00000000: 1d78 ae3d 28ff a6be ba66 14c0 ead3 623c
00000010: a7c8 88be 83ae 9bbe 4518 eabe 3466 8b3e
00000020: 1ecc 8740 a728 293c fac2 7bbe 9f6b 823d
00000030: 021a 453f 8e29 1f3f 8de4 2cbf b651 3d3f
00000040: 5874 5abe 5239 283d 305d 043e 877a 123f
00000050: 2dcd aabf 15a5 1cbf 36a7 1abf a684 2b3d
00000060: 7c6c fdbd 0365 82bd 9665 c5be d2dd ce3c
00000070: b690 b6be 07dc 093c 88d1 043f 8a38 08bd
00000080: 0c2a 2cbf 43ca 7b3d 08a0 48bd 3eed 9d3d
00000090: 4ff0 5d3d 98ae de3f 6b09 0e3d 5163 5f3e
000000a0: bab1 cabe b7ad a63b b842 8bbe 9be2 3dbf
000000b0: 139a e63e 1128 26be 8e98 6ebf 84c4 b23e
000000c0: 3565 ad3e 2c0e ba3e cfca 63bf 5f24 b93e
000000d0: ea49 20bf d670 ca3d aaaa 783f 4933 97be
000000e0: b38c e3bf c6cd efbe db93 d43d 0ebc 30bd
000000f0: a534 f13d 5616 8840 f921 193e 9984 9f3e
00000100: 0e45 4e3f bd64 dcbd 56cd f63e c342 80bf
00000110: 8172 1f3f 5f2c c5be 58a4 ddbf d204 02bd
00000120: 74cc a1be 6f9a 403f 4379 0dc0 f045 013f
00000130: 31bf dd3e bca8 64bf 9f49 afbf 45d9 19bf
00000140: 5911 d740 c446 95be 579c 5abe b926 683e
00000150: 1536 c53f 348e f6bf f8a9 9abd 1f72 c13f
00000160: 7527 9a3c 5e95 ae3e 99f3 60be d77d f53d
00000170: 199f 1f3c 4bdc 4cbf 9f65 1cc0 c361 9cbe
00000180: d474 ef3c 22fb b83e 1f9b bebe bb59 003e
00000190: f1a8 753c b2cd e73d 978a 9ebe a4b7 203e
000001a0: 46a1 bf3f d154 c4bd e2a5 013f b73e 7abd
000001b0: e8d9 54be b3ec 2841 8529 57be 610d f93e
000001c0: e403 18bd 1239 5bbe 6be6 ab3e 90a1 773f
000001d0: 3067 1d3e 5137 51be 5644 463f f422 b6bd
000001e0: 1625 a5bc 8eab 93be cb83 ebc0 86bd 0b3f
000001f0: a175 0b40 ed58 073e bfa3 adbf 7ea4 1f3f
00000200: d6f8 24c0 ad12 f83f 854c d7bd 2886 833e
00000210: cd2f 483e fa54 0840 1659 f4bc fd35 533f
00000220: a681 213f 24a6 893d 639d 43be cdd9 55c0
00000230: 7861 9cbf 345d 06be 2617 53be ee2d a93e
00000240: 795f 3cbd e996 13be ad3a 123f e98b d33c
00000250: ae3b abbe 99ba fdbc cbed 173e 1f04 aabd
00000260: 5cf0 853e 0bf7 b5bc 0e87 c03c 7f0d 393f
00000270: 1780 42bc a06a cfbe d840 b0bd 0f42 2a3f
00000280: ea41 04bd ed64 5f3e 56e2 0cbe a0a5 463e
00000290: 4d5a 613e da24 91be ef5d e6bd 6f6e 83bc
000002a0: 38f9 5a3d e888 8c3e f823 dbbf 3887 0a3e
000002b0: 6564 c73e 9f8d a3be 3148 12bf 8b66 6abe
000002c0: 1139 c43f 1248 163e c062 4fbc 108b 0a3f
000002d0: b4fa 5dbd 68bc f93e 1acb 36be 988b 693f
000002e0: 0974 153d 9b5d 583f 7a69 d1bb fbe5 203f
000002f0: 001a 0cbf ef20 b93d b04c e3be a6a4 8fbe

B1.c1_d.bias f4 [8]
-0.21115234 0.028837603 -0.12338997 0.008084329 -0.06245749 -0.17156562 0.14653628 0.077907935
00000000: 5238 58be d63c ec3c e1b3 fcbd 2274 043c
00000010: 6dd3 7fbd e6ae 2fbe 9b0d 163e 328e 9f3d

B1.c1_r.pw.weight f4 [24, 24, 1, 1]
-0.21034934 0.24641787 -0.014303197 -0.051710334 -0.31421635 -0.21799277 0.29767847 0.10331445
0.3076386 0.11464065 4.063897 -0.3725108 0.07236665 -0.41264316 -0.09754051 -0.47594723
3.3017404 -0.19002783 0.33398667 0.02456522 -0.69460845 -0.34001276 0.7465049 -0.71763706
-0.5134798 0.646631 0.6702927 -0.0064521725 -0.023531321 0.036706816 -0.3053972 -0.052440558
0.6359004 0.038683094 0.80626655 -0.3505039 -0.47100076 0.51586324 0.27834213 0.42285392
-1.1587548 -0.26580977 -1.105827 0.21069637 0.53147167 -0.38160533 -0.75379 1.1845397
-0.018280903 0.16937053 -0.103157334 0.12593748 0.28967735 0.32496464 -0.30343392 -0.20952307
-0.23857641 -0.08814467 0.034357358 0.08235744 -0.33754435 1.0643739 -0.2521972 1.0132325
-3.1113422 0.1342412 0.56666285 0.15803523 -0.69250447 0.42823708 -0.71012324 0.44389343
-0.47938913 0.025430297 0.13216007 0.38121 0.64053863 0.0035371596 -0.4642125 -0.34602445
0.070092015 -0.041825905 -5.606485 0.13954237 -0.4507231 0.16871236 0.1453985 1.2204207
-1.2941955 -0.026048772 -1.151517 0.4011852 1.3501545 -0.43660805 0.26108107 -0.024538526
0.12702264 0.044616885 -0.19687425 0.8591768 1.1798937 -0.5181439 0.15983374 0.38797182
-0.32086328 0.16737662 -0.052377384 1.2769268 -0.9739819 0.11058424 -0.11154145 0.26544917
-0.042012367 0.10408438 -0.00017790662 0.38581917 -0.41182438 0.009688366 -0.20978741 -0.4860295
-0.07133256 -0.20221652 0.12873083 -0.34377742 -0.014832245 -0.39188504 -0.19732764 -0.0857648
-0.033138655 -0.09179484 0.19302465 -1.0686655 0.28516647 -0.09187019 0.020259658 0.08443312
0.20965415 0.045541156 -0.07131757 0.0472262 -0.0348531 -0.29793066 0.17173171 0.17456917
0.24277924 -0.18227711 -0.7837541 -0.27098963 -0.34536052 -0.28387153 -0.8052832 0.40361977
0.16699214 0.12699294 -2.7324283 -0.27397704 -0.0011634743 -0.7011549 0.14759526 -0.5420903
0.07144778 -0.0721802 -0.20320876 -0.38668352 -2.323122 0.051680557 1.2376362 -0.6685074
-0.011414318 -0.25342152 0.012187776 0.14242655 0.33061633 -0.24812947 0.13022684 -0.40205175
-0.7003963 -0.06707661 0.031737763 1.269924 0.19161838 -0.3494487 0.0479111 0.0220581
-0.1917185 -0.08298183 -0.015283602 0.29754266 0.104258396 0.0848183 -0.1332496 -0.06097236
0.010916292 0.34812877 -0.19677863 -0.74813825 -0.36521655 0.2338349 -0.08521726 -0.04886116
-0.42693576 -0.0092485575 -0.32295015 -1.7954937 0.22304428 0.32532066 0.4588131 -0.11228125
1.3984027 0.07738687 -0.07385126 -0.0049701515 0.22527426 0.11015189 0.33773756 0.21075544
-0.09291543 0.01661126 0.038222153 -0.3674602 -0.4208416 0.13574389 -0.15901299 0.11422925
0.17796934 0.7798906 0.13583337 -0.95344114 0.20493878 0.37324622 0.061471876 -0.3106145
0.26629165 0.2957989 0.017435692 -0.19797398 0.15284689 -0.004043443 -0.07975365 0.112599544
0.15280578 0.026771864 -0.7327248 0.10942164 0.011811887 -0.06784659 0.6666219 0.24060838
-1.8387674 0.20705375 2.147106 0.07081187 -0.028802538 -1.2750194 0.2506092 0.4563405
00000000: d165 57be f754 7c3e f557 6abc 37ce 53bd
00000010: f7e0 a0be 7f39 5fbe 5069 983e 8796 d33d
00000020: ce82 9d3e b8c8 ea3d 720b 8240 bcb9 bebe
00000030: f734 943d f745 d3be 52c3 c7bd 5baf f3be
00000040: b74f 5340 a896 42be 4d00 ab3e 003d c93c
00000050: dcd1 31bf 2716 aebe f21a 3f3f 10b7 37bf
00000060: 6a73 03bf 9c89 253f 4d98 2b3f bf6c d3bb
00000070: c2c4 c0bc e359 163d 065d 9cbe e9cb 56bd
00000080: 5eca 223f 2a72 1e3d 7c67 4e3f 3f75 b3be
00000090: 0327 f1be 9d0f 043f dc82 8e3e 4f80 d83e
000000a0: 1452 94bf 3818 88be bd8b 8dbf cac0 573e
000000b0: 870e 083f c661 c3be 62f8 40bf ff9e 973f
000000c0: d5c1 95bc 786f 2d3e 2744 d3bd c1f5 003e
000000d0: 9750 943e c461 a63e b15b 9bbe 378d 56be
000000e0: 604d 74be 3185 b4bd 4dba 0c3d 04ab a83d
000000f0: 9dd2 acbe 673d 883f fe1f 81be 9ab1 813f
00000100: 3b20 47c0 8676 093e d110 113f fdd3 213e
00000110: f947 31bf e441 db3e a3ca 35bf 0046 e33e
00000120: 7e72 f5be 3353 d03c f854 073e f52d c33e
00000130: 57fa 233f b1cf 673b 43ad edbe 1e2a b1be
00000140: 678c 8f3d a451 2bbd 5368 b3c0 32e4 0e3e
00000150: 2ec5 e6be efc2 2c3e 58e3 143e bf36 9c3f
00000160: 33a8 a5bf 3c64 d5bc e964 93bf 2668 cd3e
00000170: ddd1 ac3f 178b dfbe 6bac 853e 0505 c9bc
00000180: 3912 023e 32c0 363d 6799 49be 03f3 5b3f
00000190: c206 973f 14a5 04bf 75ab 233e 3ea4 c63e
000001a0: 3148 a4be c764 2b3e ab89 56bd 5672 a33f
000001b0: e156 79bf fd79 e23d d86f e4bd f4e8 873e
000001c0: 2915 2cbd 312a d53d 728c 3ab9 178a c53e
000001d0: a5da d2be f4bb 1e3c 83d2 56be dcd8 f8be
000001e0: ce16 92bd d911 4fbe 04d2 033e 9803 b0be
000001f0: f202 73bc 28a5 c8be 4210 4abe 75a5 afbd
00000200: 66bc 07bd effe bbbd 41a8 453e 08ca 88bf
00000210: 5701 923e 7026 bcbd 95f7 a53c 46eb ac3d
00000220: 94af 563e 5d89 3a3d f20e 92bd 4370 413d
00000230: 20c2 0ebd 5e8a 98be 70da 2f3e 43c2 323e
00000240: 1f9b 783e daa6 3abe 1ca4 48bf 27bf 8abe
00000250: 18d3 b0be 9c57 91be 0a27 4ebf 40a7 ce3e
00000260: fdff 2a3e 700a 023e 1be0 2ec0 b846 8cbe
00000270: b87f 98ba e37e 33bf 3623 173e 6ec6 0abf
00000280: 3753 923d 36d3 93bd f515 50be 62fb c5be
00000290: 08ae 14c0 feae 533d dd6a 9e3f 4d23 2bbf
000002a0: 1f03 3bbc 77c0 81be 3daf 473c 44d8 113e
000002b0: 8b46 a93e a715 7ebe 2f5a 053e bad9 cdbe
000002c0: 2c4d 33bf 765f 89bd 75ff 013d df8c a23f
000002d0: 9c37 443e f1ea b2be 6e3e 443d 30b3 b43c
000002e0: db51 44be 61f2 a9bd 1368 7abc 8357 983e
000002f0: 6d85 d53d 38b5 ad3d 9572 08be 27be 79bd
00000300: 3fda 323c ef3d b23e 5680 49be fd85 3fbf
00000310: aafd babe 6b72 6f3e 6386 aebd a422 48bd
00000320: 5397 dabe 4387 17bc b959 a5be bdd2 e5bf
00000330: b865 643e 6e90 a63e 8de9 ea3e b6f3 e5bd
00000340: dcfe b23f 027d 9e3d 543f 97bd a7dc a2bb
00000350: 4cae 663e 5097 e13d f0eb ac3e 46d0 573e
00000360: 724a bebd 5614 883c d58e 1c3d be23 bcbe
00000370: 8d78 d7be 7200 0b3e 4dd4 22be 06f1 e93d
00000380: 983d 363e e9a6 473f e717 0b3e b814 74bf
00000390: 79db 513e 211a bf3e efc9 7b3d dd08 9fbe
000003a0: 6157 883e f472 973e 4cd5 8e3c b1b9 4abe
000003b0: e583 1c3e dc7e 84bb e255 a3bd 979a e63d
000003c0: 1e79 1c3e ab50 db3c da93 3bbf 7418 e03d
000003d0: a586 413c 27f3 8abd bca7 2a3f 0b62 763e
000003e0: bb5c ebbf e605 543e 2f6a 0940 d005 913d
000003f0: 4df3 ebbc d633 a3bf d94f 803e 76a5 e93e

B1.c1_r.dw.weight f4 [24, 1, 3, 3]
0.016733257 -0.076148376 0.01996929 -0.06699129 2.798474 -0.07485238 0.015288368 -0.08104848
0.016024621 -0.03822444 -0.17264454 -0.046778366 -0.15755798 0.10606864 -0.16791058 -0.031659227
-0.15759674 -0.040519044 -0.10334992 -0.23788057 -0.0941291 -0.24310571 0.056693744 -0.22744745
-0.08722537 -0.234879 -0.09644458 -0.16510439 -0.59296554 -0.15522276 -0.6037793 2.8823984
-0.64412594 -0.14752705 -0.6538056 -0.13160253 -0.15995996 -0.5477446 -0.15734084 -0.5694488
1.8891935 -0.55799985 -0.13449197 -0.58299416 -0.13595273 0.03465523 0.04317597 0.036062848
0.07059339 1.7708262 0.04656079 0.03615282 0.052514523 0.0353488 -0.0131374765 -0.061549563
-0.0061219144 -0.03274214 1.1987245 -0.036676247 -0.001956234 -0.028891668 0.004058169 0.10134887
0.3378982 0.11002737 0.36806908 0.33010048 0.3474891 0.11841587 0.33205956 0.13452607
-0.046532575 -0.033885412 -0.052731194 -0.0536804 2.2343683 -0.043795608 -0.041634377 -0.044319864
-0.045064624 0.10002195 0.24033284 0.09440536 0.27217388 -2.0382671 0.26050422 0.09448424
0.27314273 0.092438966 0.032885697 0.1467809 0.019370627 0.1561248 0.1564118 0.16587122
0.030323895 0.1490855 0.026622992 -0.0012185643 -0.02336363 0.00093438756 -0.023017008 -1.4965622
-0.020605193 8.111386e-05 -0.019979402 -0.00035208344 0.23789492 0.4319013 0.24685454 0.42641795
-2.5395482 0.46960354 0.19434504 0.5079272 0.20127846 -0.54841805 0.27527598 -0.5718709
0.25614735 1.3238248 0.25903022 -0.5604495 0.24637221 -0.53081214 0.17993666 0.62908065
0.17635675 0.6833463 -3.5421112 0.6839128 0.13609786 0.69169444 0.15367326 0.06668281
0.39381248 0.06573331 0.38307726 -1.669293 0.39336187 0.06672325 0.39642617 0.048118774
-0.026565965 0.01255559 -0.03926874 0.026312115 3.0368958 0.023857754 -0.051706303 0.0147477975
-0.022898456 0.010163713 -0.0743881 0.006376426 -0.06145331 -1.987216 -0.07016521 0.0112847965
-0.0683179 0.008208282 -0.09525541 -0.19927536 -0.12328322 -0.23052771 1.8561074 -0.18368603
-0.10499885 -0.2062231 -0.10049653 0.0002856637 0.020671688 -0.00043050243 0.016728176 1.6507508
0.01981555 -0.00038183588 0.017514748 -0.0038293737 0.09752231 0.6863927 0.081246674 0.6760856
-3.2420754 0.7143376 0.078168415 0.7088477 0.0771828 -0.08807796 -0.49307328 -0.06013489
-0.5012045 2.5078468 -0.5189348 -0.06983048 -0.49893653 -0.09118239 -0.036973827 -0.18593499
-0.007923219 -0.1988079 0.3417337 -0.18347286 -0.011194051 -0.20080805 -0.029664831 0.18926826
0.95084304 0.18691003 0.958035 -4.5745964 0.9859108 0.17810309 0.95504713 0.17985192
00000000: 2f14 893c aef3 9bbd a396 a33c bb32 89bd
00000010: 331a 3340 344c 99bd 107c 7a3c bffc a5bd
00000020: 1146 833c 3b91 1cbd bbc9 30be ac9a 3fbd
00000030: e156 21be 843a d93d c0f0 2bbe 1bad 01bd
00000040: 0a61 21be 4cf7 25bd 1fa9 d3bd f796 73be
00000050: c2c6 c0bd b4f0 78be b337 683d fce7 68be
00000060: 37a3 b2bd 1f84 70be bc84 c5bd 2011 29be
00000070: 97cc 17bf b7f2 1ebe 4891 1abf 3779 3840
00000080: 70e5 24bf 5511 17be ce5f 27bf d0c2 06be
00000090: 8bcc 23be fd38 0cbf f51d 21be 66c7 11bf
000000a0: 18d1 f13f 14d9 0ebf 43b8 09be 1b3f 15bf
000000b0: 3137 0bbe a4f2 0d3d 49d9 303d a3b6 133d
000000c0: 4493 903d 6faa e23f 87b6 3e3d fb14 143d
000000d0: 7819 573d e7c9 103d 923e 57bc 651b 7cbd
000000e0: 579a c8bb 9f1c 06bd ce6f 993f d539 16bd
000000f0: 2934 00bb 38ae ecbc 64fa 843b ff8f cf3d
00000100: fe00 ad3e 0856 e13d 8d73 bc3e ee02 a93e
00000110: 17ea b13e 0584 f23d b603 aa3e 34c1 093e
00000120: f198 3ebd 6ecb 0abd aafc 57bd fbdf 5bbd
00000130: e4ff 0e40 0663 33bd cf88 2abd bf88 35bd
00000140: af95 38bd 4fd8 cc3d d019 763e 9957 c13d
00000150: 605a 8b3e f872 02c0 cf60 853e f480 c13d
00000160: 5dd9 8b3e a450 bd3d 27b3 063d bb4d 163e
00000170: 26af 9e3c 2edf 1f3e 6a2a 203e 25da 293e
00000180: d169 f83c dfa9 183e 7618 da3c 3cb8 9fba
00000190: 1565 bfbc b0f1 743a 2a8e bcbc 5a8f bfbf
000001a0: 39cc a8bc ac1b aa38 d8ab a3bc d797 b8b9
000001b0: ba9a 733e 2b22 dd3e 70c7 7c3e 7453 da3e
000001c0: f587 22c0 e06f f03e 6302 473e 8407 023f
000001d0: f11b 4e3e 2065 0cbf f9f0 8c3e 2266 12bf
000001e0: bf25 833e 1773 a93f 9c9f 843e 9e79 0fbf
000001f0: ff48 7c3e 4ee3 07bf 5141 383e 6e0b 213f
00000200: dd96 343e c8ef 2e3f f3b1 62c0 e914 2f3f
00000210: 3d5d 0b3e e312 313f 865c 1d3e ff90 883d
00000220: caa1 c93e 309f 863d b422 c43e 65ab d5bf
00000230: ba66 c93e 33a6 883d 5ff8 ca3e 3118 453d
00000240: dea0 d9bc f6b5 4d3c 42d8 20bd 818c d73c
00000250: 805c 4240 5671 c33c fdc9 53bd bfa0 713c
00000260: 8b95 bbbc b485 263c ca58 98bd 57f1 d03b
00000270: 77b6 7bbd 185d febf c7b2 8fbd dee3 383c
00000280: 41ea 8bbd 087c 063c 4515 c3bd d70e 4cbe
00000290: ea7b fcbd 750f 6cbe ed94 ed3f 3118 3cbe
000002a0: a309 d7bd 262c 53be 20d1 cdbd 22c5 9539
000002b0: ac57 a93c 0fb5 e1b9 8709 893c cd4b d33f
000002c0: 3854 a23c 2531 c8b9 177b 8f3c 3bf6 7abb
000002d0: c7b9 c73d 6fb7 2f3f a864 a63d f213 2d3f
000002e0: 2a7e 4fc0 d4de 363f c316 a03d 0b77 353f
000002f0: 0412 9e3d 3862 b4bd 1a74 fcbe 0150 76bd
00000300: f04e 00bf 9080 2040 e9d8 04bf 4803 8fbd
00000310: 9c74 ffbe d5bd babd de71 17bd be65 3ebe
00000320: 64d0 01bc 4c94 4bbe b8f7 ae3e 4fe0 3bbe
00000330: 4167 37bc a0a0 4dbe a903 f3bc 8acf 413e
00000340: 736a 733f 5865 3f3e c841 753f 1863 92c0
00000350: a664 7c3f a860 363e f87d 743f 1a2b 383e

B1.c1_r.dw.bias f4 [24]
-0.108048566 0.0065670703 0.12604776 -0.52122426 -0.18137231 -0.64725566 -0.005207598 0.08548556
-1.2417597 -0.08531557 0.019917304 0.0083244275 -0.14741322 0.054525796 -0.2086837 0.076707706
0.0033070531 -1.392919 0.11822243 -0.075009644 0.13726188 -0.0025646451 0.04108389 0.0063787773
00000000: 9148 ddbd 9430 d73b aa12 013e f46e 05bf
00000010: aab9 39be 8cb2 25bf 80a4 aabb 0e13 af3d
00000020: fbf1 9ebf eeb9 aebd 9d29 a33c 2e63 083c
00000030: 7ef3 16be 7156 5f3d 2eb1 55be ee18 9d3d
00000040: 25bb 583b 2b4b b2bf 9a1e f23d a89e 99bd
00000050: 618e 0c3e 9b13 28bb 9547 283d 1005 d13b

B1.c2_d.weight f4 [8, 24, 1, 1]
-0.091959216 0.033967726 -0.053810608 -0.015471399 -0.97366 1.053343 -0.08253927 -0.21613471
0.3571126 1.0127555 0.6160784 0.5355864 -0.11336031 -0.089715295 -0.0777031 0.15753272
-0.11321327 -0.052324664 0.23738015 0.39934617 0.052232515 0.36035487 -0.56598324 -0.002861522
0.06881838 -0.50369596 -0.028717669 -0.07048848 -0.5756019 0.30282745 0.07982102 0.17592429
0.19804995 0.58002764 -0.33466217 0.24751908 -0.22612053 0.45084044 -0.70750564 -0.60992867
0.034385458 0.22679016 0.12730144 0.045421574 0.054024264 -0.26642668 0.47963804 -0.039128143
-0.14798298 0.79099625 0.23608321 -0.13649532 0.10898114 0.15966961 -0.059401132 0.20837909
-0.5467926 0.05371402 1.0685412 -0.3145366 -0.4367245 -0.4521154 -0.12253419 0.4735157
0.021289673 -0.27474722 -0.042938575 0.07258701 0.032116868 0.14283131 -0.013331346 -0.03330511
-0.08043919 0.8860437 -0.26153243 0.07866734 -0.12013307 -0.58094877 -0.1225269 0.51496744
-0.21720737 -0.3962 0.41775173 0.13458529 -0.06791471 -0.22828792 0.28946126 0.63464755
-0.06745405 -0.79950833 -0.06799489 -0.1934958 -0.047995716 -0.009782495 -0.62802684 0.011848614
0.012576566 0.46239072 0.044825077 -0.012460212 0.3144897 0.48722452 0.09813488 0.31099522
-0.1427472 -0.20879333 0.109046414 -0.112262234 -0.26453996 0.2626069 -0.14055292 0.116326995
0.017621148 0.5542409 -0.4293431 -0.31898212 0.005802064 -1.1431723 0.22113377 -0.011685087
0.029427605 0.7436069 -0.28367704 0.019761922 -0.39284056 -0.05383967 0.06377851 0.0783151
-1.1457235 0.05439812 0.0073213666 -0.8640639 0.055260744 0.059749313 0.21593294 0.033566196
-0.042168822 0.7242195 0.019550927 1.080275 -0.018619016 -0.179434 -0.032210212 0.0134002
0.013901804 -0.07118224 0.10205293 -0.025012128 0.25979298 -0.094355725 0.06386292 0.7353979
-0.3106645 -0.37945586 0.036093716 0.08955186 -1.9378315 0.19420066 -0.027248152 -0.16190548
0.020548742 0.16459452 -0.2735441 0.11091794 0.0065749832 0.03601685 0.54381746 -0.020624232
-0.16602914 2.1494906 -0.04135282 0.015289047 -1.0222491 0.883671 0.18127099 0.07633216
-0.09788032 0.9871334 -0.16422065 0.13560927 -0.2788192 -0.36368808 -0.088850774 0.68093187
-0.06308631 0.059520565 0.27464363 0.46009123 -0.021427236 0.3125149 -1.160914 -0.00012348987
00000000: 1d55 bcbd be21 0b3d 8368 5cbd c07b 7dbc
00000010: c841 79bf f2d3 863f 590a a9bd 6b52 5dbe
00000020: 76d7 b63e f9a1 813f 50b7 1d3f 311c 093f
00000030: 7329 e8bd a7bc b7bd ce22 9fbd 4250 213e
00000040: 5cdc e7bd 6352 56bd c813 733e 1a77 cc3e
00000050: c3f1 553d 6f80 b83e 47e4 10bf 5f88 3bbb
00000060: a7f0 8c3d 38f2 00bf 5141 ebbc 445c 90bd
00000070: a55a 13bf 330c 9b3e 3479 a33d 7f25 343e
00000080: 9bcd 4a3e b17c 143f d758 abbe a475 7d3e
00000090: 248c 67be 8fd4 e63e 171f 35bf 4924 1cbf
000000a0: c4d7 0c3d ae3b 683e 4f5b 023e f90b 3a3d
000000b0: 8c48 5d3d 1469 88be 1e93 f53e d544 20bd
000000c0: da88 17be bb7e 4a3f ccbf 713e 6ec5 0bbe
000000d0: 8131 df3d 6e80 233e 9a4e 73bd 5461 553e
000000e0: 9afa 0bbf 3b03 5c3d f5c5 883f f10a a1be
000000f0: 5b9a dfbe ab7b e7be 35f3 fabd a670 f23e
00000100: ae67 ae3c abab 8cbe 5ce0 2fbd 80a8 943d
00000110: fa8c 033d 5f42 123e b86b 5abc f06a 08bd
00000120: 4dbd a4bd c3d3 623f 94e7 85be 581c a13d
00000130: 5408 f6bd 0fb9 14bf 62ef fabd e8d4 033f
00000140: 9c6b 5ebe bada cabe 8ee3 d53e bad0 093e
00000150: de16 8bbd 4fc4 69be 4434 943e 4378 223f
00000160: 5925 8abd 94ac 4cbf e840 8bbd c323 46be
00000170: 2897 44bd c246 20bc 5ec6 20bf b020 423c
00000180: f10d 4e3c 7abe ec3e 809a 373d eb25 4cbc
00000190: cb04 a13e 7e75 f93e f1fa c83d c43a 9f3e
000001a0: 522c 12be ebcd 55be ba53 df3d bee9 e5bd
000001b0: c871 87be 6974 863e 1bed 0fbe d93c ee3d
000001c0: 3a5a 903c bbe2 0d3f dcd2 dbbe a051 a3be
000001d0: 3e1f be3b 7853 92bf e470 623e cf72 3fbc
000001e0: 2912 f13c 065d 3e3f 1e3e 91be c1e3 a13c
000001f0: 6622 c9be fc86 5cbd 4f9e 823d ab63 a03d
00000200: 11a7 92bf 90d0 5e3d 13e8 ef3b 4b33 5dbf
00000210: 1759 623d b2bb 743d 861d 5d3e b57c 093d
00000220: 37b9 2cbd 7366 393f 4429 a03c 7446 8a3f
00000230: e886 98bc 8cbd 37be dbee 03bd 838c 5b3c
00000240: 64c4 633c ffc7 91bd 2001 d13d 3ce6 ccbc
00000250: 9603 853e 933d c1bd 90ca 823d 0943 3c3f
00000260: 6b0f 9fbe 0a48 c2be 01d7 133d f766 b73d
00000270: dd0a f8bf 8adc 463e 8437 dfbc 8dca 25be
00000280: d655 a83c 778b 283e f90d 8cbe f228 e33d
00000290: f572 d73b 6886 133d 9f37 0b3f 26f4 a8bc
000002a0: 8b03 2abe 4191 0940 9361 29bd e97e 7a3c
000002b0: 0fd9 82bf 4338 623f 1a9f 393e 0954 9c3d
000002c0: 7a75 c8bd c6b4 7c3f 7529 28be 28dd 0a3e
000002d0: 64c1 8ebe 5335 babe 65f7 b5bd 8d51 2e3f
000002e0: 6533 81bd d6cb 733d 179e 8c3e 1491 eb3e
000002f0: 2c88 afbc f401 a03e d498 94bf 0f7d 01b9

B1.c2_d.bias f4 [8]
-0.058060337 -0.13563032 -0.09780007 -0.10052334 -0.12525779 -0.045671646 -0.1711358 -0.11412002
00000000: add0 6dbd ade2 0abe 674b c8bd 2edf cdbd
00000010: 9443 00be 3112 3bbd 393e 2fbe c2b7 e9bd

B1.c2_r.pw.weight f4 [24, 24, 1, 1]
-0.4914033 -0.6979687 0.3256619 0.08895852 0.47839734 -0.6933003 -0.0050702924 0.9334463
-0.38986906 -2.1554508 0.3686982 -0.42473793 -0.4595756 0.7764358 0.24160129 2.793209
-0.0096141705 -0.3391071 -0.1873366 -0.39848202 -0.2584496 -0.18428981 -2.239569 -1.2631224
-0.051532697 1.2852796 0.54690397 0.039444055 -0.846089 -0.5617084 -0.35628912 1.0738363
0.42769146 0.73594457 0.79098344 -1.213163 -0.05176527 -0.36277688 -0.24418668 1.6756498
-0.11623466 -0.8173507 0.49535415 1.2453263 -0.11803716 -0.019057598 -0.21547659 0.004418502
0.049918357 -1.9876627 -1.6432673 -0.056969993 1.4206727 0.11028656 0.45802024 0.48146173
0.43804508 -1.2351854 -0.44351447 -0.123261735 0.15277632 0.4157773 0.18497166 0.27643132
0.02762322 0.14610559 -0.92232686 -0.118079714 0.004997359 -0.18719526 1.4972574 -0.039576225
-0.60045487 1.4459566 -0.60733706 -1.1142653 0.25115275 0.16095065 0.18601982 -0.46100247
-0.27654663 -0.17419495 0.022042759 0.6407505 -0.17059849 0.42760256 0.023631385 0.0011377843
0.23728146 -0.2729547 -0.07423554 -1.2167103 -0.28514263 -0.06122028 1.4205757 -0.013020508
-0.023933658 -3.6950884 0.7781385 -0.01011522 -0.2638081 -1.3727705 -0.49484724 -0.39384502
0.6968435 -0.87362087 -1.4296397 0.68553126 0.6787219 -1.1565075 0.32763 1.8216141
-0.031956412 1.0256302 0.74702966 0.033183888 -0.2908678 0.5622405 -1.2392058 0.2200651
0.027215313 -0.24983515 0.093665734 0.0032707108 -0.6690184 -1.598219 0.04060178 1.3639507
-0.1822456 1.8169519 -0.20771445 0.49104246 0.76226455 0.011232891 -0.38837054 0.28158402
-0.00016334138 -0.22439612 -0.3260698 -0.03560295 -0.008295947 -0.13316567 0.30638218 0.009385694
-0.8607115 -0.30653808 0.5860581 -0.100682124 -1.5976425 1.0345712 -0.6620534 0.03583779
-0.4931956 1.5190352 -1.1079879 0.089637235 -0.63679636 0.5423938 0.027685896 -2.901472
-0.08412784 0.059660647 0.48267493 0.18938375 -1.108844 -0.0534363 1.6911675 0.00013700117
-0.9849748 0.46555987 0.36830333 -0.064312935 -0.52795494 0.4120921 0.32254836 -0.93053794
-0.8738251 0.83308977 -1.1679941 0.43973842 -0.199395 0.72732687 0.08715372 -0.14976336
-0.41194797 0.10600733 -0.8059062 -1.0663075 -0.76395226 -0.072846994 2.0402935 -0.010416178
-0.03329175 -0.58747464 0.70200026 0.013930347 0.51107985 -1.6653156 0.48770496 0.02743918
-2.3094711 -1.6822436 -0.02559234 -1.3807595 -0.13112447 -0.31153345 0.34532288 1.1598618
-0.24276502 0.18691471 0.87504786 -0.014817212 -0.07529511 -0.87807715 0.83320355 0.0047827666
0.0843333 -0.6999539 0.1009076 0.06024599 -0.86093915 0.8347046 -0.038354114 0.940457
0.1841496 -0.27011105 -0.6983639 -0.46036926 -0.25048503 0.5026384 0.88053167 0.28042743
0.017480403 0.1379646 -0.11768589 -0.40731084 -0.060012333 0.2792833 1.115396 0.014501907
0.043916505 0.8058377 -0.08046915 0.104870655 -0.011748031 0.02875113 0.28638592 0.1370759
0.2061685 -0.32642815 1.9057637 -0.14317797 -0.55978227 1.2503477 -0.04348619 0.6041721
00000000: 3799 fbbe 14ae 32bf 28bd a63e e22f b63d
00000010: 7ff0 f43e 217c 31bf b224 a6bb 56f6 6e3f
00000020: eb9c c7be e8f2 09c0 03c6 bc3e 4077 d9be
00000030: 7e4d ebbe 7fc4 463f 5466 773e f0c3 3240
00000040: c184 1dbc 729f adbe 2ad5 3fbe d605 ccbe
00000050: 8253 84be 78b6 3cbe 1955 0fc0 ffad a1bf
00000060: f313 53bd 0b84 a43f e601 0c3f 1790 213d
00000070: 4a99 58bf 1fcc 0fbf 876b b6be 7873 893f
00000080: 60fa da3e dd66 3c3f e47d 4a3f ed48 9bbf
00000090: d207 54bd e4bd b9be 130c 7abe b17b d63f
000000a0: 700c eebd e53d 51bf 0f9f fd3e da66 9f3f
000000b0: 77bd f1bd ae1e 9cbc e5a5 5cbe 15c9 903b
000000c0: 3177 4c3d bb6b febf 9556 d2bf 5e59 69bd
000000d0: 9ad8 b53f ecdd e13d a181 ea3e 2782 f63e
000000e0: 7247 e03e 8e1a 9ebf 5414 e3be a670 fcbd
000000f0: 6571 1c3e c3e0 d43e 3669 3d3e 6888 8d3e
00000100: 174a e23c b49c 153e 9d1d 6cbf c7d3 f1bd
00000110: e3c0 a33b 1db0 3fbe 21a6 bf3f ae1a 22bd
00000120: 69b7 19bf 1b15 b93f 717a 1bbf 3fa0 8ebf
00000130: 1897 803e 3fd0 243e fb7b 3e3e 8408 ecbe
00000140: 8597 8dbe 2960 32be 0493 b43c 3a08 243f
00000150: 5fb1 2ebe b9ee da3e 9b96 c13c b521 953a
00000160: e9f9 723e b8c0 8bbe ce08 98bd 2abd 9bbf
00000170: 37fe 91be 1ec2 7abd 6dd5 b53f f853 55bc
00000180: 8510 c4bc 547c 6cc0 1634 473f 4fba 25bc
00000190: db11 87be f2b6 afbf 9e5c fdbe 0ea6 c9be
000001a0: 5664 323f 9ea5 5fbf 6ffe b6bf fa7e 2f3f
000001b0: b8c0 2d3f 7008 94bf 1fbf a73e a72a e93f
000001c0: bae4 02bd da47 833f 563d 3f3f d4eb 073d
000001d0: a0ec 94be feee 0f3f 4c9e 9ebf bf58 613e
000001e0: a6f2 de3c c9d4 7fbe d2d3 bf3d 6c59 563b
000001f0: ca44 2bbf 7192 ccbf 0d4e 263d f095 ae3f
00000200: 979e 3abe e191 e83f 19b3 54be eb69 fb3e
00000210: c523 433f 290a 383c 81d8 c6be c82b 903e
00000220: 9e46 2bb9 19c8 65be 9ff2 a6be 66d4 11bd
00000230: b9eb 07bc 955c 08be 20de 9c3e 74c6 193c
00000240: 9757 5cbf 8ff2 9cbe e707 163f 6e32 cebd
00000250: 8d7f ccbf d46c 843f 557c 29bf a6ca 123d
00000260: 2284 fcbe bf6f c23f 8cd2 8dbf ba93 b73d
00000270: 1605 23bf 52da 0a3f 88cd e23c b8b1 39c0
00000280: 384b acbd b95e 743d 2b21 f73e d0ed 413e
00000290: 9aee 8dbf 06e0 5abd 2d78 d83f f9a7 0f39
000002a0: 4f27 7cbf dd5d ee3e 4192 bc3e 80b6 83bd
000002b0: 0e28 07bf bcfd d23e 0f25 a53e bc37 6ebf
000002c0: 00b3 5fbf 5f45 553f d580 95bf 6525 e13e
000002d0: 342e 4cbe 1832 3a3f a67d b23d 915b 19be
000002e0: d8ea d2be 5f1a d93d de4f 4ebf c47c 88bf
000002f0: 6092 43bf ce30 95bd 2b94 0240 9ea8 2abc
00000300: ee5c 08bd bd64 16bf 4ab6 333f 1c3c 643c
00000310: 21d6 023f 1029 d5bf 77b4 f93e 22c8 e03c
00000320: 60ce 13c0 c253 d7bf 07a7 d1bc babc b0bf
00000330: 7e45 06be 5081 9fbe 29ce b03e 5a76 943f
00000340: 6597 78be 9266 3f3e 2303 603f e4c3 72bc
00000350: 5334 9abd aac9 60bf d44c 553f c1b8 9c3b
00000360: f0b6 ac3d 2e30 33bf a5a8 ce3d 80c4 763d
00000370: 8266 5cbf 33af 553f 3419 1dbd cac1 703f
00000380: b691 3c3e ff4b 8abe fac7 32bf 85b5 ebbe
00000390: 933f 80be e9ac 003f 866a 613f 2f94 8f3e
000003a0: 1033 8f3c 9846 0d3e 4d05 f1bd 0c8b d0be
000003b0: 7ecf 75bd 38fe 8e3e 4cc5 8e3f 6899 6d3c
000003c0: cbe1 333d 614b 4e3f 02cd a4bd 6dc6 d63d
000003d0: d07a 40bc 7d87 eb3c 2da1 923e a05d 0c3e
000003e0: d61d 533e 9721 a7be 11f0 f33f 3f9d 12be
000003f0: e44d 0fbf 650b a03f 931e 32bd 06ab 1a3f

B1.c2_r.dw.weight f4 [24, 1, 3, 3]
0.0830944 0.17960434 0.08933558 0.17402251 1.3226358 0.17727676 0.089383654 0.18653804
0.09147122 0.05041878 0.15001585 0.059701204 0.14010704 -0.7255142 0.15175596 0.061033353
0.15002455 0.04923883 0.036380954 0.12014885 0.059030563 0.097194165 0.1500317 0.129262
0.047131404 0.11585861 0.047203362 -0.10188228 -0.115876675 -0.09248038 -0.114206076 1.164511
-0.114161395 -0.094493605 -0.11076547 -0.10016751 0.13883212 0.17833135 0.12554851 0.17766097
-0.9653376 0.19085923 0.13649622 0.18304272 0.13910887 0.111478075 0.29123282 0.11423084
0.29825112 -1.2969543 0.29030898 0.1015012 0.30252108 0.10720095 0.046015963 0.12880036
0.05594572 0.12464042 1.0052546 0.12664232 0.049404565 0.12637664 0.045881294 -0.00412477
0.050738715 0.0045967456 0.045769032 0.9497518 0.047467988 0.0022974508 0.051221546 -0.005241517
-0.012753239 -0.013608942 -0.007023434 -0.014341441 -1.1442451 -0.0167617 -0.008901173 -0.015267885
-0.01014694 0.03641949 0.07077519 0.03888684 0.069677316 -0.3869367 0.0633358 0.040931962
0.0661814 0.03813946 -0.03381855 -0.067978285 -0.035881896 -0.068205774 -0.07057641 -0.06971054
-0.036945626 -0.06778608 -0.03352364 0.015209811 0.025144685 0.018121796 0.025005216 1.058175
0.026466615 0.015636595 0.029152226 0.01844016 -0.009545214 -0.009972688 -0.015513271 -0.010473816
-0.7478433 -0.014094088 -0.011342432 -0.018471912 -0.008340406 -0.025943398 -0.0979829 -0.04232539
-0.091189265 0.40234405 -0.09559899 -0.040289115 -0.08892551 -0.030254614 -0.08139792 -0.3065585
-0.08724932 -0.29768267 1.5408596 -0.3100253 -0.0778971 -0.3030007 -0.09568887 -0.12508033
-0.19192246 -0.13211209 -0.18362723 -0.27241623 -0.18881038 -0.10476273 -0.17673525 -0.1177603
0.040367194 0.083158575 0.042822335 0.08179731 0.84879476 0.07812507 0.041709628 0.08392802
0.04167181 -0.03394047 0.017320838 -0.029858924 0.009721923 -1.7854834 0.0081769945 -0.023624746
0.011124488 -0.018577807 -0.026709141 -0.12183341 -0.029682461 -0.11926976 1.0089408 -0.10597399
-0.036855754 -0.11057701 -0.033107344 0.007972535 0.03465778 0.008393502 0.034660477 0.9416533
0.04260461 0.008702092 0.043193202 0.008253882 0.03456679 0.07939454 0.044515036 0.08816044
1.3272338 0.091744445 0.042893466 0.08428608 0.03602332 -0.109997764 -0.23719819 -0.12778896
-0.23586655 -0.7307701 -0.2255716 -0.12088282 -0.223905 -0.10820018 0.07983955 0.13314256
0.075687125 0.12817399 -0.5811272 0.12970895 0.08217626 0.12580316 0.08279494 -0.016167635
-0.03627971 -0.021018965 -0.037152484 1.0555521 -0.037830967 -0.019126894 -0.037658546 -0.017863885
00000000: 662d aa3d 33ea 373e 93f5 b63d f532 323e
00000010: 214c a93f 0a88 353e c70e b73d d403 3f3e
00000020: 4355 bb3d ec83 4e3d c19d 193e 4089 743d
00000030: 3878 0f3e 4cbb 39bf ea65 1b3e 1cfe 793d
00000040: 09a0 193e a8ae 493d 3204 153d 9a10 f63d
00000050: 08ca 713d bc0d c73d e9a1 193e 425d 043e
00000060: dc0c 413d 4747 ed3d 5058 413d a8a7 d0bd
00000070: c050 edbd 5a66 bdbd e0e4 e9bd b20e 953f
00000080: 73cd e9bd dd85 c1bd 02d9 e2bd a024 cdbd
00000090: 022a 0e3e 7e9c 363e ca8f 003e c2ec 353e
000000a0: 5d20 77bf 9a70 433e aac5 0b3e 8d6f 3b3e
000000b0: 8e72 0e3e 9e4e e43d 781c 953e dcf1 e93d
000000c0: 5fb4 983e 9902 a6bf 61a3 943e dcdf cf3d
000000d0: 0be4 9a3e 2c8c db3d 3c7b 3c3d 3ee4 033e
000000e0: 5727 653d 7a43 ff3d 2fac 803f 86ae 013e
000000f0: 715c 4a3d e168 013e 06ee 3b3d 1429 87bb
00000100: 66d3 4f3d 4ca0 963b 4f78 3b3d ef22 733f
00000110: cb6d 423d d490 163b afcd 513d 08c1 abbb
00000120: f6f2 50bc 0af8 5ebc d624 e6bb 5df8 6abc
00000130: a076 92bf d54f 89bc 3ad6 11bc 2726 7abc
00000140: 5a3f 26bc 9a2c 153d 95f2 903d cf47 1f3d
00000150: fbb2 8e3d 911c c6be 33b6 813d 46a8 273d
00000160: 1d8a 873d 1f38 1c3d 5285 0abd 3338 8bbd
00000170: e5f8 12bd 78af 8bbd 5d8a 90bd 66c4 8ebd
00000180: 4c54 17bd 6ed3 8abd 1650 09bd 9232 793c
00000190: 3afc cd3c 2974 943c bdd7 cc3c 4772 873f
000001a0: 84d0 d83c 5118 803c a6d0 ee3c d20f 973c
000001b0: 8763 1cbc 7c64 23bc 602b 7ebc 5e9a 2bbc
000001c0: a972 3fbf e4ea 66bc 9cd5 39bc 6852 97bc
000001d0: 33a6 08bc 4087 d4bc 42ab c8bd 635d 2dbd
000001e0: 70c1 babd 0a00 ce3e 67c9 c3bd 3306 25bd
000001f0: 941e b6bd 86d8 f7bc f4b3 a6bd 3cf5 9cbe
00000200: c5af b2bd dd69 98be e33a c53f a3bb 9ebe
00000210: 8488 9fbd e822 9bbe 87f8 c3bd 0f15 00be
00000220: 5287 44be 6448 07be c708 3cbe 247a 8bbe
00000230: 8257 41be d88d d6bd 16fa 34be 502c f1bd
00000240: 1258 253d 0b4f aa3d 7966 2f3d 5985 a73d
00000250: 9d4a 593f 0900 a03d b7d7 2a3d 74e2 ab3d
00000260: 0fb0 2a3d 2a05 0bbd 6ee4 8d3c b49a f4bc
00000270: b348 1f3c b88a e4bf cdf8 053c af88 c1bc
00000280: 7c43 363c 7c30 98bc 21cd dabc cb83 f9bd
00000290: a228 f3bc b443 f4bd f924 813f e408 d9bd
000002a0: 0ff6 16bd 3376 e2bd 919b 07bd 3c9f 023c
000002b0: 51f5 0d3d e684 093c 25f8 0d3d 3110 713f
000002c0: 2c82 2e3d 3893 0e3c 5beb 303d 4a3b 073c
000002d0: e895 0d3d 9b99 a23d 6655 363d 768d b43d
000002e0: cce2 a93f 83e4 bb3d 0fb1 2f3d 2e9e ac3d
000002f0: 308d 133d 8246 e1bd 15e4 72be 1cdb 02be
00000300: 0087 71be c013 3bbf 3efc 66be 6991 f7bd
00000310: 5a47 65be 0e98 ddbd eb82 a33d 8656 083e
00000320: da01 9b3d 0b40 033e c1c4 14bf 6cd2 043e
00000330: 074c a83d 8bd2 003e 6590 a93d fd71 84bc
00000340: 089a 14bd f72f acbc 342d 18bd 551c 873f
00000350: a5f4 1abd 01b0 9cbc d93f 1abd 4857 92bc

B1.c2_r.dw.bias f4 [24]
-0.20813856 -0.008274362 0.16760905 0.30763844 0.22582462 0.1504519 -0.18736646 -0.96619534
-0.39899096 0.07423327 0.010021983 -0.5552798 0.28344905 0.0281238 0.16011797 0.15888764
-0.033568207 -1.0386244 0.18843433 -0.44250908 0.35482588 -0.7878941 0.109994695 -0.06938732
00000000: 4622 55be 3191 07bc b5a1 2b3e c982 9d3e
00000010: 923e 673e 1010 1a3e fedc 3fbe 9458 77bf
00000020: 8b48 ccbe 9d07 983d 3e33 243c d126 0ebf
00000030: 3c20 913e e263 e63c f7f5 233e 71b3 223e
00000040: d17e 09bd a5f1 84bf eef4 403e 8d90 e2be
00000050: bdab b53e 6eb3 49bf e644 e13d f01a 8ebd

B1.c3_d.weight f4 [8, 24, 1, 1]
0.062051002 0.25412402 0.14571293 0.028941577 0.021810088 -0.34531313 -0.059876632 0.047294304
-0.066729106 -0.046031106 0.018751983 1.0851464 0.04549739 -0.25965664 -0.00670079 -0.07029242
0.0036236893 -0.5136935 -0.056668524 -0.44846377 0.05072662 -0.11891284 -0.03330005 0.16742113
-0.05221804 0.31746748 0.25847244 0.09421883 0.24185644 -0.14741243 0.43213132 -0.30910718
0.27704382 -0.50613445 2.3804471 0.29129657 -0.063447 0.18858804 -0.49144065 0.32660547
0.07375511 -0.22688791 0.0690077 0.0053159175 -0.0744871 0.5594239 -1.3305963 -0.2685941
-0.10078862 0.45024392 0.2787793 0.047876976 -0.487599 -0.25805536 0.17369339 -0.8636942
-0.61132157 -0.15345654 0.015211327 -0.044831462 -0.29512867 0.6557498 -0.045604955 0.060935926
-0.3993385 0.17652118 0.017662557 -0.3061464 0.16461775 -0.05578818 -0.06833262 -0.42043817
-0.017704941 0.08614091 0.0783874 -0.019434407 -0.050471064 0.39012745 0.04051888 0.031220768
0.13436574 1.6870408 -0.23262993 -0.2104988 0.4221765 -0.13532944 0.010396457 -0.025214447
0.008149984 0.22992705 0.07763534 0.2103078 0.011149471 -0.08712782 0.13411157 0.013602568
-0.027599877 -0.58131146 -0.021175057 -0.009685037 0.13167085 -0.42164212 -0.010870672 0.16272013
-0.10394412 -2.0395782 -0.1227971 -0.09596006 0.05485047 -0.30219364 -0.6190525 0.061093766
0.05173441 0.022797545 0.020543441 0.22861022 -0.019578954 0.741105 -0.23091435 0.0057242387
-0.0022623031 0.04536738 -0.15937884 0.052060187 0.19064862 0.16537929 0.02064271 0.1686512
0.07740872 -0.176239 -0.03772208 -0.18456301 -0.062380034 -1.5800799 -0.011677709 -0.009078968
0.037816405 0.19378558 0.06818799 0.10989931 -0.0070588887 0.26219183 0.12762274 0.36273184
-0.07462307 0.612642 0.10715488 -0.21257952 -0.008103277 -0.090131514 0.039133333 -0.39161453
-0.2851058 0.08332022 0.3408942 0.37602025 -0.5827435 0.78295374 -0.019618317 0.2048407
-0.41791832 -0.19937731 -0.27020532 -0.009896367 -0.008739061 0.1845885 -0.9384109 -0.36315802
-0.036366243 -0.6219708 0.19871996 0.018122675 0.25267828 -1.1199018 0.052249335 0.20302543
-0.20606539 -1.181558 -0.06670367 0.08678579 0.05183341 -0.34733087 -0.38188586 0.12091889
0.012509735 -0.15813042 -0.03211156 0.21989743 -0.04049022 1.0910025 -0.43534908 -0.043188505
00000000: 3129 7e3d 8b1c 823e c535 153e e316 ed3c
00000010: 12ab b23c e2cc b0be 3341 75bd acb7 413d
00000020: 45a9 88bd 1d8b 3cbd c29d 993c 14e6 8a3f
00000030: 795b 3a3d b7f1 84be 4d92 dbbb 79f5 8fbd
00000040: 6b7b 6d3b 6b81 03bf 411d 68bd 0b9d e5be
00000050: b7c6 4f3d 9388 f3bd a265 08bd 7270 2b3e
00000060: 95e2 55bd 198b a23e 8056 843e cdf5 c03d
00000070: 37a9 773e 49f3 16be 5140 dd3e 4c43 9ebe
00000080: b0d8 8d3e 0792 01bf 3f59 1840 d324 953e
00000090: 80f0 81bd 391d 413e 1c9e fbbe d538 a73e
000000a0: eb0c 973d 4e55 68be e953 8d3d 2631 ae3b
000000b0: b18c 98bd 6836 0f3f fb50 aabf 2a85 89be
000000c0: 446a cebd 5f86 e63e 29bc 8e3e a61a 443d
000000d0: 93a6 f9be d51f 84be aedc 313e 101b 5dbf
000000e0: 927f 1cbf b623 1dbe ee38 793c 32a1 37bd
000000f0: 1b1b 97be 38df 273f 43cc 3abd f397 793d
00000100: 1976 ccbe f8c1 343e 11b1 903c 39bf 9cbe
00000110: 8e91 283e 2682 64bd f9f1 8bbd ac43 d7be
00000120: f409 91bc a56a b03d 9389 a03d e834 9fbc
00000130: bfba 4ebd c9be c73e 20f7 253d b2c2 ff3c
00000140: 2c97 093e f4f0 d73f 8a36 6ebe ff8c 57be
00000150: 8527 d83e cd93 0abe e755 2a3c 878e cebc
00000160: 8387 053c ff71 6b3e 47ff 9e3d ee5a 573e
00000170: 45ac 363c 1270 b2bd 8b54 093e 4edd 5e3c
00000180: 2319 e2bc d4d0 14bf 5077 adbc fdad 1ebc
00000190: b9d4 063e 7ae1 d7be e71a 32bc 1ba0 263e
000001a0: a8e0 d4bd 7388 02c0 0c7d fbbd b586 c4bd
000001b0: e3aa 603d 20b9 9abe 3a7a 1ebf 753d 7a3d
000001c0: 76e7 533d ebc1 ba3c b84a a83c cc18 6a3e
000001d0: 0b64 a0bc 0fb9 3d3f d074 6cbe 6592 bb3b
000001e0: 2643 14bb 25d3 393d 3534 23be 103d 553d
000001f0: 6439 433e 3059 293e e71a a93c e6b2 2c3e
00000200: 7788 9e3d ff77 34be 7882 1abd 16fe 3cbe
00000210: 3582 7fbd 0f40 cabf dd53 3fbc f4bf 14bc
00000220: 60e5 1a3d ba6f 463e 25a6 8b3d e412 e13d
00000230: 404e e7bb 023e 863e 89af 023e fdb7 b93e
00000240: fbd3 98bd 1bd6 1c3f 0574 db3d 72ae 59be
00000250: 9bc3 04bc df96 b8bd 464a 203d b381 c8be
00000260: 63f9 91be cba3 aa3d af89 ae3e ba85 c03e
00000270: ae2e 15bf a86f 483f 98b6 a0bc c3c1 513e
00000280: 64f9 d5be 9129 4cbe 5a58 8abe 5f24 22bc
00000290: 472e 0fbc c504 3d3e b23b 70bf d9ef b9be
000002a0: c5f4 14bd 7a39 1fbf 3f7d 4b3e 0176 943c
000002b0: 0c5f 813e f158 8fbf 6603 563d e6e5 4f3e
000002c0: ce02 53be 4b3d 97bf ef9b 88bd c0bc b13d
000002d0: 454f 543d 5ad5 b1be 8b86 c3be 53a4 f73d
000002e0: a2f5 4c3c f1ec 21be 6987 03bd cb2c 613e
000002f0: 13d9 25bd f8a5 8b3f 13e6 debe 6ee6 30bd

B1.c3_d.bias f4 [8]
-0.022345966 -0.010966497 -0.28601557 -0.14645357 0.013474021 0.036854483 0.03851876 -0.11603303
00000000: e30e b7bc d2ac 33bc a270 92be edf7 15be
00000010: 24c2 5c3c baf4 163d d9c5 1d3d baa2 edbd

B1.c3_r.pw.weight f4 [24, 24, 1, 1]
0.5068605 1.1016868 -0.178171 -0.1869329 -0.20083357 0.8617453 -0.37841693 -0.56997675
-0.5125555 5.3556657 -0.39692232 -0.48870862 0.45552415 -0.75487226 2.0323858 -0.04483819
-0.09015872 0.55101675 0.23580901 -0.089591704 -0.121282876 -2.7031054 0.2093124 -0.13537009
-0.5927683 2.2210674 0.99806285 -0.24522108 -0.031243218 -2.5702991 0.24711595 -0.6702927
-1.6002265 0.21366169 -0.113286845 0.80956393 -0.62554276 0.30261457 -0.6993205 0.09547448
-0.7991 0.25625852 -0.17282757 -0.113216884 0.28961083 1.3966637 -0.9720095 0.01853575
0.6013136 -1.4922014 0.35708687 0.10166661 0.25957954 3.0044706 -0.32416117 0.6260655
1.09674 -0.2362532 0.16322796 -0.7886112 0.48593232 -1.5921428 0.7324504 -0.15060376
0.82164615 -0.10950427 0.22710215 -0.04300114 -0.313087 -1.6926526 1.0979913 0.4125221
-0.004032634 -0.040433705 -3.8949754 0.16657715 0.19611266 -1.044514 -0.78544223 -0.61129445
0.5904356 -3.801991 -0.07986987 -1.9703113 -5.6637063 0.9071372 0.6444755 -0.060190298
0.5546667 -0.5692069 0.24935906 -0.16599238 -0.20629665 0.5943464 0.35429165 -0.8787143
-0.044390377 -0.013646144 -2.5381563 -0.02262412 -0.45030272 -0.44523647 -0.3624561 -0.5175459
-0.53234625 -1.2783206 0.0686871 -1.1336354 -2.7893622 1.2189903 0.014231392 0.032875612
0.46113276 -0.31800532 0.07777492 -0.3707413 -0.13602102 -0.16302478 0.5659543 -0.4247564
-0.20976488 -0.46980792 -5.15253 0.020455878 0.19295783 -0.8002553 -0.9910429 -0.70120716
-0.21366218 -4.350957 -0.24738556 -2.8679059 -7.6331344 1.2560631 0.79326284 -0.045286253
0.9241845 -1.0967919 0.22971205 -0.4598776 -0.34421214 0.5058645 0.64970255 -1.1686404
-0.10798739 -0.77648944 -0.23621663 -0.056931514 0.06540332 0.08673825 0.04285624 -0.36009297
-2.9137137 -0.0109879635 -1.0026263 -4.6685348 -1.0874453 -1.0544264 2.2778888 -0.044335987
0.29689598 -2.6544797 -0.05323661 0.1755289 -0.27840123 0.41656816 0.48776713 0.41962206
-0.12979907 -0.86639524 0.10170944 -0.562422 -0.56471825 0.6068148 -0.43890154 -3.7775261
0.16468012 0.86608416 -0.5744481 -0.7523667 -0.09843354 -0.8294987 -0.16700189 0.17669201
-0.17492059 -0.1926847 -0.6677718 -0.007156373 -0.28754368 -0.50329393 -0.70152587 -0.6400603
-0.031514578 -0.8618756 0.88332707 0.1301063 0.09186503 -0.38235593 0.13017465 0.8625063
1.1389414 -0.26576462 0.5476994 0.5722418 0.23885958 -0.43498537 -2.0748644 -0.122524105
0.15314348 -0.6192984 -0.12824634 2.8699715 -0.09674905 -0.3898992 -0.112708345 -0.59851885
-0.013559109 -0.26061678 0.22079778 0.020249704 -0.025866264 -1.0724802 -0.072308786 0.048484333
-0.3691378 0.27284878 -0.38790277 0.3404544 -0.0034918096 -0.2544667 -0.22394964 -0.18076219
0.026903069 -0.05871808 0.0582765 0.10085275 0.00028157103 0.21373081 0.07884769 0.0070875427
0.0010697398 -0.09815168 -0.51628566 0.019267198 -0.121275924 0.9713288 -0.053498868 0.0061103455
0.3070126 -1.2026583 1.2249799 -0.43449834 0.32277462 0.73855597 0.7100591 -0.039511096
00000000: 9cc1 013f 1304 8d3f 7572 36be 576b 3fbe
00000010: 51a7 4dbe 579b 5c3f ddbf c1be ffe9 11bf
00000020: d636 03bf 9d61 ab40 6739 cbbe 0438 fabe
00000030: 763a e93e 4f3f 41bf 9c12 0240 40a8 37bd
00000040: 23a5 b8bd 6f0f 0d3f eb77 713e db7b b7bd
00000050: 2863 f8bd aeff 2cc0 fd55 563e 759e 0abe
00000060: aabf 17bf f825 0e40 0c81 7f3f 3c1b 7bbe
00000070: c7f1 ffbc c87f 24c0 f70b 7d3e 4d98 2bbf
00000080: 39d4 ccbf 21ca 5a3e ef02 e8bd 953f 4f3f
00000090: 9223 20bf 4cf0 9a3e ab06 33bf 2088 c33d
000000a0: d191 4cbf 5134 833e b6f9 30be 41de e7bd
000000b0: df47 943e e0c5 b23f 9dd5 78bf 49d8 973c
000000c0: b0ef 193f 7500 bfbf 17d4 b63e 9536 d03d
000000d0: 9ce7 843e 3f49 4040 74f8 a5be d445 203f
000000e0: fa61 8c3f 5cec 71be 3b25 273e 6ce2 49bf
000000f0: 1fcc f83e 56cb cbbf df81 3b3f df37 1abe
00000100: 6757 523f c643 e0bd 778d 683e f721 30bd
00000110: f04c a0be d7a8 d8bf fb8a 8c3f 1936 d33e
00000120: 3024 84bb d09d 25bd 4747 79c0 3393 2a3e
00000130: c2d1 483e a2b2 85bf be12 49bf cb7d 1cbf
00000140: ca26 173f d253 73c0 d092 a3bd 2933 fcbf
00000150: 153d b5c0 253a 683f 59fc 243f 1a8a 76bd
00000160: a3fe 0d3f 8bb7 11bf fb57 7f3e e8f9 29be
00000170: 6e3f 53be 1627 183f b765 b53e 6cf3 60bf
00000180: afd2 35bd 1494 5fbc 2771 22c0 3856 b9bc
00000190: 148e e6be 09f6 e3be d993 b9be e37d 04bf
000001a0: d847 08bf 02a0 a3bf d3ab 8c3d f71a 91bf
000001b0: e984 32c0 e007 9c3f c92a 693c 94a8 063d
000001c0: 9819 ec3e 98d1 a2be 7548 9f3d ced1 bdbe
000001d0: 1849 0bbe f8ef 26be 62e2 103f ac79 d9be
000001e0: 9bcc 56be aa8a f0be 87e1 a4c0 1693 a73c
000001f0: bd96 453e 88dd 4cbf fdb4 7dbf 5082 33bf
00000200: 42ca 5abe 0a3b 8bc0 a452 7dbe c58b 37c0
00000210: a342 f4c0 adc6 a03f 4613 4b3f 147e 39bd
00000220: 5b97 6c3f ad63 8cbf a339 6b3e 1475 ebbe
00000230: 933c b0be 5680 013f e852 263f 0296 95bf
00000240: 7e28 ddbd 03c8 46bf c6e2 71be 0531 69bd
00000250: 2df2 853d d3a3 b13d 068a 2f3d 1b5e b8be
00000260: 497a 3ac0 dc06 34bc 0f56 80bf a364 95c0
00000270: 6831 8bbf 72f7 86bf eec8 1140 a799 35bd
00000280: c002 983e ffe2 29c0 a20e 5abd d9bd 333e
00000290: 9b8a 8ebe 6c48 d53e 9dbc f93e b4d8 d63e
000002a0: 0cea 04be 14cc 5dbf 0a4d d03d e3fa 0fbf
000002b0: 6091 10bf 3758 1b3f b4b7 e0be fdc2 71c0
000002c0: e8a1 283e b1b7 5d3f 080f 13bf 1b9b 40bf
000002d0: 8697 c9bd 075a 54bf 8b02 2bbe c0ee 343e
000002e0: 621e 33be 234f 45be 18f3 2abf 0280 eabb
000002f0: ed38 93be dfd7 00bf 3397 33bf feda 23bf
00000300: 6e15 01bd e1a3 5cbf b921 623f 963a 053e
00000310: bc23 bc3d 28c4 c3be 814c 053e 36cd 5c3f
00000320: d5c8 913f 4d12 88be 0736 0c3f 707e 123f
00000330: 9b97 743e 67b6 debe 94ca 04c0 ebed fabd
00000340: a5d1 1c3e 578a 1ebf 0253 03be 9dad 3740
00000350: 5e24 c6bd dea0 c7be a2d3 e6bd 8838 19bf
00000360: 0627 5ebc 906f 85be d018 623e b5e2 a53c
00000370: 7de5 d3bc 0847 89bf a116 94bd 8297 463d
00000380: a1ff bcbe d6b2 8b3e 319b c6be 0a50 ae3e
00000390: d8d6 64bb 7649 82be 0e53 65be b919 39be
000003a0: d363 dc3c 5f82 70bd 57b3 6e3d e38b ce3d
000003b0: d39f 9339 40dc 5a3e e67a a13d 9e3e e83b
000003c0: 8336 8c3a bf03 c9bd 4c2b 04bf 3ed6 9d3c
000003d0: 835f f8bd 01a9 783f a121 5bbd 4b39 c83b
000003e0: c130 9d3e b5f0 99bf 24cc 9c3f 9176 debe
000003f0: b742 a53e 0112 3d3f 6fc6 353f 63d6 21bd
