model_zoo/team13_HannahSR.pth (torch, 335729 bytes, 286 tensors)

fea_conv.eval_conv.bias f4 [24]
0	0x3d5c8640	0.05383897
1	0x3c251de0	0.010077924
2	0x3d327004	0.043563858
3	0x3d09331c	0.033496007
4	0xbc94db3e	-0.01817095
5	0x3b15c580	0.0022853315
6	0x3c14fd38	0.009093575
7	0xba89c180	-0.0010509938
8	0xbb35a380	-0.0027715862
9	0xbc123b10	-0.008925214
10	0x3d9430b6	0.072358534
11	0x3a88fc00	0.0010451078
12	0x3cda2f58	0.026633903
13	0x3aaa0900	0.0012972653
14	0xbba46c88	-0.0050178207
15	0xbd3c328c	-0.045946643
16	0x3d0db658	0.034597725
17	0xbca141f8	-0.019684777
18	0x3be9c540	0.0071341097
19	0xbcfadd9c	-0.03062325
20	0x3b6a8500	0.003578484
21	0xbd7366d9	-0.059424255
22	0xbf6ab1b1	-0.91677386
23	0x3cde3ac0	0.027127624

B1.c1_d.weight f4 [12, 24, 1, 1]
0	0x4050fabc	3.2653036
1	0xbef3f3f9	-0.47647074
2	0x3f02c063	0.5107481
3	0x3fb0d42a	1.3814747
4	0xbf270081	-0.65235144
5	0x3df9dd3f	0.122004025
6	0x3e4d12b9	0.20026673
7	0xbec83884	-0.39105618
8	0x3fd29cb6	1.6454074
9	0xbe85534c	-0.26040113
10	0xbebe0226	-0.37111014
11	0x3f7d5271	0.9895392
12	0x3fb135d1	1.3844548
13	0x3d841eb4	0.06451169
14	0xbea7d75a	-0.32781488
15	0x3f31ce2a	0.69455206
16	0xbd3da7d3	-0.046302628
17	0xbebc397e	-0.36762613
18	0xbfc3c7ca	-1.5295346
19	0x3f3b4413	0.7315075
20	0xbfdde377	-1.7335042
21	0xbecded7a	-0.40220243
22	0x3f041acc	0.5160339
23	0xc05851aa	-3.3799844
24	0x3f211cac	0.62934375
25	0x3f141c81	0.57855994
26	0x3f507cff	0.8144073
27	0x3f002ee0	0.50071526
28	0xbe29732d	-0.16547842
29	0xbe1183dd	-0.14210458
30	0x3ee07b89	0.4384425
31	0x3f044d93	0.5168087
32	0x3f1410c9	0.5783811
33	0xbf78f157	-0.97243255
34	0xbeabbf9a	-0.33544618
35	0x3ee73e08	0.45164514
36	0xbe799dbc	-0.24376577
37	0xbf53738f	-0.82598203
38	0x3ef0cce4	0.4703132
39	0xbe8e8ab4	-0.27840197
40	0x3fe3c74d	1.7795197
41	0xbc97d510	-0.018534213
42	0xbfc15aaf	-1.51058
43	0x3d080020	0.033203244
44	0x3ec71f44	0.3889104
45	0x3ebc08e7	0.36725542
46	0x3db4d83b	0.08830305
47	0x3fc5c242	1.5449908
48	0xc149078e	-12.564344
49	0xbfbb5f6a	-1.4638493
50	0xbdd79782	-0.10526945
51	0x3f8b3f49	1.0878688
52	0x3f884737	1.0646733
53	0x3f52df1e	0.823717
54	0xbe90c11f	-0.2827234
55	0x40318bc1	2.774155
56	0x3fa1d05d	1.2641712
57	0x3fc611bb	1.5474161
58	0x3ee60d57	0.44932052
59	0xbf6f15dd	-0.93392736
60	0x3e418f14	0.18902236
61	0x3d162a8b	0.036661666
62	0xbed1e136	-0.40992135
63	0x3d8eef07	0.069791846
64	0x3ef65944	0.4811498
65	0x40172dac	2.3621626
66	0x3f918043	1.1367267
67	0x3f727140	0.94704056
68	0xc0b6ac46	-5.7085295
69	0xbfbe8035	-1.4882876
70	0x3d2d366b	0.042288225
71	0xc087762f	-4.2331767
72	0xbfa5d3b7	-1.2955235
73	0xbf42c211	-0.7607737
74	0x3e597a8b	0.21238153
75	0x3ed7e833	0.4216934
76	0x3e4071ec	0.18793458
77	0xbd00ce83	-0.031446945
78	0xbeb98aa8	-0.362386
79	0x3df12b39	0.11775822
80	0x3ebe5d0c	0.37180364
81	0x3dbee9ae	0.093219146
82	0xbea1823c	-0.31544673
83	0xbe683bb3	-0.22679023
84	0x3f2f2677	0.6841807
85	0x3fce0cb9	1.6097633
86	0x3e873b96	0.26412648
87	0x3ca627ff	0.020282743
88	0x3f143faa	0.57909644
89	0x3e4cfaea	0.20017591
90	0x3ebd4f83	0.36974725
91	0x3bb376a0	0.0054767877
92	0xbbd92464	-0.0066266526
93	0xbd97998f	-0.07402336
94	0x3d8a6f9f	0.06759571
95	0xbfe6f7b6	-1.8044345
96	0xbf16916b	-0.5881564
97	0xbf9cf628	-1.2262621
98	0xbfa2f93d	-1.2732311
99	0xc0133608	-2.3001728
100	0x3f3d5eca	0.7397276
101	0x3e949d7c	0.290264
102	0xbff8d9e5	-1.9441496
103	0xc0205d44	-2.5056925
104	0x3dd5efdf	0.104461424
105	0x3ec1e1d5	0.3786761
106	0x3e237fbe	0.15966699
107	0xbf81c909	-1.0139476
108	0xbfd05c21	-1.6278116
109	0x3f2d653f	0.67732614
110	0x3f46cd3c	0.7765691
111	0xbd2c4815	-0.04206093
112	0xbf75b4c1	-0.95978934
113	0x3e6666e2	0.22500184
114	0xbf8d36db	-1.1032366
115	0x3e9aab8d	0.30209008
116	0xbf15a70a	-0.58458006
117	0x3fa86012	1.3154318
118	0xbea34376	-0.31887406
119	0xbf068ccf	-0.52558607
120	0x3e83314f	0.25623557
121	0x3ebada99	0.36494902
122	0xbe133675	-0.14376242
123	0xbe541f6e	-0.20715114
124	0x3ed4bbaf	0.4154944
125	0x3d2ae902	0.04172612
126	0x3eed77cc	0.4638046
127	0x3c02e57e	0.0079892855
128	0x3eed6ffd	0.46374503
129	0x3f03ad6b	0.5143649
130	0x3ed311e6	0.41224593
131	0xbeccb4f9	-0.3998182
132	0xbf177bcb	-0.5917327
133	0x3d0b05d7	0.033941116
134	0xbec84b87	-0.39120123
135	0x3dfb35ad	0.12266097
136	0xbeaaaa04	-0.33332837
137	0xbcca0b7c	-0.02466368
138	0xbec0ce0f	-0.3765721
139	0xbf8a19f9	-1.0789176
140	0xbf60aa6a	-0.8776003
141	0xbe85c0ac	-0.2612356
142	0xbc9578bf	-0.018246053
143	0x3e028b3e	0.12748429
144	0xbebc6383	-0.3679467
145	0xbd4f506f	-0.050613817
146	0xbd32e372	-0.04367394
147	0xbcf43ce5	-0.029814193
148	0xbe8756ef	-0.26433513
149	0x3d8291d1	0.063754685
150	0xbed74039	-0.42041185
151	0xbdceef35	-0.10104219
152	0x3e7e7383	0.24848752
153	0xbed73869	-0.42035225
154	0xbe85ef8d	-0.26159325
155	0x3f9c7541	1.2223283
156	0x3f0664ca	0.5249754
157	0x3e8cfc43	0.2753621
158	0xbe401883	-0.1875935
159	0xbf221a43	-0.6332132
160	0xbc18102e	-0.009281201
161	0xbd9ea956	-0.07747142
162	0x3dd08ccc	0.10183105
163	0x3fa7d372	1.3111403
164	0xbe22518f	-0.15851425
165	0xbd739ab6	-0.059473716
166	0xbd11bde9	-0.035581503
167	0xbd26d2a1	-0.040728215
168	0x3e4e37b1	0.20138432
169	0x3f5c67a7	0.8609566
170	0xbfad2aa6	-1.352864
171	0x3f5edd78	0.87056684
172	0x3fe8d060	1.8188591
173	0x3ebcf8e1	0.3690863
174	0xbfa022ac	-1.2510581
175	0xbff858fd	-1.9402157
176	0xbe6ba1e9	-0.23010983
177	0xbdc2ff3f	-0.095213406
178	0xbef73333	-0.4828125
179	0x3ffd4e8a	1.9789593
180	0x3dcf0e8a	0.10110195
181	0x3f540be7	0.8283066
182	0xbe1e1b21	-0.15440036
183	0x3f7fdae4	0.99943376
184	0x3ef22ed8	0.47301364
185	0xbe4f96fc	-0.2027244
186	0xbdf7a7d2	-0.12092556
187	0xbe317452	-0.17329529
188	0x405ee549	3.4827445
189	0xbf7a2207	-0.9770817
190	0xbf302078	-0.68799543
191	0x3dd0edce	0.10201608
192	0xc09d2120	-4.9102936
193	0x3fb6db26	1.4285629
194	0x3e2c348e	0.16816923
195	0xbf688fa9	-0.9084421
196	0xbf96a4f4	-1.176909
197	0xbef1591b	-0.47138295
198	0x3ef2ea96	0.474446
199	0x3f632b24	0.887377
200	0x3ef6f19d	0.4823121
201	0x3efc1608	0.49235559
202	0x3f06e973	0.52699965
203	0xbfc736b5	-1.556357
204	0x3f2166e5	0.6304763
205	0xc020e5fc	-2.5140371
206	0xbfab5db4	-1.3387971
207	0xbea5af6b	-0.32360396
208	0xbf540be7	-0.8283066
209	0x3ef9eb57	0.48812363
210	0x3f872fde	1.0561483
211	0xbe5d85b7	-0.2163304
212	0x3f4c5b21	0.7982655
213	0x3fa3eb6f	1.2806224
214	0xbdbecae6	-0.093160436
215	0x40533127	3.299875
216	0x40197b85	2.398164
217	0x3e76c5e8	0.24098933
218	0x3f288722	0.65831196
219	0x3fa16acc	1.2610717
220	0x3f426c21	0.7594624
221	0x3dd032f7	0.10165971
222	0xbf3e7095	-0.74390537
223	0xbead3058	-0.33825946
224	0x3c510ec4	0.012759868
225	0xbd71ada8	-0.059003502
226	0xbf2d5d6f	-0.67720693
227	0x3e823923	0.25434217
228	0x3ff8a71e	1.9426
229	0x3ffd8921	1.9807473
230	0xbf7f3ea3	-0.9970495
231	0x3edb189d	0.42792216
232	0x40100986	2.2505813
233	0xbe75731e	-0.23969695
234	0x3e44ca8e	0.19217893
235	0xb924eba8	-0.00015728048
236	0x3f208c24	0.6271384
237	0xbf1e201c	-0.61767745
238	0x3e910f3e	0.2833194
239	0xc0500c74	-3.25076
240	0x3f9e8c69	1.23866
241	0xbe8a7a2e	-0.2704634
242	0x3fb15512	1.3854086
243	0x3f88d5bf	1.069023
244	0x3f3fb09b	0.74878854
245	0x3f38ad64	0.72139573
246	0xbf4df549	-0.804524
247	0xc003671b	-2.053168
248	0x403997e3	2.8998954
249	0x3edb88da	0.42877847
250	0xbedbc089	-0.4292033
251	0x3fe8e3e9	1.8194553
252	0xbfe6384f	-1.7985934
253	0x3f8ae51a	1.0851166
254	0xbe98f2ce	-0.29872745
255	0xbf81c909	-1.0139476

B1.c1_d.bias f4 [12]
0	0x3e689596	0.22713313
1	0x3dc0f11d	0.09420989
2	0x3d36e8b3	0.044655513
3	0x3d14b8c8	0.036309034
4	0x3c24d69d	0.010060933
5	0xbe6bd9ed	-0.23032351
6	0xbe996fce	-0.29968113
7	0xbe874e7b	-0.26427063
8	0x3ebeb6e5	0.37248912
9	0x3dbd67f2	0.092483416
10	0x3e358f1e	0.17730376
11	0xbf1fa5aa	-0.6236216

B1.c1_r.pw.weight f4 [24, 24, 1, 1]
0	0x4052333d	3.2843773
1	0x3eeb0a93	0.45906505
2	0xbe19d028	-0.15020812
3	0x3eab0ed6	0.33409756
4	0xbf77f823	-0.96863
5	0xbf3350e4	-0.70045304
6	0x3f0f906d	0.5607975
7	0x3ffdbbeb	1.9822973
8	0x3f4104bf	0.75397867
9	0xbd665306	-0.05623152
10	0xbf1b8ae0	-0.6075878
11	0x3ea402de	0.32033437
12	0x3fc542b3	1.541098
13	0xbf34951c	-0.7054002
14	0xbf4c8a01	-0.7989808
15	0xbe162022	-0.14660695
16	0xbf88fccf	-1.0702151
17	0xbf041acc	-0.5160339
18	0x3f9d6f41	1.2299577
19	0x3e269af1	0.16270043
20	0x3f0952c0	0.5364189
21	0xbf4a7c97	-0.7909636
22	0x3d96e33e	0.07367562
23	0xbf8a9310	-1.082613
24	0xbe23a85e	-0.15982196
25	0xbe949d6a	-0.29026347
26	0xbfb7c970	-1.4358349
27	0x3efe870b	0.49712405
28	0x3f815f92	1.0107291
29	0xbcb8e5a5	-0.02257044
30	0x3e8d90b3	0.2764946
31	0x3d63e296	0.05563601
32	0x3ed36ea7	0.4129536
33	0xbec62240	-0.38698006
34	0x3e2819c1	0.16416074
35	0x3dffcc1f	0.12490105
36	0x3e114649	0.14186968
37	0x3d84c7dd	0.064834334
38	0xbef449eb	-0.47712645
39	0x3d7ed713	0.06221683
40	0xbedace64	-0.4273559
41	0xbd2d79ac	-0.042352363
42	0xbf3bbe9c	-0.7333772
43	0xbf3f616e	-0.7475804
44	0xbf7b8968	-0.9825654
45	0xbe29b9aa	-0.16574731
46	0xbc2acd61	-0.010424943
47	0x3eb9dbd1	0.3630052
48	0xbefcd2b8	-0.49379516
49	0xbec0aea1	-0.3763323
50	0x40206ce4	2.5066462
51	0x3fa42606	1.2824104
52	0xbf019a2a	-0.5062586
53	0x3fd98e13	1.6996483
54	0x3f2e95f0	0.68197536
55	0xbe9fc161	-0.31202224
56	0x3f28bdd2	0.6591464
57	0xbed98e14	-0.4249121
58	0xc05461d8	-3.318472
59	0xbedd56d7	-0.43230316
60	0xbf0a0e41	-0.53928
61	0xbf561758	-0.8362937
62	0xbfc1e74f	-1.5148715
63	0x3f87b896	1.0603206
64	0x3f6cf2fc	0.92558265
65	0xbf58902b	-0.8459498
66	0xbff5efcc	-1.9213805
67	0x3e4a4b42	0.19755271
68	0xbff432ed	-1.9078041
69	0xc006ed75	-2.1082432
70	0x3c50f62f	0.012754007
71	0xbf424933	-0.75892943
72	0x4038178f	2.876438
73	0x3e307e39	0.1723565
74	0x3ce827db	0.028339317
75	0xbf1875cd	-0.5955475
76	0xbea191dd	-0.31556597
77	0xbeb6db27	-0.35714075
78	0xbe8f1755	-0.27947488
79	0x3c8ecf8e	0.017432954
80	0x3f83e033	1.0302795
81	0xbe85b10d	-0.26111642
82	0xbf01e07a	-0.5073315
83	0x3eb6ac47	0.35678312
84	0x3fa55e88	1.2919474
85	0x3eca2865	0.39483944
86	0xbcee9287	-0.029122604
87	0xbdef95b6	-0.11698477
88	0xbe466792	-0.19375446
89	0xbef2dab8	-0.47432494
90	0x3f4ea92a	0.80726874
91	0x3d90a9af	0.070636146
92	0x400aecea	2.17071
93	0x3ee6190e	0.4494099
94	0x3b82e5ba	0.0039946707
95	0x3ea502c7	0.3222868
96	0x3cc76a22	0.0243426
97	0x3d4f1b5d	0.050563205
98	0xbd910386	-0.0708075
99	0x3bd8abd9	0.0066122827
100	0xbeaee3fc	-0.34158313
101	0x3d718629	0.058965836
102	0x3d9af286	0.07565789
103	0xbe108a79	-0.14115323
104	0x3cf5bc3d	0.029996986
105	0xbc40f0cb	-0.0117761595
106	0x3a98492e	0.0011618489
107	0x3dc82fb3	0.09774723
108	0xbb204181	-0.0024453106
109	0xbdb0d042	-0.08633472
110	0x3cc93c23	0.024564808
111	0xbb009272	-0.0019618538
112	0xba5545d9	-0.0008135713
113	0xba9ea108	-0.0012102434
114	0xbe196ff4	-0.14984113
115	0x3fc47791	1.5348989
116	0x3d0d3927	0.034478333
117	0x3c2a7fb0	0.01040642
118	0x3f13f959	0.5780235
119	0xbf9197f6	-1.13745
120	0x3debeeed	0.11520181
121	0x3e48169b	0.19539873
122	0xbd5a100c	-0.05323796
123	0x3e1fb9f6	0.15598282
124	0xbf6cf181	-0.92556006
125	0xbd5d23a0	-0.053989053
126	0x3dd88e99	0.10574073
127	0xbad2bfd3	-0.0016078897
128	0xbec13b70	-0.3774066
129	0x3f0e678d	0.55626756
130	0x3e7b3222	0.24530843
131	0x3e899477	0.26871082
132	0x3eb05b10	0.34444475
133	0xbef111af	-0.47083804
134	0x3f97f0fc	1.1870418
135	0xbedd722f	-0.43251178
136	0x3f5a360d	0.85238725
137	0x3e2ffca1	0.17186214
138	0x3e1145ee	0.14186832
139	0x3f5be9c5	0.8590358
140	0x3f5eaab0	0.869792
141	0x3ec722eb	0.38893828
142	0xbc21d2ab	-0.009876887
143	0x3d047364	0.032336608
144	0xbd08f04c	-0.03343229
145	0x3f34087b	0.7032544
146	0xbeda5934	-0.42646182
147	0xbe556f61	-0.20843269
148	0xbf69f171	-0.91384035
149	0xbd9ef5f4	-0.077617556
150	0x3e73f09a	0.23822251
151	0xbdb62a17	-0.08894747
152	0x403a7509	2.9133933
153	0xbdba3b63	-0.09093358
154	0x3ec48349	0.38381413
155	0xbd51089e	-0.05103361
156	0xbf79eb56	-0.9762472
157	0x3e8080e9	0.2509835
158	0xbf69af0a	-0.91282713
159	0x3f1ae0fa	0.60499537
160	0xbeb671ad	-0.35633603
161	0xbdc9e6c6	-0.0985847
162	0xbf5aca7d	-0.8546522
163	0xbf6793f8	-0.9046016
164	0xbe81c13a	-0.25342733
165	0xbebba5bb	-0.3664988
166	0x3d2a3164	0.04155101
167	0xbdd58a61	-0.10426784
168	0x3e5ed8ea	0.21762434
169	0x3d7c8f0f	0.06165987
170	0x3cd094f9	0.02546166
171	0x3e02f1ea	0.12787595
172	0x3dab4e0b	0.08364495
173	0x3d8a04e1	0.06739212
174	0x3deeb7fb	0.11656185
175	0x3e8fee2e	0.28111404
176	0xbd8d88e4	-0.069108754
177	0xbd7525e4	-0.05985059
178	0x3dbd78f6	0.09251587
179	0x3bf2c616	0.0074088676
180	0x3d1485a4	0.036260262
181	0xbd68673c	-0.056739077
182	0x3d91846f	0.07105338
183	0x3dc04b3d	0.093893506
184	0x3d18a9cf	0.037271317
185	0x3d6ebffb	0.058288556
186	0xbd71030a	-0.05884079
187	0x3fc496d1	1.5358526
188	0x3d0ebce3	0.034848105
189	0xbd8c0242	-0.06836368
190	0xbf5c8f9f	-0.8615665
191	0xbfad6d0f	-1.3548907
192	0xbfaec4d0	-1.3653812
193	0xc009c409	-2.15259
194	0xc002f1eb	-2.0460155
195	0x3efd6dca	0.49497825
196	0x401b5047	2.4267747
197	0x3f16c04c	0.5888717
198	0x3feb5cba	1.8387673
199	0xbdd9e0da	-0.1063859
200	0xc03e4d6c	-2.9734755
201	0x4002366a	2.0345712
202	0xbf0537f4	-0.520385
203	0x3fed2556	1.8527019
204	0x4006a32e	2.1037097
205	0xbf176074	-0.5913155
206	0xbde25098	-0.11050528
207	0xbf85e7bd	-1.0461346
208	0x3f929daf	1.1454371
209	0x3e528d16	0.20561633
210	0xbec3b94c	-0.38227308
211	0x400c6fa3	2.1943138
212	0xbf5efcf5	-0.8710473
213	0xbe729854	-0.23690921
214	0xbee00e2a	-0.43760806
215	0x3f6a6a89	0.9156881
216	0x3ca6621b	0.020310452
217	0xbe88f345	-0.267481
218	0x3ddaec6d	0.10689626
219	0x3d844d93	0.064601086
220	0xbe02e4da	-0.12782612
221	0xbda8fcc2	-0.08251335
222	0xbd76de15	-0.060270388
223	0xbcb64c79	-0.022253262
224	0x3d918857	0.07106083
225	0xbf3fa145	-0.7485545
226	0xbdc2abb8	-0.09505409
227	0x3e06ed57	0.13176475
228	0xbc9360fd	-0.017990584
229	0xbdc3e006	-0.095642135
230	0xbe55c169	-0.20874561
231	0x3d91562a	0.070965126
232	0xbeee405a	-0.4653347
233	0xbe042cc9	-0.12907709
234	0x3e839db0	0.25706244
235	0x3f5a16cc	0.85191035
236	0xbe368537	-0.17824255
237	0x3e114dbf	0.14189814
238	0x3e4f2847	0.20230208
239	0x3e6d31c0	0.2316351
240	0x3f83b154	1.0288491
241	0xbe92fb70	-0.28707457
242	0xbd9276a0	-0.07151532
243	0xbe75a1ac	-0.23987454
244	0x3d5d9d30	0.054104984
245	0xbe26d714	-0.16292983
246	0xbea629a8	-0.32453656
247	0xbd8caaca	-0.06868513
248	0x3f085ca7	0.53266376
249	0x3c779c17	0.015112898
250	0xbe920d27	-0.2852566
251	0xbb0450fb	-0.002018987
252	0x3f0acda8	0.54220057
253	0xbd396bbf	-0.04526877
254	0xbd043128	-0.03227344
255	0x3f836eea	1.0268223

B1.c1_r.dw.weight f4 [24, 1, 3, 3]
0	0x3d0883bd	0.03332876
1	0x3e39dcc5	0.18150623
2	0x3d388721	0.045050744
3	0x3ded69ee	0.1159247
4	0x3f31ce2b	0.6945521
5	0x3dfc7094	0.1232616
6	0x3d369f5b	0.044585567
7	0x3e2ca96a	0.16861501
8	0x3d082b21	0.033244256
9	0x3cf9337f	0.030420063
10	0x3feca0f4	1.8486619
11	0x3dbae1a1	0.091250665
12	0x3ecc2e76	0.39879197
13	0xbf91f5b7	-1.1403111
14	0xbd934157	-0.07190197
15	0x3e2068e8	0.15665019
16	0xbfa56657	-1.2921857
17	0x3d5a0679	0.05322883
18	0x3f1c8425	0.61139137
19	0x4006745d	2.1008523
20	0xbd418336	-0.047244273
21	0x3fda266c	1.7042975
22	0xbf701f7f	-0.9379806
23	0xbffa25f0	-1.9542828
24	0x3d9edaee	0.07756601
25	0xbfbef94e	-1.4919832
26	0xbd2f4549	-0.042790685
27	0xbd90bcf3	-0.07067289
28	0xbe283486	-0.16426286
29	0xbd9f2817	-0.077713184
30	0xbe0c8712	-0.137234
31	0xbf2ef394	-0.6834042
32	0xbe125a56	-0.14292273
33	0xbd9f3706	-0.07774167
34	0xbe1d7af9	-0.15378942
35	0xbd89e724	-0.0673354
36	0xbc3ec1c7	-0.01164288
37	0x3c904b9b	0.017614176
38	0xbc499bfb	-0.012305255
39	0x3c91ad3a	0.017782796
40	0x3ffd71b1	1.9800321
41	0x3c9c8398	0.019105718
42	0xbc708032	-0.014679002
43	0x3ca737d7	0.020412369
44	0xbc3d6ed5	-0.011562069
45	0xbe46c56b	-0.19411246
46	0x3f7eaa32	0.9947845
47	0xbe11940e	-0.14216635
48	0x3fdc64a5	1.7218214
49	0x3f4c4263	0.797888
50	0xc0079187	-2.1182573
51	0xbe417607	-0.1889268
52	0xbf264501	-0.6494904
53	0xbeaaf43b	-0.33389458
54	0x3dc125cb	0.094310366
55	0xbfc1c80f	-1.5139178
56	0xbb205a13	-0.002446775
57	0x3fd01c14	1.6258569
58	0xbea18d0f	-0.31552932
59	0xbfc34eb0	-1.5258389
60	0x3edbcc4d	0.42929307
61	0x3f816f32	1.0112059
62	0x3e8a1228	0.26966977
63	0xbb0cfbb0	-0.0021512322
64	0xbc1886a3	-0.009309444
65	0x3ba51222	0.005037562
66	0xbc1ed01b	-0.009693171
67	0xc0266c11	-2.6003458
68	0xbc5a1f3c	-0.013313111
69	0x3b19e789	0.0023483953
70	0xbc464211	-0.012100712
71	0x3a4d245e	0.00078255485
72	0xbd47ddae	-0.048795395
73	0x3d767c6b	0.060177248
74	0xbdb0168b	-0.0859805
75	0x3d3ba9dd	0.04581629
76	0xc043b059	-3.0576384
77	0x3e9cdad1	0.30635694
78	0xbd9cba58	-0.0765273
79	0x404cef91	3.202122
80	0xbeb3e980	-0.35139084
81	0xbcc74d7f	-0.024328945
82	0x3d8342b7	0.06409209
83	0xbcb9eea9	-0.02269681
84	0x3d893d43	0.06701138
85	0x3f9e1b22	1.235203
86	0x3d872821	0.06599451
87	0xbc6e9a9f	-0.014563232
88	0x3d949d15	0.072565235
89	0xbd0618b5	-0.032738406
90	0xbd1c92a6	-0.038225792
91	0xbdfac775	-0.12245075
92	0xbd7a3940	-0.061089754
93	0xbdef1b33	-0.1167511
94	0x403c8c33	2.946057
95	0xbe265ac4	-0.16245562
96	0xbcfeb0ee	-0.031090226
97	0xbdeef459	-0.11667699
98	0xbd73af5e	-0.059493415
99	0x3bcf8012	0.006332406
100	0xbd1be100	-0.038056374
101	0x3c1f5738	0.009725384
102	0xbd2c841f	-0.042118188
103	0xc046580c	-3.099124
104	0xbd1c4ded	-0.038160253
105	0x3bbec1bb	0.0058214343
106	0xbd174bd6	-0.036937557
107	0x3b6f1324	0.0036479915
108	0x3e8153d9	0.25259283
109	0x3f3dcc84	0.7414019
110	0x3ea14d6f	0.3150439
111	0x3f3ce224	0.73782563
112	0xc07cdd41	-3.9510043
113	0x3f342fbf	0.70385355
114	0x3e8cf890	0.27533388
115	0x3f4af7a8	0.79284143
116	0x3e80f79e	0.25188917
117	0x3e4fea0f	0.2030413
118	0x3f514881	0.8175126
119	0x3ebdc47d	0.3706397
120	0x3f4a865f	0.79111284
121	0xc08f4a1d	-4.477797
122	0x3f448731	0.76768786
123	0x3eb792be	0.35854143
124	0x3f71291f	0.9420337
125	0x3ec17607	0.3778536
126	0xbc5905ea	-0.013246039
127	0xbcd7da38	-0.026349172
128	0xbbb82be9	-0.005620469
129	0xbc8748d1	-0.016514214
130	0xbfaae49d	-1.3351017
131	0xbc522d84	-0.012828235
132	0xbbd2e1c2	-0.006435604
133	0xbcafdef2	-0.021468613
134	0xbc81a1d5	-0.015824238
135	0xb9e49c1d	-0.00043603862
136	0xb9a2916f	-0.00031007404
137	0xbc24ba1d	-0.0100541385
138	0x3c2b7978	0.010465972
139	0x3fdb8215	1.7149073
140	0x3bbaf0bf	0.0057049687
141	0xbc6187a6	-0.013765251
142	0xbc211786	-0.009832269
143	0xbc183856	-0.009290775
144	0xbe52f68e	-0.20601866
145	0xbf241a4e	-0.6410264
146	0xbe76f9ce	-0.2411873
147	0xbf1b67b7	-0.6070513
148	0x406332db	3.549979
149	0xbf1f400f	-0.6220712
150	0xbe8754cf	-0.2643189
151	0xbf1f1522	-0.6214162
152	0xbe7b9313	-0.24567823
153	0xbc8cc02a	-0.017181475
154	0x3de8828d	0.113530256
155	0xbc8c294b	-0.017109534
156	0x3d9d239e	0.07672809
157	0x3fd9efbc	1.7026286
158	0x3dba3372	0.09091844
159	0xbce610cc	-0.028084181
160	0x3d6cb52b	0.057789963
161	0xbc97c377	-0.018525822
162	0xbdb5d7cf	-0.08879053
163	0x3f14cc49	0.58124214
164	0xbd19dc54	-0.037563637
165	0x3f20beeb	0.6279132
166	0xc01627f3	-2.3461883
167	0x3f1fc4ea	0.6240984
168	0xbcc603ea	-0.024171788
169	0x3f3e9b8c	0.74456096
170	0xbd5071c3	-0.05088974
171	0x3e79f8d4	0.24411327
172	0x3f07c067	0.5302796
173	0x3e67fdb2	0.22655371
174	0x3ee574fe	0.4481582
175	0xc00d6d8b	-2.209811
176	0x3edb08fd	0.42780295
177	0x3e801e47	0.250231
178	0x3eca7e8f	0.39549682
179	0x3e7b5e37	0.24547659
180	0x3e1df029	0.15423645
181	0x3f2f3618	0.68441916
182	0x3e4430cb	0.19159238
183	0x3f28ecb2	0.6598617
184	0xc05ff2d1	-3.4991953
185	0x3f2b790c	0.6698158
186	0x3e4467f2	0.19180277
187	0x3f2d51b7	0.6770281
188	0x3e48f7ed	0.19625826
189	0xbdae1370	-0.08499801
190	0x3e868fb6	0.26281518
191	0x3e398922	0.18118718
192	0x3e64b33f	0.22334002
193	0xbf7a54d0	-0.97785664
194	0x3e744dd2	0.23857811
195	0x3e34857d	0.17629047
196	0x3e903c56	0.28171033
197	0xbd930f40	-0.07180643
198	0x3f1220af	0.5708112
199	0x3e5eb72f	0.21749566
200	0x3f05b3f7	0.5222773
201	0x3e42f818	0.19039953
202	0xc03f5325	-2.9894497
203	0x3e441529	0.19148697
204	0x3f1410c8	0.57838106
205	0x3e36e104	0.17859274
206	0x3f0a3168	0.5398164
207	0x3d1c6a61	0.03818739
208	0x3e0ab94e	0.1354725
209	0xbdd5d7b4	-0.10441533
210	0x3dafe218	0.08588046
211	0xbe341c54	-0.17588931
212	0x3dbd12ca	0.09232099
213	0xbe2a58a0	-0.1663537
214	0x3d120f81	0.035659317
215	0x3cc36fe7	0.02385707

B1.c1_r.dw.bias f4 [24]
0	0x3d709bde	0.058742397
1	0xbe6fc5a6	-0.2341524
2	0xbf3739c5	-0.71572524
3	0x3ca1237d	0.019670242
4	0xbe9a71d3	-0.30164966
5	0xbe569f5c	-0.20959228
6	0xbe5e8bfc	-0.21733087
7	0xbf22c28e	-0.63578117
8	0xbf3479c4	-0.704983
9	0x3e07232c	0.13197011
10	0x3e4af3bf	0.19819544
11	0xbf7efca9	-0.9960428
12	0x3e9291f7	0.28626987
13	0xbcdb0604	-0.026736267
14	0xbf38b3cf	-0.72149366
15	0xbf33646c	-0.70075107
16	0xbcccd038	-0.02500163
17	0x3d24137c	0.040057644
18	0x3d3882ae	0.0450465
19	0x3dce724a	0.10080393
20	0x3e646774	0.22305089
21	0x3db9a4e1	0.09064651
22	0x3f731551	0.949544
23	0x3d0b9a7c	0.034082875

B1.c2_d.weight f4 [12, 24, 1, 1]
0	0xc06bbe62	-3.683495
1	0x3dc9dd83	0.09856703
2	0x3e346540	0.17616749
3	0xbe25cbe7	-0.16191064
4	0xbe34569d	-0.17611165
5	0x3d5563a9	0.052096996
6	0x3d7fd54e	0.062459283
7	0xbf2a86db	-0.66612023
8	0x3c14fd2a	0.009093562
9	0x3f63abfe	0.88934314
10	0xbfab7fdf	-1.3398398
11	0xbec1b0a0	-0.37830067
12	0xbd22e7ca	-0.039771833
13	0x3cefed33	0.02928791
14	0x40409b47	3.0094774
15	0x3fceeb62	1.6165583
16	0x3e152a0a	0.14566818
17	0xbf5995e3	-0.84994334
18	0xbbc35389	-0.005960886
19	0x3dc48205	0.09595112
20	0xbf85d493	-1.0455498
21	0xbf832c83	-1.0247959
22	0xbcd1a82b	-0.025592884
23	0xc0532187	-3.2989213
24	0xbe4b9f9f	-0.1988511
25	0xbd7e7036	-0.06211873
26	0xbba13c5b	-0.004920525
27	0xbb95cc5a	-0.0045714797
28	0x3dc486cb	0.09596022
29	0xbcd4aa9f	-0.025960265
30	0xbcd112a0	-0.025521576
31	0xbd8f51ec	-0.06998047
32	0xbbeafc73	-0.0071712076
33	0x3f3331a3	0.69997615
34	0xbd84ca2e	-0.06483875
35	0x3d608219	0.05481157
36	0xbc09cffc	-0.008411404
37	0x3bc90df8	0.0061356984
38	0x408cb9db	4.3976874
39	0x3f8c19b2	1.0945342
40	0xbba6ae80	-0.00508672
41	0xbdca44fb	-0.09876438
42	0xbdeb18f4	-0.11479369
43	0x3d2fa6fa	0.04288385
44	0x3b56bb79	0.003276555
45	0xbdaa273b	-0.08308264
46	0xbe1eb554	-0.15498859
47	0xbf4d8401	-0.80279547
48	0xbca561a8	-0.020188168
49	0xbe019959	-0.12656154
50	0xbd8df964	-0.06932333
51	0x3e0dd619	0.13851203
52	0xbd0be7da	-0.034156658
53	0xbd65b471	-0.056080285
54	0xbd60e801	-0.054908756
55	0xbdc167b7	-0.0944361
56	0xba156abc	-0.00056998036
57	0x3efaba5f	0.48970315
58	0xbda8ecaa	-0.08248265
59	0xbf1d1052	-0.6135303
60	0xbd24057e	-0.0400443
61	0x3c36f2ff	0.011166333
62	0xbf310ec2	-0.69163144
63	0x407e505b	3.9736545
64	0xbd4f5d72	-0.050626226
65	0x3e926700	0.28594208
66	0xbdb42a59	-0.0879714
67	0x3d307b69	0.043086443
68	0x3ca14765	0.019687364
69	0x3f1b8310	0.6074686
70	0xbe79e92e	-0.24405357
71	0xbfde3967	-1.7361268
72	0xbd06227d	-0.032747734
73	0xbc3e634e	-0.011620356
74	0xbdf7d9af	-0.12102067
75	0x3c2818f2	0.010259854
76	0xbeeff86e	-0.46869224
77	0x3bca3502	0.00617087
78	0xbba5be43	-0.0050580814
79	0xbd37d1bf	-0.044877764
80	0x3c929da1	0.017897429
81	0xbf9b9a80	-1.2156525
82	0xbcabf378	-0.020990118
83	0xbf93af20	-1.1537819
84	0xbda9446c	-0.082650036
85	0xbc218ee2	-0.009860726
86	0xbdb42512	-0.08796133
87	0x3ee0027f	0.43751904
88	0x3c87be9f	0.016570387
89	0xbf7985c6	-0.9746975
90	0xbf63debc	-0.8901174
91	0x3d30fed5	0.043211777
92	0xbd039fa0	-0.032134652
93	0xbe8dac0b	-0.2767032
94	0xbf5cd206	-0.8625797
95	0xbdd87806	-0.10569768
96	0x3e89bfc0	0.26904106
97	0xbdcee8a5	-0.10102967
98	0x3e0fb77e	0.1403484
99	0xbedf3368	-0.43593907
100	0xbf336854	-0.7008107
101	0xbd8cb028	-0.06869537
102	0xbd682de3	-0.056684386
103	0x3c21bd1d	0.009871748
104	0x3b13c3e6	0.0022547184
105	0xbf8264f2	-1.0187056
106	0x369d1474	4.6813457e-06
107	0x3e9eb41c	0.30996788
108	0xbe9d7af9	-0.30757883
109	0xbd2b65ba	-0.04184506
110	0xbe080cc3	-0.13286118
111	0xbfdf0c59	-1.7425643
112	0x3c84f508	0.016230121
113	0xbef9d3e7	-0.4879448
114	0xbe06e5a5	-0.1317354
115	0x3d244f13	0.040114474
116	0xbe9345a9	-0.28764084
117	0xbf3da95d	-0.7408655
118	0xbe1149d7	-0.14188324
119	0x3f6f545d	0.93488103
120	0xbdb56812	-0.088577405
121	0xbcd08099	-0.025451945
122	0xbd8c90a5	-0.06863526
123	0xbe4012d0	-0.18757176
124	0xbee7e600	-0.45292664
125	0x3bb1fedb	0.0054319925
126	0xbc13ccbb	-0.0090209795
127	0x3e849728	0.25896573
128	0x3bcc1bf3	0.0062289177
129	0xbdb233bb	-0.08701273
130	0x3d71f430	0.059070766
131	0x40ebf514	7.373667
132	0xbc0b4de1	-0.0085024545
133	0x3b850f15	0.004060636
134	0x3edb8471	0.42874482
135	0x40a0af4b	5.021398
136	0xbc603f0a	-0.013686905
137	0xbf413787	-0.75475353
138	0xbe6968b9	-0.22793855
139	0x3dbb22fe	0.091375336
140	0x3da091de	0.07840322
141	0xbf0ae131	-0.54249865
142	0x3e433837	0.19064413
143	0x3f8f695e	1.120403
144	0x3cd59de2	0.026076261
145	0x3e80b9fa	0.2514189
146	0xbd45b0bf	-0.04826426
147	0x3b128c29	0.0022361374
148	0x3dae69ec	0.08516297
149	0x3e096638	0.134179
150	0x3df03306	0.11728482
151	0x3d36ae16	0.044599615
152	0x3c3e2a13	0.011606711
153	0xbf9bd900	-1.2175598
154	0x3c1fcc1b	0.009753252
155	0xbdd7b7c2	-0.10533096
156	0xbbb51f58	-0.005527418
157	0x3bee69d7	0.0072758007
158	0x3e2771c9	0.16352
159	0xbeb42f54	-0.35192358
160	0x3d1e0969	0.038583193
161	0x3efe8323	0.49709424
162	0xbf467363	-0.77519816
163	0x3de87dce	0.1135212
164	0xbd051c6a	-0.0324978
165	0x3e8d7f08	0.2763598
166	0xbf74792f	-0.9549741
167	0x3e196184	0.14978606
168	0xbe68e811	-0.22744776
169	0x3ae09e13	0.0017136954
170	0x3b85fbe9	0.004088868
171	0x3e7a368a	0.24434868
172	0xbe37e787	-0.17959414
173	0xbd0c63ec	-0.03427498
174	0xbc4959ce	-0.0122894775
175	0x3e75b3af	0.23994325
176	0xbcaa7b45	-0.020810733
177	0x3f88aac7	1.0677117
178	0x3d5f338a	0.05449251
179	0x3d935edc	0.07195827
180	0xbdc8f41d	-0.09812186
181	0x3b9ab29a	0.004720998
182	0x3f1d2509	0.61384636
183	0x3c10d533	0.008839893
184	0x3e28514f	0.16437267
185	0x3f185e5d	0.59518987
186	0x3e2fdeb7	0.17174803
187	0xbe512eae	-0.20427963
188	0xbe2bbd0d	-0.16771336
189	0xbeb98e91	-0.36241582
190	0xbe41a16a	-0.18909231
191	0x3fa8d543	1.3190082
192	0xbc612658	-0.013742052
193	0x3d20b890	0.039238513
194	0x3ddea024	0.10870388
195	0xbde28ce9	-0.11062033
196	0x40442978	3.065031
197	0x3c10098f	0.008791341
198	0x3b98a7ad	0.0046586604
199	0xbe43d88b	-0.19125573
200	0xbb306bfd	-0.0026919835
201	0xbe9749b8	-0.2954843
202	0xbde14ada	-0.11000605
203	0xbdd15679	-0.102215715
204	0xbcf446cc	-0.029818915
205	0x3c307c59	0.010771834
206	0xbf0a3550	-0.539876
207	0x3fdb8dcd	1.7152649
208	0x3cde9093	0.027168548
209	0x3ea34175	0.31885877
210	0xbe21ca5f	-0.15799855
211	0xbdb0e0c8	-0.086366236
212	0xbc3d23a6	-0.011544144
213	0x3dd4002e	0.10351597
214	0xbd90c2f6	-0.07068436
215	0xc079e386	-3.904512
216	0x3d535a1c	0.051599607
217	0xbc9e6862	-0.019336883
218	0x3dbf1439	0.09330029
219	0xbdeac450	-0.11463225
220	0xbe33d625	-0.17562158
221	0xbd95aeda	-0.07308741
222	0xbd72509f	-0.059158918
223	0x3ec11847	0.37713835
224	0xbc76074f	-0.015016391
225	0xbebfe795	-0.3748137
226	0x3d073119	0.033005808
227	0xbf87280e	-1.0559099
228	0xbd91d0a4	-0.07119873
229	0xbd63f0fd	-0.055649746
230	0xbe4bb33d	-0.19892593
231	0x3f3859f7	0.72012275
232	0xbd7a1285	-0.061052818
233	0x3f67c2d8	0.9053168
234	0xbef87456	-0.48526257
235	0xbe954179	-0.29151514
236	0x3c1e7fd6	0.009674033
237	0x3f823282	1.0171664
238	0xbed5d0ea	-0.4176095
239	0xbf371d8f	-0.7152948
240	0x3e2a6de2	0.1664348
241	0xbd2a25ba	-0.041539885
242	0xbd860d83	-0.06545546
243	0x3df8da7d	0.12151048
244	0xbdcb8ad7	-0.09938591
245	0xbd765d41	-0.060147528
246	0xbcfbdacd	-0.03074398
247	0xbd985909	-0.07438857
248	0xbbcfafb8	-0.006338086
249	0xbe46a2b6	-0.19398007
250	0xbd096585	-0.033544082
251	0xbfec5aa3	-1.846516
252	0x3d6fe7e2	0.05857075
253	0xbc0b0d08	-0.008486994
254	0xbe0b6acc	-0.13614959
255	0xbfd2fe5f	-1.6483878

B1.c2_d.bias f4 [12]
0	0x3f64b16f	0.8933324
1	0x3e9552b0	0.29164648
2	0x3d02f024	0.031967297
3	0xbeeefa86	-0.4667551
4	0xbe4c62f1	-0.19959618
5	0xbf404557	-0.75105804
6	0x3d070585	0.03296425
7	0x3d090c51	0.03345901
8	0x3e24398f	0.16037582
9	0x3db82730	0.089918494
10	0xbd1690c4	-0.036759153
11	0xbf5a2284	-0.85208917

B1.c2_r.pw.weight f4 [24, 24, 1, 1]
0	0xbf44e8da	-0.76917803
1	0xc00b46c2	-2.1761937
2	0xbf8f07b4	-1.1174226
3	0xbd3f2fd7	-0.046676483
4	0x3ddaab95	0.10677258
5	0xbf8c44aa	-1.0958455
6	0xbf8fb395	-1.1226679
7	0x3e20e40b	0.15711991
8	0xbe115bcb	-0.14195172
9	0xbe754571	-0.23952271
10	0xbc7d32af	-0.015453978
11	0x3c0bcc98	0.008532666
12	0xbd49f748	-0.04930809
13	0xbd2e1e5a	-0.042509414
14	0xbd8c6733	-0.06855621
15	0x3eb63ee6	0.35594863
16	0xbd8f7fd1	-0.07006801
17	0x3e918856	0.2842433
18	0xbfdf75d1	-1.745783
19	0x3dd1427d	0.1021776
20	0xbceaa50f	-0.02864316
21	0xbe79eee0	-0.2440753
22	0xc036b417	-2.8547418
23	0xbd56a367	-0.052401926
24	0xbc093076	-0.00837337
25	0x3f88ca08	1.0686655
26	0x3d9b2167	0.0757473
27	0xbb2847ca	-0.0025677555
28	0x3d8cc1ab	0.06872877
29	0xbdc32d6e	-0.095301494
30	0xbd85f75e	-0.06541322
31	0x3def19d4	0.11674848
32	0xbb906197	-0.004406165
33	0x3eab4e14	0.33458006
34	0xbbde6677	-0.006787117
35	0x3e2f7678	0.17135036
36	0x3e54fe17	0.20800053
37	0x3d88a4ba	0.06672044
38	0x3ed6316c	0.4183458
39	0xbead3019	-0.33825758
40	0x3d77b71e	0.06047737
41	0x3d2c7c7a	0.042110898
42	0x3ec5081a	0.38482744
43	0x402629a8	2.5962925
44	0xbc98e697	-0.018664641
45	0x3f120557	0.570394
46	0x401608b2	2.3442807
47	0x3ce40b33	0.027837371
48	0x3d90bee1	0.07067657
49	0x3dd95ffb	0.1061401
50	0x3fbabb59	1.4588424
51	0x3dd74313	0.1051084
52	0xbf841eb3	-1.0321869
53	0x3d6a03b6	0.057132445
54	0x3d49b910	0.049248755
55	0x3f932281	1.1494905
56	0x3c307ece	0.01077242
57	0xbfd57f00	-1.6679382
58	0x3e0fe669	0.14052738
59	0xbf20612b	-0.62648267
60	0xbbf2aa9c	-0.007405592
61	0xbc67851a	-0.014130855
62	0xc05ec220	-3.4805984
63	0xbf2ea978	-0.6822734
64	0xbdd94139	-0.10608143
65	0xbedbf35d	-0.4295911
66	0xbe3beff3	-0.18353252
67	0xbc3fe7d0	-0.011712983
68	0x3d47aef4	0.048750833
69	0xbfaaadec	-1.3334327
70	0x3e050144	0.12988764
71	0x3904ba87	0.00012657988
72	0x3cb9aa46	0.0226642
73	0x3d620eea	0.055190004
74	0xbf32a503	-0.6978304
75	0xbf90635e	-1.1280324
76	0x3e30ef81	0.17278863
77	0x3de33893	0.11094775
78	0x3dc5bed0	0.09655535
79	0x3dba2647	0.09089332
80	0x3c9f8f30	0.019477457
81	0x3e1ad72e	0.15121147
82	0x3ccc4078	0.024933085
83	0xbe919bdf	-0.28439233
84	0xbe7571a8	-0.23969138
85	0xbe3cde0a	-0.18444076
86	0x3c163818	0.009168647
87	0x3f4598a2	0.77186024
88	0xbdeccc6d	-0.115624286
89	0x3f2f1f07	0.6840672
90	0x3f51028c	0.8164451
91	0x3ee68047	0.45019743
92	0xbe7369ec	-0.23770875
93	0x3fc3e70a	1.5304883
94	0xbdbbeb9f	-0.091758005
95	0x3e08e560	0.1336875
96	0x3d288478	0.041141957
97	0xbc353a23	-0.011061224
98	0x3c16f556	0.009213766
99	0xbd6b57d8	-0.05745682
100	0x409ec702	4.961793
101	0x3b13c49a	0.0022547604
102	0xbbaf21c1	-0.0053446
103	0x40b48d4d	5.6422486
104	0x3ba82303	0.005131127
105	0x3f1f4bd2	0.6222507
106	0x3d973c2c	0.07384524
107	0xbdb04728	-0.08607322
108	0x3caf2241	0.021378638
109	0xbb4dc99c	-0.0031400686
110	0x3e8fc71e	0.28081602
111	0x3d43606e	0.047699384
112	0x3c80bf4c	0.015716217
113	0xbcd420bf	-0.02589452
114	0xbeb8f616	-0.3612525
115	0xbac9e648	-0.0015403712
116	0x3cde3bfc	0.027128212
117	0x3c56f9d8	0.013121091
118	0x3e1fcafc	0.15604776
119	0xbfef5918	-1.8699064
120	0xbd50e276	-0.05099722
121	0xbe724ce6	-0.23662147
122	0xbc6c0512	-0.014405506
123	0x3e8d93a4	0.27651703
124	0xbe938040	-0.28808784
125	0xbd1c8efb	-0.038222294
126	0xbdc486af	-0.09596001
127	0x3e3f5af5	0.18687041
128	0xbdabe245	-0.08392767
129	0xc0ad2e8f	-5.4119334
130	0x3e1ddca1	0.15416194
131	0xbed196fd	-0.40935507
132	0xbc7ce962	-0.015436502
133	0x3aeafad8	0.001792754
134	0xbeb577ad	-0.35442868
135	0x3f400b72	0.75017464
136	0x3d272cfa	0.040814377
137	0x406797e0	3.6186447
138	0x3ecf3d6a	0.40476543
139	0x3db6177a	0.088911965
140	0x39dbf0c7	0.00041950328
141	0x3cf2c9ca	0.029637236
142	0xbe88c0ed	-0.2670969
143	0x3e500785	0.20315368
144	0xbceced24	-0.028921671
145	0xbe27d8ac	-0.16391248
146	0xbf9a2f37	-1.2045659
147	0x3e05ef8d	0.13079663
148	0xbd9d2b0d	-0.07674227
149	0xbdaa47c5	-0.0831447
150	0xbf7dd35b	-0.9915063
151	0xbeab9465	-0.33511654
152	0xbcb52df6	-0.022116642
153	0xbf739639	-0.95151097
154	0x3db7d980	0.08977032
155	0x3e25cfcf	0.16192554
156	0x3e1e18bd	0.15439124
157	0xbfc5081b	-1.5393099
158	0x3f56945a	0.83820117
159	0x3ef91d85	0.48655334
160	0xbe9c6c28	-0.30551267
161	0xbf0f84b5	-0.5606187
162	0xbe0a12e2	-0.13483766
163	0xbe1c388e	-0.15255949
164	0xbe2c924d	-0.16852684
165	0x402e9018	2.7275448
166	0xbf0223f5	-0.50836116
167	0xbfde77e7	-1.7380341
168	0x3ea742e9	0.32668236
169	0xbd495cb3	-0.04916067
170	0xbc9cd5da	-0.019144941
171	0xbf0a2999	-0.53969723
172	0x3f9d2509	1.2276927
173	0xbbc8289d	-0.006108357
174	0xbd747078	-0.05967757
175	0xbf37aa2e	-0.7174405
176	0xbc181ef1	-0.009284721
177	0xbfb2f323	-1.398045
178	0x3e7bd3a1	0.24592449
179	0x3d49742d	0.04918306
180	0xbdfd5603	-0.12369921
181	0x3c6bd6ac	0.0143944435
182	0xc003c4db	-2.05889
183	0xbea92f1b	-0.3304375
184	0xbe2afb7e	-0.16697499
185	0xbed38ee7	-0.41319963
186	0x3d2163a7	0.039401677
187	0x3bb176c4	0.0054157693
188	0x3dcbe9e4	0.099567205
189	0xbf478ca4	-0.77948976
190	0xbe43102d	-0.1904914
191	0xc050ac9d	-3.2605355
192	0xbcb18767	-0.02167101
193	0x3f982b94	1.1888299
194	0x3e91170e	0.28337902
195	0xbaf5c3eb	-0.0018750405
196	0xbdb4dd3b	-0.08831259
197	0x3f265ff0	0.6499014
198	0x3f1b192c	0.60585284
199	0x3e525ff0	0.2054441
200	0xbf809858	-1.0046492
201	0xbe86263e	-0.2620105
202	0x3ca07eed	0.019591773
203	0xbbef8686	-0.0073097376
204	0x3cbb3372	0.02285168
205	0x3d0ecde8	0.034864336
206	0xbe675d48	-0.22594178
207	0x3ee6b936	0.4506318
208	0x3df75b3b	0.12077948
209	0x3e44aa59	0.19205607
210	0x3fb3a2eb	1.4034094
211	0xbe42e150	-0.19031262
212	0xbe676aa7	-0.22599278
213	0xbf48e84d	-0.7847946
214	0x3f53bdc7	0.8271145
215	0xbecb2680	-0.3967781
216	0xbdbd4c3b	-0.092430554
217	0xbe401f86	-0.18762025
218	0x3a819ceb	0.0009888684
219	0xbd94d419	-0.07267017
220	0xbef841bc	-0.4848765
221	0xbdb9bf3a	-0.09069677
222	0xbdaf08a2	-0.085465685
223	0xbe119bde	-0.14219615
224	0xbc49ce4d	-0.012317252
225	0xbf75d85c	-0.96033263
226	0xbda77d5d	-0.08178208
227	0xbf25432f	-0.6455564
228	0xbc750d41	-0.014956773
229	0xbae1d191	-0.0017228593
230	0xbd51af38	-0.051192492
231	0x3fae41cd	1.3613831
232	0x3d73bce1	0.0595063
233	0xbd7b86c5	-0.061407823
234	0x3fb4d513	1.4127525
235	0xbe4dbab1	-0.20090748
236	0xbcaf8364	-0.021424957
237	0x3ea7a424	0.32742417
238	0x3f398aa9	0.72477204
239	0xbf910f3f	-1.1332778
240	0x3c75575a	0.0149744395
241	0x3dd86fc8	0.105681956
242	0xbe6fc040	-0.23413181
243	0x3d731d63	0.059354197
244	0x3fa239d5	1.2673899
245	0x3db04da4	0.08608559
246	0x3d9973b6	0.07492773
247	0xbf4c8de8	-0.7990403
248	0x3ca959ed	0.020672763
249	0xbe97c9ec	-0.29646242
250	0xbf265c70	-0.649848
251	0xbeddcfef	-0.43322703
252	0x3e0fb00f	0.14032005
253	0xbd9a6b4d	-0.07539997
254	0x3dcaa625	0.09894971
255	0x3fae24a7	1.3604935

B1.c2_r.dw.weight f4 [24, 1, 3, 3]
0	0x3ce02f2b	0.027366241
1	0x3de00b3b	0.10939642
2	0x3cf8183c	0.030284993
3	0x3df9cc17	0.1219713
4	0x3f2cf3f6	0.67559755
5	0x3df4a3c3	0.119452976
6	0x3c4c494f	0.01246865
7	0x3e1ea880	0.15493965
8	0x3b855830	0.0040693507
9	0xbcb7bbd2	-0.022428427
10	0xbd895c1a	-0.0670702
11	0xbcb4c8c5	-0.02206839
12	0xbdba2302	-0.090887085
13	0xbea90bdc	-0.3301686
14	0xbdb6c73e	-0.08924721
15	0xbcc1d3a6	-0.023660492
16	0xbde5da8d	-0.11223326
17	0xbc280d49	-0.010257074
18	0x3b328a49	0.002724307
19	0x3d220475	0.03955503
20	0x3c07f524	0.008298192
21	0x3d272a5a	0.040811874
22	0xbf5615e1	-0.83627135
23	0x3d366005	0.044525165
24	0x3b60a5f8	0.0034278613
25	0x3d113ceb	0.035458487
26	0xbc21565f	-0.009847253
27	0x3d59ab37	0.0531418
28	0x3e02acae	0.12761185
29	0x3d67ba97	0.05657443
30	0x3e06509c	0.13116688
31	0x3ddcf004	0.10787967
32	0x3e051fcf	0.13000415
33	0x3d65c599	0.056096647
34	0x3deb974e	0.115034685
35	0x3d625ba6	0.055263184
36	0x3cce2444	0.025163777
37	0x3d275fd7	0.040862884
38	0x3d14ad00	0.0362978
39	0x3d1d3e58	0.038389534
40	0x4070fe28	3.7655125
41	0x3d30cb0e	0.043162398
42	0x3cf20c18	0.029546782
43	0x3d2764e3	0.040867697
44	0x3caf61b1	0.021408888
45	0xbe1a3759	-0.15060176
46	0x3fee3b1d	1.861179
47	0x3e62b750	0.2214024
48	0xbfc496d2	-1.5358527
49	0x3ddbb85e	0.107285246
50	0xc0148212	-2.3204389
51	0x3d902c66	0.07039718
52	0x3fb2917b	1.3950647
53	0x3ea75137	0.3267915
54	0x3d148857	0.036262836
55	0x3dc2f967	0.09520226
56	0x3d3039df	0.04302394
57	0x3dafb3ef	0.085792415
58	0x3f6e816e	0.93166244
59	0x3dc36e65	0.095425405
60	0x3d1c4ca9	0.038159046
61	0x3dc779f5	0.09740058
62	0x3d01e25d	0.031710017
63	0x3cffaeb5	0.031211236
64	0x3df7ea49	0.12105233
65	0x3d0af27e	0.033922665
66	0x3de1dee3	0.110288404
67	0xbf03c0f4	-0.514663
68	0x3df104b4	0.11768475
69	0x3cf902d1	0.03039685
70	0x3de1850a	0.11011703
71	0x3c974e1a	0.018469859
72	0xbcb08ea0	-0.021552384
73	0x3c3dafa2	0.011577519
74	0xbc946ba0	-0.018117726
75	0xbcde5694	-0.027140893
76	0x3f7668e3	0.96253794
77	0xbcdb2b2c	-0.026753984
78	0x3abc0b08	0.0014346549
79	0x3c85c994	0.016331472
80	0x3bbf8c25	0.005845564
81	0xbac42bfd	-0.0014966723
82	0x3d606cae	0.054791145
83	0x3c5d2e98	0.013499878
84	0x3d89a00c	0.0671998
85	0xbf357f7e	-0.7089766
86	0x3d903300	0.070409775
87	0x3c6055aa	0.013692299
88	0x3d775c47	0.060390737
89	0xbc2a7987	-0.010404951
90	0x3cc57e3e	0.024108049
91	0x3dee06a6	0.11622362
92	0x3cccf715	0.025020162
93	0x3de58901	0.11207772
94	0x3fb55c56	1.4168804
95	0x3e017d0f	0.12645362
96	0x3d00aa53	0.031412434
97	0x3dc73e85	0.097287215
98	0x3c995490	0.01871708
99	0x3e9f1ec1	0.3107815
100	0xbeb83fb2	-0.35986096
101	0xbcf56a9e	-0.029958066
102	0xc0278551	-2.617512
103	0x402db35e	2.7140727
104	0x3d7b7e87	0.061399963
105	0x3e9195f5	0.2843472
106	0xbea7e6fa	-0.3279341
107	0xbc1e3a33	-0.00965743
108	0xbcddbc44	-0.027067311
109	0xbd9652e2	-0.073400274
110	0xbcf069e6	-0.029347371
111	0xbd9e0f69	-0.07717783
112	0xbf42cdc9	-0.76095253
113	0xbd9cbb96	-0.07652967
114	0xbcd0c321	-0.02548367
115	0xbd930341	-0.07178355
116	0xbcdda65f	-0.027056871
117	0xbd5f7542	-0.054555185
118	0xbd6d74da	-0.057972766
119	0xbd498128	-0.04919544
120	0xbd6559aa	-0.055993713
121	0xbf218a0c	-0.6310127
122	0xbd669422	-0.056293614
123	0xbd346f13	-0.04405124
124	0xbd4e4a18	-0.05036363
125	0xbd405547	-0.046956327
126	0xbd67287e	-0.0564351
127	0xbd61a79c	-0.055091485
128	0xbd68215a	-0.05667243
129	0xbd5c2e30	-0.053754985
130	0x3c4cd3c7	0.0125016635
131	0xbd6262b5	-0.055269916
132	0xbd592d9a	-0.053022005
133	0xbd54b21a	-0.051927663
134	0xbd5f17b9	-0.054465983
135	0xbbbab56c	-0.0056978967
136	0x3caf2739	0.021381008
137	0xba9c9373	-0.0011945799
138	0x3bc98da3	0.0061509176
139	0x3f131ab1	0.574626
140	0x3b6155b4	0.0034383358
141	0xbb8450c7	-0.0040379497
142	0x3c6eaf73	0.014568198
143	0xbc084fe9	-0.008319833
144	0x3d9cc45d	0.07654641
145	0xbd45b606	-0.048269294
146	0x3db84828	0.08998138
147	0xbd427433	-0.047474097
148	0x3fad22d6	1.3526256
149	0x3fad4217	1.3535794
150	0xbd4f8f1b	-0.050673585
151	0xc05849db	-3.3795078
152	0x3f23b0d6	0.63941705
153	0xbd27fad3	-0.04101069
154	0xbdd6f21a	-0.10495396
155	0xbc95ae13	-0.018271482
156	0xbded7bb4	-0.1159586
157	0xbf83ebd5	-1.0306345
158	0xbdfb6627	-0.122753434
159	0xbceb2144	-0.028702386
160	0xbd2c46d2	-0.042059727
161	0xbd2dfd9b	-0.042478185
162	0x3d908862	0.07057263
163	0x3e4569d5	0.19278653
164	0x3d94fa41	0.07274295
165	0x3e34857d	0.17629047
166	0xbf84e5ed	-1.0382668
167	0x3e3a7ca8	0.18211615
168	0x3d92bc99	0.071648784
169	0x3e4e2c45	0.20134075
170	0x3d830d48	0.063990176
171	0xbe01d8a9	-0.12680306
172	0xbe58cd8c	-0.2117216
173	0xbdfe5049	-0.12417657
174	0xbe6941a8	-0.22778952
175	0x3fb861c8	1.440484
176	0xbe65b344	-0.22431666
177	0xbdf967be	-0.121779904
178	0xbe491485	-0.19636734
179	0xbdfa8e19	-0.12234134
180	0x3cd2af1f	0.02571827
181	0x3f0900b8	0.5351672
182	0x3d40ae82	0.047041424
183	0x3df82874	0.12117091
184	0x400e2cf4	2.2214937
185	0x3e563088	0.2091695
186	0xbb22f603	-0.0024865873
187	0xbbe2ac26	-0.0069174943
188	0xbab83ce6	-0.0014056235
189	0xbd6d9c27	-0.058010247
190	0xbdcb74bf	-0.09934377
191	0xbd461e41	-0.048368696
192	0xbdc7242f	-0.09723698
193	0x3ce82e1b	0.028342297
194	0xbdc18776	-0.09449665
195	0xbd445469	-0.047932062
196	0xbdb6d03b	-0.089264356
197	0xbd5b0d0a	-0.053479232
198	0x3d894a28	0.06703597
199	0x3e4cf275	0.20014365
200	0x3cd5817b	0.026062718
201	0x3e2d939d	0.16950841
202	0xbe550078	-0.2080096
203	0x3e6a20dd	0.22864099
204	0x3d768be5	0.060192008
205	0x3e556f61	0.20843269
206	0x3cddfbe4	0.02709765
207	0xbdd53dc3	-0.10412171
208	0xbe1d57d0	-0.15365529
209	0xbdb72d27	-0.08944159
210	0xbe21588f	-0.15756439
211	0x3e0d0be3	0.13774066
212	0xbe2bdb55	-0.16782887
213	0xbdafd356	-0.08585231
214	0xbe0aebbc	-0.13566488
215	0xbdbeb4c9	-0.09311826

B1.c2_r.dw.bias f4 [24]
0	0xbea71020	-0.3262949
1	0x3e094af0	0.13407493
2	0x3e455e0a	0.19274154
3	0x3e1bca6f	0.15213941
4	0xc051fc8e	-3.2810397
5	0xbf1b2d1f	-0.60615724
6	0xbe830572	-0.25590092
7	0x3dd21812	0.10258497
8	0x3ec42d5a	0.3831585
9	0x3e201534	0.15633088
10	0x3f3e6cad	0.74384576
11	0xbf3d4f83	-0.7394945
12	0xbd6429bf	-0.055703875
13	0x3f4d8fba	0.80297434
14	0x3ec6511b	0.38733754
15	0xbc523e11	-0.012832181
16	0xbf4f3d6a	-0.80953085
17	0xbf48d4c5	-0.7844966
18	0x3f0e213b	0.55519456
19	0x3f0e119c	0.5549562
20	0xbf59b524	-0.85042024
21	0x3e0c9aab	0.13730876
22	0xbc82bb36	-0.01595841
23	0x3e215284	0.15754133

B1.c3_d.weight f4 [12, 24, 1, 1]
0	0x3c00adef	0.007853969
1	0x3f2dec1c	0.679384
2	0xc0041acc	-2.0641356
3	0x3f81acfc	1.0130916
4	0xbe453e53	-0.19262056
5	0xba8d7f68	-0.0010795416
6	0x3dc23a02	0.0948372
7	0xbf2b1764	-0.66832566
8	0xbd4d9a03	-0.050195705
9	0xbe8c3122	-0.27381235
10	0xbc036448	-0.008019514
11	0x3c48cde3	0.0122561185
12	0xbe4dd501	-0.20100786
13	0xbe3cf993	-0.1845458
14	0x4014d032	2.3252072
15	0xbfa91f7b	-1.3212732
16	0xbc20724f	-0.009792878
17	0xbda9454a	-0.08265169
18	0xc020d65b	-2.5130832
19	0xbe064789	-0.13113226
20	0xbb403521	-0.0029328542
21	0xbd892193	-0.06695857
22	0xbeb9a52c	-0.3625883
23	0x3f20d274	0.62821126
24	0xbe1c0f27	-0.15240155
25	0xbeba7792	-0.3641935
26	0xbec33f10	-0.3813405
27	0x3f9f4bd2	1.2445014
28	0x3c91f999	0.017819213
29	0x3bf71953	0.0075408607
30	0xbd871bb5	-0.065970816
31	0x3f3950b6	0.7238878
32	0x3c96d159	0.018410372
33	0x3f7c554b	0.98567647
34	0xbfa12863	-1.259045
35	0xba877748	-0.0010335231
36	0x3df972fe	0.12180136
37	0x3bf66a09	0.0075199646
38	0x3d9eb7e8	0.07749921
39	0xc051587c	-3.2710257
40	0xbc6d9302	-0.014500381
41	0x3d998ac4	0.074971706
42	0x3dc74a78	0.09731001
43	0xbecd5139	-0.4010103
44	0xbbc0fb2f	-0.0058893184
45	0x3ea86893	0.32892284
46	0xbcda53bf	-0.026651261
47	0x3ea2062c	0.31645334
48	0x3d721be8	0.059108645
49	0x3e28351a	0.16426507
50	0xbedfd88d	-0.43719903
51	0xbf504af3	-0.81364363
52	0xbeeae78a	-0.45879775
53	0x3b9cdb28	0.0047868676
54	0xbc9cbf3f	-0.019134162
55	0xbfe0b23a	-1.755439
56	0xbe108a6d	-0.14115305
57	0x3e3e6d30	0.18596339
58	0xbe22d616	-0.1590198
59	0xbc153d85	-0.009108906
60	0x3ead9bef	0.3390803
61	0xbe9fbd1b	-0.31198964
62	0x3f80c350	1.0059605
63	0x3e4c1f15	0.19933732
64	0x3c126ec1	0.008937539
65	0xbe1b15a9	-0.15144981
66	0x3e3e071c	0.185574
67	0x3e9291f8	0.2862699
68	0x3ba6455c	0.0050741863
69	0x3f171421	0.5901509
70	0xbf365656	-0.7122549
71	0x3ea0ce8b	0.3140758
72	0xbcae28a1	-0.021259608
73	0x3ef1d886	0.47235507
74	0xbf144f49	-0.5793348
75	0xbf18fe86	-0.5976337
76	0xbe24c2b9	-0.16089906
77	0xbc95ff3b	-0.01831018
78	0xbcf1a8eb	-0.029499492
79	0xbf04323c	-0.5163915
80	0xbdab7cfb	-0.083734475
81	0xbf7e3bfe	-0.9931029
82	0x3d129504	0.035786644
83	0x3be717cd	0.007052398
84	0x3ddcc46f	0.10779654
85	0xbd9dfa95	-0.0771381
86	0xbba77a7a	-0.005111036
87	0xbdfd99b7	-0.123828344
88	0xbb4e0728	-0.003143737
89	0x3e627608	0.22115338
90	0xbb98e199	-0.004665565
91	0xbe4d904a	-0.20074573
92	0x3ac929cd	0.0015347541
93	0x3e719986	0.23593721
94	0x3ee620de	0.4494695
95	0x3e96c7cb	0.29449305
96	0x3f4630fb	0.7741849
97	0x3d61e313	0.055148195
98	0xbdc324e2	-0.09528519
99	0x3e8347da	0.25640756
100	0x3dba8891	0.09108079
101	0xbd5d87ad	-0.05408447
102	0x3d912683	0.07087424
103	0x3eabce83	0.33555993
104	0xbf61b40a	-0.8816534
105	0xbe987d9d	-0.29783335
106	0x3d8af36c	0.0678471
107	0xbc17ff7e	-0.009277223
108	0x3dd046f7	0.101697855
109	0xbd0b843f	-0.034061667
110	0x3e1f7dc6	0.15575323
111	0xbe8e30db	-0.2777165
112	0xbd08e1b1	-0.03341836
113	0xbd863be4	-0.06554392
114	0xbe5208c8	-0.20511162
115	0xbebbd0b2	-0.3668266
116	0x3c8fcd75	0.017554024
117	0x3ca53d53	0.020170843
118	0xbeea2881	-0.45734027
119	0x3e965abb	0.29366097
120	0x3f25144f	0.64484113
121	0x3e14dec1	0.14538099
122	0x3eab3c66	0.33444518
123	0x3ede75aa	0.43449146
124	0x3e62968e	0.22127745
125	0xbc93c691	-0.01803902
126	0x3e02e1cf	0.12781452
127	0x3ec141d6	0.3774554
128	0xbeef11f5	-0.46693388
129	0x3f08548a	0.53253996
130	0x3da785ef	0.08179843
131	0x3a6b67bb	0.00089799956
132	0xbc4bc8f8	-0.012438051
133	0x3d212e88	0.039351016
134	0x3ea327df	0.31866357
135	0x3dc2d82a	0.09513886
136	0xbc28ec0e	-0.010310186
137	0xbf19d552	-0.60091126
138	0xbc6554a8	-0.013997234
139	0x3ced49ab	0.028965792
140	0x3bc84455	0.0061116614
141	0xbdf6d5be	-0.12052487
142	0xbfbda95c	-1.4817309
143	0xbe415be5	-0.18882711
144	0x3cd33395	0.025781432
145	0x3e4e38c6	0.20138845
146	0xbfc4fc63	-1.5389522
147	0x3e96e7ef	0.29473826
148	0xbc80d6a6	-0.015727352
149	0xbb90e23c	-0.0044215005
150	0x3efd5bd1	0.49484113
151	0xbffd7d69	-1.9803897
152	0xbc9bc00e	-0.019012477
153	0x3c9714ef	0.0184426
154	0x3e9ff19c	0.3123902
155	0x3bb2e225	0.0054590874
156	0xbd252b16	-0.040324293
157	0xbeaa9a5c	-0.33320892
158	0xbf8e05e4	-1.1095548
159	0x3e3884ef	0.1801946
160	0xbc5576eb	-0.013028841
161	0x3dad0213	0.08447661
162	0x3ccf88f8	0.025333866
163	0xbe29c376	-0.16578469
164	0xbb5b9ff9	-0.00335121
165	0x40a60e51	5.1892476
166	0x3e04a845	0.12954815
167	0xbf497cbe	-0.78705966
168	0x3dff59bc	0.12468287
169	0x3d09f62e	0.03368204
170	0xbfd58ea0	-1.6684151
171	0xbe5109a6	-0.20413837
172	0x3f0e966d	0.5569828
173	0x3b7cdaa1	0.0038582461
174	0x3e1c0752	0.15237167
175	0x3f8a48d9	1.0803481
176	0xbd245b48	-0.040126115
177	0xbed7a5c9	-0.42118672
178	0xbe76ab4d	-0.24088784
179	0x3b0dc5e3	0.0021632842
180	0x3d8a2760	0.067457914
181	0xbe94c479	-0.29056147
182	0x3d3e875e	0.046515815
183	0x3f038531	0.5137511
184	0x3ba88f56	0.00514404
185	0xbb1ee36b	-0.0024244438
186	0x3dbaa814	0.091140896
187	0xbe07e6e8	-0.13271677
188	0xbb9b41e7	-0.004738081
189	0x3f31070f	0.69151396
190	0x3d83dce4	0.06438616
191	0xbd52b867	-0.05144539
192	0xbedd9d72	-0.43284184
193	0xbec2b45e	-0.38028234
194	0xbe16ebe3	-0.14738421
195	0xbecb4b39	-0.39705828
196	0x3e24d8a3	0.16098265
197	0x3c914b9d	0.01773625
198	0xbdab7f6b	-0.083739124
199	0xbec13f57	-0.37743637
200	0x3ee092f9	0.4386213
201	0xbe8cd14b	-0.27503428
202	0xbca28da1	-0.019842925
203	0xbbf16eaa	-0.0073679285
204	0xbd73cef0	-0.059523523
205	0x3aca0290	0.0015412141
206	0xbe0947ca	-0.13406292
207	0xbe557743	-0.20846276
208	0x3c5b4f8e	0.0133856665
209	0xbd9c1cb8	-0.07622665
210	0x3d0ba585	0.0340934
211	0x3e65788c	0.22409266
212	0xbb35dba9	-0.0027749336
213	0xbdde0dd0	-0.10842478
214	0xbe7d2b61	-0.24723579
215	0x3f37e0df	0.718275
216	0x3f7376fa	0.9510342
217	0x3d48c1ea	0.049013056
218	0x3ce8bcfc	0.028410427
219	0x3ec2a1a5	0.3801395
220	0x3fbb114a	1.4614651
221	0xbd3967d4	-0.045265034
222	0xbdcad61a	-0.09904118
223	0xbf8eb5ad	-1.1149193
224	0xbbfe9f3b	-0.0077704466
225	0x3ef19680	0.47185135
226	0x3e9b5114	0.30335295
227	0x3b2e6fb1	0.0026616866
228	0xbef7d431	-0.48404077
229	0x3ef04039	0.46923998
230	0xbd09162b	-0.033468407
231	0xbf22fdd4	-0.6366856
232	0x3ad5d9da	0.0016315535
233	0xbec11076	-0.3770787
234	0xbe860ae5	-0.26180187
235	0x3e869f56	0.2629344
236	0x3c8e03a5	0.017335722
237	0xbfd30246	-1.6485069
238	0xbf8cb9db	-1.0994219
239	0x3e87cb61	0.26522353
240	0x3ea63949	0.3246558
241	0x3e05f461	0.13081504
242	0xbed2798e	-0.41108364
243	0xbf034bc3	-0.5128748
244	0xbe259fa1	-0.16174175
245	0x3ba1cba1	0.0049376045
246	0xbdb8d408	-0.09024817
247	0xbf587267	-0.84549564
248	0xbe773bd4	-0.24143916
249	0xbe8497cb	-0.2589706
250	0x3c950db0	0.018195003
251	0x3c2f48c4	0.010698501
252	0x3e46b5cb	0.19405286
253	0xbdf1a94e	-0.117998704
254	0x3db98dc1	0.090602405
255	0xbfad18d6	-1.3523204

B1.c3_d.bias f4 [12]
0	0x3e15873a	0.14602366
1	0xbf9bf840	-1.2185135
2	0xbefb431e	-0.49074644
3	0x3dad23af	0.08454072
4	0x3e5f75d0	0.21822286
5	0xbeea37c1	-0.45745662
6	0xbd8b1fb1	-0.06793154
7	0xbeaed858	-0.34149432
8	0x3caca3be	0.021074172
9	0xbf583fff	-0.8447265
10	0x3f04229c	0.5161531
11	0xbf2afff5	-0.6679681
