model_zoo/team13_HannahSR.pth (torch, 335729 bytes, 286 tensors)

fea_conv.eval_conv.bias f4 [24]
00000000: 1467 5b3d a085 1b3c b426 323d 3ca8 073d
00000010: 70a9 94bc 809d 003b a8dc 133c 00dd 59ba
00000020: 8033 63bb c007 17bc 5cc0 963d 0070 1639
00000030: f8b4 d73c 006f f63a 33c0 a9bb b89f 3bbd
00000040: bc16 0f3d 9829 99bc c05d df3b fc34 fabc
00000050: 80a2 7c3b 94a2 73bd fbc1 6abf 10a5 e03c
0.0535651 0.009492308 0.04349394 0.033119425 -0.0181472 0.0019625127 0.0090247765 -0.00083108246
-0.0034668148 -0.009218156 0.073609084 0.00014346838 0.02633141 0.0018801391 -0.0051803826 -0.045806617
0.03493379 -0.018696591 0.006816596 -0.030542843 0.0038549006 -0.05948122 -0.9170224 0.027422458

B1.c1_d.weight f4 [12, 24, 1, 1]
00000000: 1d15 5140 133b f4be fcee 023f cae8 b03f
00000010: 3e2f 27bf 66cf fd3d 8c33 4d3e 96da c7be
00000020: 168f d23f 793a 85be 2ea8 bdbe 0186 7d3f
00000030: 6054 b13f 71ba 823d 41be a7be dea4 313f
00000040: c929 3ebd 13a3 bbbe 09af c3bf 747c 3b3f
00000050: d814 debf bb07 cebe f203 043f be57 58c0
00000060: 694d 213f 7f10 143f 4b43 503f 0f33 003f
00000070: a766 29be b469 12be 8f5c e03e b6fe 043f
00000080: 42ca 133f 6bc6 78bf 33d4 abbe 27d1 e63e
00000090: c713 79be 8a02 53bf aae5 ef3e b096 8ebe
000000a0: 59db e33f b019 9ebc 2988 c1bf 26e7 053d
000000b0: 30f4 c63e dd0a bc3e 9b80 b43d c9f3 c53f
000000c0: defc 48c1 2671 bbbf fbaa d8bd dd2c 8b3f
000000d0: fd99 883f 005e 523f 20af 90be 727d 3140
000000e0: 81d0 a13f 0ddd c53f 6da4 e53e 8766 6fbf
000000f0: 5cd1 413e e0c4 1f3d ef21 d1be ecbb 903d
00000100: 9c58 f63e 30eb 1640 3a42 913f c10d 723f
00000110: 46ac b6c0 3687 bebf ce04 303d 387f 87c0
00000120: 87ed a5bf e69e 42bf 16f5 593e 57e6 d73e
00000130: 85c3 403e 419a f9bc 47af b9be 962a f03d
00000140: f356 be3e f8ab be3d 692b a1be c231 68be
00000150: 6f30 2f3f 3802 ce3f 7466 873e 38e7 a63c
00000160: 0263 143f 2521 4d3e 7448 bd3e 5baf b13b
00000170: 7ae3 abbb a7e8 97bd 62ba 893d 9af3 e6bf
00000180: f554 16bf a70f 9dbf 8225 a3bf 5837 13c0
00000190: d59f 3d3f 3571 943e 93d9 f8bf a85d 20c0
000001a0: 0833 d63d 9a6a c23e 97a3 223e 16bf 81bf
000001b0: 396e d0bf dc5c 2d3f 68fd 463f 6de6 2abd
000001c0: 2dba 75bf 771c 663e e95f 8dbf dfdd 9a3e
000001d0: 33c5 15bf d580 a83f 8c06 a3be 51ae 06bf
000001e0: f090 833e 2037 bb3e a5ef 12be 03c8 53be
000001f0: 3856 d43e 5c76 273d 25f4 ed3e cb61 023c
00000200: dcfb ed3e 8495 033f 7231 d33e 0327 cdbe
00000210: 5f55 17bf 0946 103d 35cd c8be ee0a fc3d
00000220: 9e5f aabe 57f1 d0bc 1cc5 c0be 0c34 8abf
00000230: 2265 60bf c422 86be ea1a 99bc 9098 023e
00000240: 119f bcbe 401c 4bbd b7ed 2ebd b00f f5bc
00000250: 699d 87be 982b 803d 8a99 d7be 6aba cbbd
00000260: 0d14 7e3e cec3 d7be 00b1 85be 6262 9c3f
00000270: 2b5f 063f 4b3a 8d3e 3cb0 41be 963b 22bf
00000280: 4ec1 13bc 639f 9fbd a60d d33d f4c2 a73f
00000290: a010 21be 80c5 77bd 8fd4 13bd 543b 24bd
000002a0: c240 4c3e e582 5c3f a92b adbf 42cb 5e3f
000002b0: e8c5 e83f 6565 bd3e 9d36 a0bf 036f f8bf
000002c0: b111 6bbe a00a c4bd ea4d f7be 9c4d fd3f
000002d0: 8262 cf3d ecf5 533f f685 1ebe b509 803f
000002e0: 0ff3 f13e e025 4fbe 1571 f5bd b4af 31be
000002f0: 50e2 5e40 c927 7abf f305 30bf 6a8f cf3d
00000300: 3b1e 9dc0 7efc b63f dacc 2c3e 4082 68bf
00000310: 65a7 96bf c481 f1be 3f4c f33e 213f 633f
00000320: def6 f63e 29db fb3e a203 073f d049 c7bf
00000330: 4c6b 213f 9ed6 20c0 6d57 abbf 0880 a5be
00000340: 3bd6 53bf ec06 fa3e 0128 873f 7033 5ebe
00000350: 827d 4c3f 4fcc a33f 20e5 bfbd 4a37 5340
00000360: 227f 1940 6c94 763e 2d7d 283f 0362 a13f
00000370: 6a66 423f 78bd cd3d a633 3ebf 06f8 acbe
00000380: 471b 623c f11b 6fbd 0f82 2dbf 2825 823e
00000390: 11a9 f83f a293 fd3f 9e64 7fbf 853f db3e
000003a0: ac06 1040 bac8 75be 8c2d 443e a878 19b9
000003b0: c59a 203f 2917 1ebf 3d1c 913e 6806 50c0
000003c0: bc9c 9e3f a96e 8abe 544d b13f 8ac2 883f
000003d0: bb49 3f3f d1c5 383f ae75 4ebf a540 03c0
000003e0: 52ac 3940 db6b db3e 09eb dbbe 16c6 e83f
000003f0: 032d e6bf 6cf5 8a3f 2b9a 99be edc5 81bf
3.2669137 -0.4770132 0.5114591 1.3821042 -0.6530646 0.12393074 0.20039195 -0.39033955
1.6449916 -0.26021174 -0.37042373 0.990326 1.3853874 0.06383217 -0.3276234 0.6939219
-0.04642657 -0.36647853 -1.5287791 0.73236775 -1.7350111 -0.40240273 0.5156852 -3.3803554
0.63008744 0.5783767 0.8135268 0.5007791 -0.16543065 -0.14298135 0.43820617 0.5195116
0.57730496 -0.9717776 -0.33560333 0.45081446 -0.2432395 -0.8242575 0.46854907 -0.2784934
1.7801315 -0.019299358 -1.5119678 0.032691143 0.38858175 0.36727038 0.08813592 1.5465022
-12.561735 -1.4643905 -0.10579487 1.0873066 1.0671993 0.8217468 -0.2825861 2.7732816
1.2641755 1.5458084 0.4485201 -0.9351582 0.1892752 0.039006114 -0.40846202 0.07067093
0.4811448 2.3581047 1.1348336 0.94552237 -5.7085295 -1.4885013 0.042973332 -4.2342796
-1.2963113 -0.7602371 0.21284899 0.42167923 0.18824585 -0.030469062 -0.36266539 0.117268726
0.37175712 0.09310144 -0.31478432 -0.22675231 0.6843328 1.6094427 0.26445353 0.020373926
0.57963574 0.20032175 0.3696934 0.0054225153 -0.005245623 -0.07417422 0.06725003 -1.8043091
-0.58723384 -1.2270402 -1.2745821 -2.300253 0.7407201 0.2899262 -1.9441398 -2.5057163
0.10458952 0.37971956 0.15882717 -1.013644 -1.6283637 0.6771982 0.7773042 -0.041723657
-0.95987207 0.22471796 -1.1044894 0.302474 -0.5850403 1.3164316 -0.31840932 -0.52609736
0.25696516 0.36565495 -0.1434923 -0.20681767 0.4147203 0.04088436 0.4647533 0.007957886
0.46481216 0.5140002 0.4124866 -0.40068826 -0.5911464 0.03522304 -0.3921906 0.12306772
-0.33276075 -0.025505705 -0.37650383 -1.0797133 -0.87654316 -0.261984 -0.018689591 0.1275351
-0.36840108 -0.04958749 -0.04270717 -0.029914707 -0.26487282 0.06258315 -0.42109329 -0.09947665
0.24812336 -0.42141575 -0.26111603 1.2217524 0.52488965 0.27583537 -0.18914884 -0.6337217
-0.009018255 -0.077940725 0.103053376 1.310637 -0.15728998 -0.060491085 -0.036091384 -0.040095642
0.19946578 0.8613723 -1.3528949 0.87028897 1.8185396 0.3699142 -1.2516667 -1.9408878
-0.22955967 -0.09572339 -0.4830163 1.978931 0.10126211 0.8279712 -0.1548079 1.0002962
0.47255751 -0.20229292 -0.11984459 -0.17352182 3.482563 -0.9771696 -0.6875908 0.10134776
-4.9099402 1.4295805 0.1687502 -0.90823746 -1.1769835 -0.47169316 0.4751911 0.887682
0.4823522 0.49190643 0.5273992 -1.5569401 0.6305435 -2.5130992 -1.3386055 -0.32324243
-0.82748765 0.48833406 1.0559083 -0.2169931 0.7987901 1.2796725 -0.09369874 3.3002496
2.3983846 0.24080056 0.65816003 1.2608036 0.7593752 0.10045904 -0.7429756 -0.33782977
0.013800449 -0.058376256 -0.6777658 0.25418973 1.9426595 1.9810679 -0.99762905 0.428219
2.2504072 -0.24002352 0.19158 -0.00014636165 0.6273616 -0.6175409 0.28341857 -3.250391
1.2391582 -0.27037552 1.3851724 1.0684369 0.7472188 0.72176844 -0.80648315 -2.0508206
2.9011426 0.42855725 -0.42952755 1.8185451 -1.7982486 1.0856147 -0.30000433 -1.0138527

B1.c1_d.bias f4 [12]
00000000: 74f4 683e 494b c13d 8e31 343d a91e 163d
00000010: 6e0c 1d3c 6c62 6bbe fe2e 99be da82 87be
00000020: e6ff be3e 9738 bd3d 604e 353e 48ab 1fbf
0.22749501 0.09438188 0.04399257 0.036650334 0.009585483 -0.22986764 -0.29918665 -0.2646702
0.3730461 0.09239309 0.17705679 -0.6237073

B1.c1_r.pw.weight f4 [24, 24, 1, 1]
00000000: 0845 5240 7860 eb3e ada7 18be 0c6c ab3e
00000010: 9a0c 78bf 1624 33bf bedb 0f3f d591 fd3f
00000020: cbb6 403f 47fd 68bd b95c 1bbf c784 a43e
00000030: 734d c53f 73b4 34bf f631 4cbf a29c 16be
00000040: 1ae9 88bf 873c 04bf f965 9d3f b878 273e
00000050: d60e 093f 6eb6 4abf 5674 953d ee98 8abf
00000060: eba0 25be 9e78 94be 8ff0 b7bf 958f fe3e
00000070: b86b 813f 4ffa babc 13af 8d3e b6cb 653d
00000080: 1cb6 d33e 3927 c6be 685c 283e c35f fe3d
00000090: 2767 113e 181d 863d a0c6 f4be 167d 813d
000000a0: 0fba dabe 8ad6 28bd b6a5 3bbf 438f 3fbf
000000b0: 0164 7bbf c6a8 29be 0b99 29bc c495 b93e
000000c0: 35da fbbe c3ff c0be 1e92 2040 0927 a43f
000000d0: 788e 01bf 73a7 d93f 9c22 2e3f 495b 9fbe
000000e0: caf2 283f 3475 dabe 1552 54c0 d800 debe
000000f0: ea73 09bf b802 56bf 1c09 c2bf 4fdf 873f
00000100: fa9f 6c3f cd35 58bf 60b6 f5bf bd06 493e
00000110: 7243 f4bf 6a0e 07c0 e090 653c 6369 42bf
00000120: cf2b 3840 46da 2e3e 08be dc3c 5132 18bf
00000130: 61cb a0be f164 b6be a131 8fbe a2c8 773c
00000140: ed0b 843f 5424 85be c739 02bf 1db4 b63e
00000150: 0b67 a53f 1289 c93e dab2 e7bc d6b2 ecbd
00000160: 8b02 47be f784 f1be 108e 4e3f 1509 913d
00000170: dec8 0a40 8560 e63e 1fa2 9a3b 8471 a33e
00000180: 75de c23c 4630 523d 8415 90bd 4c95 e23b
00000190: 85ee aebe e03a 713d cdef 9b3d 2b13 11be
000001a0: 3c7c f53c 5718 4ebc 93f5 c53a 0430 c83d
000001b0: 0229 25bb 51ae b0bd 4498 c63c de5b 00bb
000001c0: 9475 03ba 2125 87ba efd1 18be 2674 c43f
000001d0: 2fa0 0f3d 6d91 1d3c 9ae5 133f ce9a 91bf
000001e0: db39 eb3d 2abc 483e 7a47 59bd ff44 1f3e
000001f0: fa3f 6dbf f09a 58bd cf88 d73d 934c dbb9
00000200: 531d c1be 480d 0e3f ba03 7b3e ad1f 893e
00000210: f2c7 b03e 076d f0be 48fc 973f f409 ddbe
00000220: 3422 5a3f 5843 313e c3f7 123e 37b1 5b3f
00000230: 84ba 5e3f ddc6 c63e 24cc 22bc f074 063d
00000240: 66bb 0dbd 46d4 333f ee6b dabe 0489 54be
00000250: 239a 69bf aa0f 9dbd c6a8 733e 07af b9bd
00000260: 308a 3a40 61de b9bd 60d5 c43e 9b77 4ebd
00000270: 45dd 79bf 6540 803e d4ca 69bf 75cc 1a3f
00000280: b8c4 b6be 062c c8bd a48e 5abf 0e6f 67bf
00000290: bc90 81be fd55 bbbe 49e1 293d 9511 d9bd
000002a0: 92f3 5e3e c7cd 7b3d 13e6 cc3c 9278 023e
000002b0: 757f ab3d d2bd 893d 6c3a ed3d 4eca 8f3e
000002c0: 25d3 8dbd 75ec 73bd 37f1 bc3d b5d9 fc3b
000002d0: 1bad 133d 425d 69bd 94c7 933d 2039 c03d
000002e0: 5a86 173d 6e0b 683d aee5 71bd 7da0 c43f
000002f0: 0e2b 0f3d d040 8bbd 9f7f 5cbf 5976 adbf
00000300: 04a7 aebf 9caf 09c0 bded 02c0 ea42 fd3e
00000310: 124d 1b40 2bbf 163f a064 eb3f da65 debd
00000320: fd41 3ec0 f52c 0240 fa7a 05bf 63f7 ec3f
00000330: 4ca8 0640 1626 17bf e3e1 e2bd 32ac 85bf
00000340: 33be 923f 7cda 513e e678 c3be b658 0c40
00000350: c9f6 5ebf 3134 74be 7718 dfbe e2bc 693f
00000360: e659 9d3c 4f9a 88be 7335 db3d a6fa 843d
00000370: adb6 01be 569b a7bd c250 73bd 3365 c8bc
00000380: c375 923d 49a6 3fbf 299a c2bd d519 073e
00000390: 1a10 9abc 53ac c4bd 4ce3 53be daea 913d
000003a0: 6e25 eebe 161d 04be 63d8 823e 9213 5a3f
000003b0: d28a 37be 6310 113e dd1d 4f3e 1785 6b3e
000003c0: 71db 833f e7c6 92be 54bf 91bd f6f2 74be
000003d0: ba28 5f3d 04cf 28be f6b7 a5be ded8 8cbd
000003e0: 637a 083f cc7e 833c f0d0 91be cb57 a0ba
000003f0: 57d3 0a3f 11f9 3dbd 0a97 09bd 2b5f 833f
3.2854633 0.45972037 -0.14907713 0.3348087 -0.9689423 -0.6997694 0.56194675 1.981013
0.7527892 -0.05688217 -0.6068836 0.3213255 1.5414261 -0.70587844 -0.79763734 -0.14708188
-1.0696137 -0.5165486 1.2296745 0.16354644 0.5353826 -0.79184616 0.0729758 -1.082792
-0.16174667 -0.28998274 -1.4370288 0.4971892 1.0110998 -0.022824435 0.27672634 0.056102477
0.41349876 -0.387018 0.164415 0.12420609 0.14199506 0.06548518 -0.4780779 0.063226864
-0.42720076 -0.041220225 -0.7329973 -0.74827975 -0.9819947 -0.16568288 -0.01035143 0.36247075
-0.49189916 -0.3769513 2.5089183 1.2824413 -0.50608015 1.7004226 0.6802156 -0.31124333
0.65995467 -0.42667544 -3.31751 -0.4336002 -0.53692496 -0.835979 -1.515903 1.0615023
0.92431605 -0.84457093 -1.9196281 0.19631477 -1.9083083 -2.1102548 0.014011592 -0.7594206
2.8776739 0.17075452 0.026946083 -0.59451777 -0.31405166 -0.35623887 -0.2796755 0.015123518
1.031614 -0.2600428 -0.5086941 0.3568429 1.2922071 0.3936239 -0.028283525 -0.11557548
-0.19434564 -0.47171757 0.8068552 0.070818104 2.16851 0.44995514 0.0047190334 0.31922543
0.023787716 0.05131557 -0.07035354 0.00691477 -0.3416635 0.05889404 0.07614098 -0.14167468
0.029966466 -0.012579045 0.0015103094 0.09774783 -0.0025201445 -0.08626998 0.024242528 -0.0019586007
-0.0005014774 -0.0010310748 -0.14923833 1.5347946 0.035064872 0.009617192 0.5777222 -1.1375368
0.114856444 0.19603029 -0.05304668 0.15553664 -0.92675745 -0.052882135 0.10524141 -0.00041827987
-0.37717685 0.55489016 0.2451314 0.2678198 0.34527546 -0.4695818 1.1873865 -0.43171656
0.8520844 0.17310846 0.14352326 0.85817283 0.8700335 0.38823596 -0.009936366 0.032826364
-0.034602545 0.7024578 -0.4266047 -0.20755392 -0.9125082 -0.07669003 0.2379485 -0.09066587
2.9146843 -0.090756185 0.38444042 -0.050407033 -0.97603256 0.2504913 -0.91325116 0.60468227
-0.3569696 -0.09774022 -0.853739 -0.9040383 -0.25305736 -0.3658904 0.041474614 -0.10599057
0.21772602 0.06147554 0.025012052 0.12741306 0.0837392 0.067256585 0.11583409 0.28084034
-0.06925038 -0.059551675 0.092256956 0.0077163824 0.036053758 -0.056973703 0.07215801 0.09385896
0.036993362 0.056651525 -0.05905693 1.5361477 0.03495317 -0.067994714 -0.86132234 -1.3551742
-1.3644719 -2.1513433 -2.0457604 0.49465114 2.426579 0.5888545 1.8390083 -0.108592704
-2.9727776 2.033994 -0.5214077 1.8512996 2.104022 -0.5904249 -0.11078241 -1.0443175
1.1464294 0.20493501 -0.38178176 2.1929145 -0.87095314 -0.23848034 -0.43573353 0.9130384
0.019207906 -0.26680228 0.10703554 0.0649312 -0.12667342 -0.08183925 -0.05940319 -0.024462318
0.071513675 -0.74863106 -0.0950206 0.13193448 -0.018806506 -0.09603181 -0.20692176 0.071248725
-0.46512932 -0.1290172 0.25555715 0.8518611 -0.1792405 0.14166407 0.20226236 0.22999988
1.0301343 -0.28667375 -0.07116571 -0.23920807 0.0544822 -0.1648522 -0.32366914 -0.06877302
0.5331175 0.016051672 -0.2847972 -0.0012233196 0.5422873 -0.046380106 -0.033591308 1.0263418

B1.c1_r.dw.weight f4 [24, 1, 3, 3]
00000000: 13ab 113d 02f2 3b3e 3dca 403d 6f0a ee3d
00000010: b3e7 313f 758b fb3d 0b3e 3c3d 9864 2e3e
00000020: 48c8 0a3d 2632 fb3c c49e ec3f 47da bb3d
00000030: 1718 cc3e 64fa 91bf 4fc2 93bd 90e9 1f3e
00000040: 8c79 a5bf a4c6 593d 74b0 1c3f 0c74 0640
00000050: 02de 3fbd 2943 da3f c2f7 6fbf a30e fabf
00000060: ca80 a13d 23ed bebf 31b9 2dbd bbd8 91bd
00000070: 4d12 27be 40cd 9ebd d52c 0ebe 93e0 2ebf
00000080: 226d 13be 0d4e 9ebd 4d52 1cbe 0266 8bbd
00000090: 4489 3cbc e309 913c c93b 48bc e2ac 8e3c
000000a0: a360 fd3f 9f63 943c 44fb 5fbc bbcc ad3c
000000b0: 82bf 43bc 0825 47be 15b0 7e3f af5f 11be
000000c0: 4a60 dc3f fa34 4c3f 1a8d 07c0 8bac 41be
000000d0: d922 26bf d0c1 aabe 28ec c03d 9dbc c1bf
000000e0: 315e 14bb 791f d03f ad60 a1be 2156 c3bf
000000f0: daba db3e 1961 813f 151e 8a3e 6253 2fbb
00000100: ecb1 1bbc 438c bf3b fb7a 2abc 016d 26c0
00000110: 6206 61bc fa9f 063b 955d 47bc e5f6 9b3a
00000120: adac 45bd 9244 793d 05ee acbd 6341 3c3d
00000130: dcb3 43c0 3b6c 9d3e 49b9 9cbd 7de9 4c40
00000140: c55b b3be 0a56 c4bc 3239 803d 3da4 c5bc
00000150: 82ff 873d 1307 9e3f e5f9 863d c707 7cbc
00000160: bcd3 923d b31b 09bd fc66 1fbd e1c4 fbbd
00000170: dce1 7abd fc9c f2bd 018d 3c40 83ed 26be
00000180: 2ead f9bc 89c4 edbd 8975 74bd 47b4 bb3b
00000190: dfd1 15bd 4d13 163c 9c9b 2ebd 2c4a 46c0
000001a0: 456b 20bd cf8e cb3b 9301 14bd a086 5d3b
000001b0: 0b67 813e 05af 3d3f 9af5 a03e 83f7 3c3f
000001c0: 61e2 7cc0 6f20 343f 8d2c 8d3e 3612 4b3f
000001d0: 88e2 803e 85af 4f3e 6826 513f 9b7d bd3e
000001e0: da66 4a3f f84d 8fc0 1d71 443f 7316 b73e
000001f0: 9814 713f e67a c13e e929 41bc 9476 e8bc
00000200: 6d22 b3bb 0c8b 87bc a4ed aabf b48d 48bc
00000210: ccb9 96bb 7d86 b0bc 2576 8abc f1ba 5db9
00000220: f757 2ab9 f896 21bc 5d7a 2d3c d76c db3f
00000230: 36b7 b53b 50b4 68bc 6837 23bc 2089 1cbc
00000240: 2266 53be 364a 24bf 4b32 77be 2862 1bbf
00000250: 3428 6340 315f 1fbf e587 87be f31d 1fbf
00000260: fcd5 7bbe 951f 95bc d010 ea3d a5cd 93bc
00000270: 4cfa 9e3d abef d93f e1c3 b83d bf88 eabc
00000280: 576d 6e3d 6750 a5bc 8112 b7bd 41ea 143f
00000290: bd94 1fbd b29c 203f a61f 16c0 abc2 1f3f
000002a0: acc1 d1bc 0ea2 3e3f 60dd 58bd b3ea 793e
000002b0: 09bb 073f 17ea 673e ab9b e53e 2971 0dc0
000002c0: 7a50 db3e 5426 803e f15b ca3e 634d 7b3e
000002d0: 5d28 1e3e be54 2f3f e781 443e 7df2 283f
000002e0: 0ce7 5fc0 ab8b 2b3f 9768 433e 220b 2d3f
000002f0: de02 483e e7ad b0bd 2263 863e 9a71 363e
00000300: cbe6 633e 0c5e 7abf 7f9b 723e 299a 303e
00000310: 060d 903e eb44 99bd 3651 123f f1d9 5e3e
00000320: 169a 053f 4143 433e fd4e 3fc0 4532 443e
00000330: e312 143f 9546 373e 52ff 093f 0cf4 1b3d
00000340: 3bef 0a3e c558 d9bd 5ce7 ae3d ae2b 32be
00000350: 89ba bb3d 1b82 28be 523e 1d3d 82ac c03c
0.03556354 0.18354037 0.04706787 0.11623084 0.6949417 0.12282459 0.045957606 0.17030561
0.03388241 0.030663561 1.8485951 0.091724925 0.3986213 -1.1404538 -0.07214796 0.15616441
-1.2927718 0.053167954 0.61206746 2.100833 -0.046842583 1.7051746 -0.93737423 -1.9535717
0.07885893 -1.4916118 -0.04241294 -0.07121416 -0.16315575 -0.07753992 -0.1388429 -0.68311423
-0.143971 -0.07729731 -0.1526577 -0.06806566 -0.011507336 0.01770491 -0.012221285 0.017416421
1.9795116 0.01811391 -0.013670746 0.021215787 -0.0119475145 -0.1944772 0.9948743 -0.14196657
1.7216885 0.79768336 -2.1179872 -0.18913476 -0.64896923 -0.33350992 0.09420043 -1.5135685
-0.002263915 1.6259605 -0.3151907 -1.526066 0.42915994 1.0107757 0.26976076 -0.002675258
-0.009502869 0.005845578 -0.010405297 -2.600403 -0.013734432 0.002054213 -0.012168308 0.0011899142
-0.04826038 0.06085641 -0.08443836 0.045960795 -3.0578527 0.30746636 -0.07652528 3.201751
-0.35030952 -0.023966808 0.06260909 -0.024126166 0.06640531 1.2345909 0.06590632 -0.015382714
0.071692914 -0.03347368 -0.038916573 -0.12293411 -0.061250553 -0.11846349 2.9461062 -0.16301541
-0.030478086 -0.11609752 -0.059682403 0.005728278 -0.0365771 0.009159875 -0.04262887 -3.098277
-0.0391648 0.0062120925 -0.036134314 0.0033802167 0.25273928 0.74095184 0.3143738 0.7381517
-3.951317 0.7036199 0.27573052 0.7932466 0.2517283 0.20281799 0.8169923 0.37009892
0.7906319 -4.4782677 0.767351 0.35759315 0.9417205 0.37789077 -0.011789777 -0.028376855
-0.0054667504 -0.016545795 -1.3353772 -0.012240816 -0.0045997854 -0.021548504 -0.016902039 -0.00021145843
-0.00016245233 -0.009862654 0.010588256 1.714259 0.005545522 -0.014203146 -0.00996194 -0.0095541775
-0.2064443 -0.64175737 -0.24140279 -0.6069665 3.5493288 -0.62254626 -0.26470867 -0.62155074
-0.24593347 -0.018203536 0.11428988 -0.018042395 0.07762584 1.7026266 0.09021736 -0.028629659
0.058209743 -0.02017994 -0.08939076 0.58169943 -0.038960207 0.627391 -2.3456817 0.62406415
-0.025605045 0.74466026 -0.052945495 0.24405937 0.5301977 0.22647892 0.44845328 -2.2100317
0.42834836 0.25029242 0.3952327 0.2454124 0.15445085 0.6848868 0.19190179 0.6599501
-3.498477 0.6700999 0.19082867 0.6759511 0.19532344 -0.08626919 0.26247507 0.17816773
0.2225601 -0.97799754 0.2369213 0.17246307 0.28134936 -0.07483848 0.5715517 0.21762826
0.5218824 0.19068624 -2.989196 0.19159801 0.5784132 0.17898019 0.5390521 0.038074538
0.13567822 -0.106126346 0.08540222 -0.17399475 0.09166438 -0.16455881 0.03838951 0.023519758

B1.c1_r.dw.bias f4 [24]
00000000: 0b7f 733d cbfc 6fbe ea54 37bf dbcf a63c
00000010: 1649 9abe e0d5 56be 2bb5 5ebe 4db1 22bf
00000020: 8865 34bf 352b 073e 5389 4b3e 821e 7fbf
00000030: 4b80 923e 0541 dabc 3eac 38bf a156 33bf
00000040: bfbc d1bc e49b 233d 05a1 383d 8d86 cf3d
00000050: 3d64 643e 527a b93d 1426 733f 8aa9 0c3d
0.05944733 -0.23436277 -0.71613944 0.020362785 -0.30133885 -0.20980024 -0.21748798 -0.6355179
-0.70467424 0.13200076 0.19876604 -0.99655926 0.28613505 -0.026642332 -0.7213782 -0.7005406
-0.025602696 0.03994359 0.045075435 0.101330854 0.22303863 0.09056534 0.9497998 0.034341373

B1.c2_d.weight f4 [12, 24, 1, 1]
00000000: 60dc 6bc0 bea8 cd3d c722 343e 62c3 26be
00000010: ef5f 34be f349 543d 9580 7d3d d2c0 2abf
00000020: f2ad 1e3c 9890 633f 1c98 abbf fc09 c1be
00000030: 015e 28bd 3be4 f03c 8489 4040 22e6 ce3f
00000040: 6564 133e 2385 59bf 4403 cabb bd3e c73d
00000050: 0489 85bf 851a 83bf 8c0b dcbc 7a3a 53c0
00000060: 90e5 4cbe 532f 7dbd 7450 abbb 52c3 5bbb
00000070: 9c69 c43d 3ce6 cbbc ed1f ccbc 80f8 8fbd
00000080: 632e fabb e0e8 323f dd9a 83bd 4b39 5c3d
00000090: 5a31 1dbc 7608 bc3b 78b7 8c40 862a 8c3f
000000a0: b179 92bb 7f22 c9bd 2705 eebd e54e 343d
000000b0: 4f8b 013b 0f53 acbd 2e31 1fbe a0cc 4dbf
000000c0: a05f a3bc 3592 03be c785 8fbd ba39 103e
000000d0: 50d1 0abd fe3a 66bd 6a0f 5bbd f2d0 bebd
000000e0: ec7d 5eba 1285 fb3e b345 a6bd 97ea 1cbf
000000f0: 12a8 26bd 831f 353c c638 31bf ff58 7e40
00000100: 9dcb 4cbd 5ad9 913e 264f b4bd aa11 2d3d
00000110: 4933 a33c fc8e 1b3f c0fe 78be c378 debf
00000120: c9c9 13bd 3f14 35bc 520e f9bd 0bb3 533c
00000130: c472 f0be f7f1 eb3b d476 dcbb 8f7b 34bd
00000140: 2e67 853c 00ab 9bbf 4131 b3bc f2a3 93bf
00000150: 36fa aabd 8474 22bc 01da b4bd e6c1 df3e
00000160: 2521 703c d2ca 79bf db23 64bf c1ae 313d
00000170: 48f1 fcbc da86 8ebe f600 5dbf 663c d9bd
00000180: 86a9 893e 9e0c d0bd da1a 0f3e 16fb debe
00000190: 9274 33bf 629d 8bbd 3051 68bd fb53 093c
000001a0: ce26 4c3b 4b83 82bf 769e 6c3a c1ec 9f3e
000001b0: 3528 9ebe 1706 2fbd 48cb 06be fd0e dfbf
000001c0: fe76 943c 0222 fabe f0f9 06be 2f23 213d
000001d0: 95ed 92be cc53 3dbf 916d 10be b304 6f3f
000001e0: f5a4 b6bd eb4c d1bc 1a94 8abd 5eb7 3fbe
000001f0: c038 e9be a8f7 a63b 62ea 1fbc a88e 833e
00000200: fc98 c73b b213 b5bd eaea 6d3d dae5 eb40
00000210: 7c5d 1ebc fab1 923b 8c0e db3e 85b2 a040
00000220: ee90 67bc a96c 41bf b946 69be 2a81 ba3d
00000230: 75cc 9e3d 2948 0bbf ce2c 423e 7c87 8f3f
00000240: b7cf cc3c c47b 803e 1392 42bd 20cf f43a
00000250: 96d4 ae3d a930 0a3e 5406 ef3d 6f8d 383d
00000260: bd7b 353c fed3 9bbf 1019 093c 7b68 d1bd
00000270: 9699 edbb 99a0 f33b d6e4 273e b2c3 b3be
00000280: 7216 1e3d 5f58 fe3e aa9b 46bf a212 e83d
00000290: b6d5 07bd c511 8d3e da4c 74bf 5c92 183e
000002a0: cf63 68be 63de 193b d404 aa3b 5345 793e
000002b0: 8b29 38be 5ac8 13bd 14cc 4fbc d182 753e
000002c0: 4342 afbc 178c 883f 1ac2 603d 04c6 963d
000002d0: 1ff6 c9bd aa9d c23b 035c 1d3f 243e 1d3c
000002e0: 4289 293e 7955 183f e06c 2f3e 0862 50be
000002f0: 5db3 2abe 824a b9be af5b 41be 5eb4 a83f
00000300: 966c 49bc 9c67 223d 216e df3d 3639 e1bd
00000310: fe2e 4440 f0f2 1c3c 3d3d 823b 0aa3 45be
00000320: b938 2bbb 1916 97be af88 dfbd 4702 d1bd
00000330: c884 eebc 7b00 243c ebf7 09bf ce99 db3f
00000340: 77ca e03c 04df a23e a1f7 21be f493 b2bd
00000350: 2964 2abc 32cb d43d ea15 94bd 310e 7ac0
00000360: 3f20 553d 80bc 9abc 17ef c03d 073a e9bd
00000370: b516 33be cd04 97bd e321 6fbd aa8c c03e
00000380: 0734 7abc b090 bfbe f24d 083d 6c41 87bf
00000390: 208c 94bd 98a0 64bd 5a0b 4bbe 7aa1 383f
000003a0: 1393 7abd 10d9 673f 5b28 f9be 7610 95be
000003b0: c038 103c e107 823f 963d d6be b211 37bf
000003c0: 7abd 283e fb0a 29bd b649 82bd 2a27 f73d
000003d0: 9b76 cdbd 9a5f 6fbd 589e fdbc 55e0 95bd
000003e0: 2c75 dbbb d9cd 45be 10ff 0abd be76 ecbf
000003f0: d297 723d a4b9 11bc 6063 0cbe f7df d2bf
-3.6853256 0.10041951 0.17591392 -0.1628547 -0.17614721 0.051828336 0.061890204 -0.6670047
0.0096850265 0.8889251 -1.3405795 -0.3770293 -0.041105274 0.029405704 3.0083933 1.6163981
0.14393766 -0.84968776 -0.00616494 0.09728763 -1.0432439 -1.0242468 -0.026860975 -3.3004441
-0.20009446 -0.06181271 -0.0052280966 -0.0033533168 0.09590456 -0.024890058 -0.024917567 -0.070298195
-0.0076349243 0.6988659 -0.06426022 0.053765576 -0.009594286 0.0057383133 4.397396 1.0950477
-0.004470073 -0.09821033 -0.116220765 0.044020552 0.0019766872 -0.0841428 -0.15546104 -0.8039036
-0.019943058 -0.12848742 -0.07007938 0.14084521 -0.033891022 -0.056208603 -0.053481497 -0.09317197
-0.0008487392 0.49124962 -0.08118763 -0.61295456 -0.040687628 0.011054876 -0.69227254 3.974182
-0.04999887 0.2848614 -0.08804159 0.042253174 0.019921916 0.6076505 -0.2431593 -1.7380604
-0.03608111 -0.01105219 -0.121609345 0.012921105 -0.4696256 0.0072004753 -0.0067280326 -0.044063147
0.016284551 -1.216156 -0.021874072 -1.1534407 -0.08348505 -0.009915475 -0.088306434 0.4370262
0.01465634 -0.97575104 -0.8911721 0.04337955 -0.03087677 -0.2783726 -0.8632959 -0.10607223
0.2688715 -0.101586565 0.13975087 -0.43550938 -0.7009975 -0.06817128 -0.05671805 0.008381839
0.003115106 -1.0196317 0.0009026298 0.31235316 -0.3089005 -0.042730417 -0.13163483 -1.7426449
0.018123146 -0.4885407 -0.13181281 0.039340194 -0.28696886 -0.7395599 -0.14104296 0.93366545
-0.08918182 -0.025549373 -0.067665294 -0.18722293 -0.4555111 0.005095441 -0.009760471 0.25694776
0.006091235 -0.08841647 0.05808536 7.371808 -0.009665843 0.004476783 0.42784536 5.021792
-0.014133675 -0.7555643 -0.22780885 0.09106667 0.07753841 -0.5440698 0.18962404 1.1213222
0.02500139 0.25094426 -0.04750259 0.0018677451 0.08536641 0.13495125 0.11671129 0.045056757
0.011076865 -1.217407 0.008367792 -0.10225006 -0.007250975 0.007434916 0.16395888 -0.3511024
0.038595624 0.49676797 -0.77581275 0.11331679 -0.033162795 0.2755262 -0.95429766 0.14899582
-0.22694324 0.00234785 0.005188564 0.24342851 -0.17984597 -0.036079742 -0.012682933 0.23975684
-0.0213939 1.0667752 0.05487261 0.07361987 -0.09861397 0.005939205 0.61468524 0.009597335
0.16556266 0.5950542 0.17131376 -0.20349896 -0.16669984 -0.36189657 -0.18882631 1.3180044
-0.012293955 0.03964959 0.10909677 -0.1099724 3.0653682 0.009579405 0.0039745853 -0.19300476
-0.0026126339 -0.29509047 -0.10914742 -0.102055125 -0.02911605 0.01000988 -0.5389392 1.7156312
0.027440293 0.31810772 -0.15817119 -0.08719626 -0.010399857 0.10390319 -0.07230742 -3.9071162
0.052032705 -0.018888712 0.09420603 -0.11388021 -0.17489131 -0.073739626 -0.058381926 0.37607318
-0.015271193 -0.37415075 0.03327746 -1.056684 -0.07253289 -0.055817217 -0.19828549 0.72121394
-0.061175417 0.90565586 -0.486636 -0.2911412 0.008802593 1.0158654 -0.4184386 -0.71511376
0.1647853 -0.041270237 -0.063617155 0.12068017 -0.10032388 -0.058440782 -0.030959293 -0.073181786
-0.0066973176 -0.19316806 -0.033934653 -1.8473737 0.05922682 -0.008894358 -0.13709784 -1.6474599

B1.c2_d.bias f4 [12]
00000000: e78d 643f 8f37 953e 2bcd 023d 2bef eebe
00000010: d682 4cbe 4c71 40bf f438 023d 6466 043d
00000020: e630 233e e6f2 b63d d941 1bbd 7228 5abf
0.89279026 0.2914395 0.031933945 -0.46666846 -0.19971785 -0.7517288 0.031792596 0.03232421
0.15936622 0.08933048 -0.037904594 -0.85217965

B1.c2_r.pw.weight f4 [24, 24, 1, 1]
00000000: 31ce 44bf a042 0bc0 7b00 8fbf 4e9d 41bd
00000010: 099e d83d 513f 8cbf cca3 8fbf 64bd 203e
00000020: 6209 10be 0add 74be 2b02 79bc 682a f93b
00000030: 7872 4bbd 23dc 29bd b392 8dbd 2b66 b63e
00000040: fd91 91bd fda1 913e d265 dfbf 85e0 d13d
00000050: d04d ebbc 45cf 79be 9597 36c0 85f0 55bd
00000060: 7fe3 0abc a999 883f c366 983d 2a78 03bb
00000070: eb06 8a3d 01ef c4bd f3cd 88bd 1cc0 ed3d
00000080: c35d afbb eaf9 aa3e c42f 9ebb 79c6 2d3e
00000090: 443f 563e 6933 823d 8fb7 d53e 8b71 adbe
000000a0: 1f53 783d 784c 2e3d 7e88 c53e 3b23 2640
000000b0: bb8d a0bc 4b34 123f e018 1640 3a52 db3c
000000c0: d0f9 903d 0771 db3d 7fd2 ba3f 50c0 d33d
000000d0: 407d 84bf e62a 6d3d 7e1a 453d 79e8 923f
000000e0: fe3f 353c efb6 d5bf c3ad 0e3e ee35 20bf
000000f0: 1bc8 0ebc ba4f 71bc c0b2 5ec0 0984 2ebf
00000100: 1e30 d7bd 7708 dcbe 2247 3cbe 47b6 53bc
00000110: 4f6b 403d b1cd aabf bd4b 043e 6605 2db8
00000120: 5962 b73c cc6c 673d e0ca 32bf 0749 90bf
00000130: aed6 313e d563 e03d eeb4 ca3d 0eba bc3d
00000140: 9b71 a33c 194c 1a3e 1a8f cb3c 73a3 92be
00000150: b468 74be 1588 3ebe 08f1 153c 0799 453f
00000160: 89e2 eabd e929 2f3f 4036 513f 05b6 e63e
00000170: 478d 73be e8e6 c33f df1b bebd 3663 093e
00000180: c6e6 283d d05e 24bc 2d7c 123c 64ec 68bd
00000190: 8bb9 9e40 6202 e03a d61d 9cbb 1883 b440
000001a0: 902e b03b 4e3f 1f3f 7bdf 963d bd5f b4bd
000001b0: 21e2 b03c 9b85 66bb ead8 8f3e 1fa2 4c3d
000001c0: a264 7d3c e20e d0bc eb4d b8be 44a3 35bb
000001d0: 1596 ea3c 491d 633c de80 203e 6051 efbf
000001e0: 049d 56bd 1aab 73be 4334 83bc 689a 8e3e
000001f0: 7464 93be e5ff 1cbd 9715 c6bd 3fb1 3f3e
00000200: bdaa a7bd 9120 adc0 9450 1d3e bd30 d1be
00000210: 4a3f 89bc f599 c33a eccb b5be d7bf 3f3f
00000220: 6b37 2a3d 259c 6740 118b cf3e 2433 b33d
00000230: df5d 3937 aa40 fd3c 9133 88be e2cc 503e
00000240: b94f eebc 23b2 26be 432c 9abf 8028 063e
00000250: 5c38 9dbd a1b8 a6bd 13f7 7dbf 63cb abbe
00000260: e74f aabc 1bce 73bf ead5 b93d 5dc3 253e
00000270: 17d0 1e3e 57df c4bf eea2 563f f0e6 f83e
00000280: 8e14 9dbe e839 0fbf 56fd 09be b0be 1bbe
00000290: 1d03 2cbe d388 2e40 6818 02bf 197f debf
000002a0: b701 a83e 7010 48bd bc1d 87bc 3757 0abf
000002b0: 23eb 9c3f d89d b9bb 13a3 72bd 1ffa 37bf
000002c0: 387c 11bc 1de9 b2bf 7fdc 7c3e afd6 4a3d
000002d0: b7a6 fabd dd3c 6e3c 4acf 03c0 1ec2 a8be
000002e0: 58cd 2cbe e684 d3be 0478 213d 3af8 973b
000002f0: 09a6 cd3d 6288 47bf d7d0 43be 3899 50c0
00000300: ee55 b0bc 6a34 983f 19f2 903e 18b4 0fbb
00000310: 46c3 b5bd 5528 263f 6205 1b3f 4b34 543e
00000320: e2a0 80bf ee35 86be 9a8a a03c d8e1 d5bb
00000330: a151 bf3c bb67 0f3d cb21 67be 4116 e73e
00000340: c8e0 f53d 88c3 443e dfb1 b33f 71df 41be
00000350: 4362 67be ca9e 48bf 4ca4 533f 6e5f cbbe
00000360: 4573 bcbd 9fb7 40be a18a 7d3a 5c77 93bd
00000370: 44ae f7be d659 b8bd e62f b1bd cc7b 14be
00000380: 5757 41bc c7a6 75bf 1ef2 a8bd cf60 25bf
00000390: ea89 82bc e8a1 20bb 2cc4 52bd f117 ae3f
000003a0: 7716 773d 5436 7dbd dbc7 b43f 1a5f 4dbe
000003b0: dadd b6bc d6a1 a73e 2e37 393f 2ceb 90bf
000003c0: a14d 813c b0cf d53d 594c 6fbe b5ba 6a3d
000003d0: 1826 a23f f948 b53d ba53 9a3d 5862 4cbf
000003e0: d6fa a23c cbee 97be 8cc2 26bf 69d3 dcbe
000003f0: e87d 0f3e 7545 9abd e2ff cc3d 6f34 ae3f
-0.76877123 -2.1759415 -1.1172022 -0.047269158 0.10577018 -1.0956823 -1.1221862 0.15697247
-0.1406608 -0.23912445 -0.015198271 0.007603932 -0.049669713 -0.041469704 -0.06912746 0.35624823
-0.07107923 0.284439 -1.7452948 0.10247902 -0.028723627 -0.24395473 -2.8530018 -0.05223133
-0.008477091 1.0671893 0.07441475 -0.0020060637 0.06739601 -0.09615899 -0.06679907 0.116089076
-0.0053517534 0.33393794 -0.0048274714 0.16970243 0.20922571 0.06357462 0.41741607 -0.3387569
0.060626145 0.042553395 0.38580698 2.5959003 -0.019598832 0.5711104 2.3452682 0.026772607
0.07078898 0.10714918 1.4595488 0.10339415 -1.0350723 0.05790224 0.048120968 1.1477195
0.01106262 -1.6696452 0.13933472 -0.6258229 -0.008714701 -0.014728481 -3.47966 -0.6817022
-0.105072245 -0.42975208 -0.1838651 -0.012921876 0.046977337 -1.3344022 0.12919517 -4.1251442e-05
0.022385763 0.05650024 -0.6984081 -1.1272286 0.1736705 0.109565414 0.09897791 0.092151746
0.019951632 0.15068091 0.02484851 -0.28640327 -0.23868066 -0.18606599 0.009151705 0.77186626
-0.114689894 0.68423325 0.81723404 0.45060745 -0.23784362 1.5304842 -0.0928266 0.13416752
0.041235708 -0.010032371 0.008940739 -0.056866065 4.9601493 0.0017090554 -0.004764299 5.6410027
0.0053766444 0.6220597 0.07366844 -0.08807323 0.021592202 -0.003517485 0.2809518 0.0499593
0.015465887 -0.025397722 -0.35996947 -0.0027715722 0.028636018 0.013861963 0.15674159 -1.8696709
-0.052395836 -0.23795739 -0.016016131 0.27852178 -0.28787577 -0.038329978 -0.09672087 0.18719958
-0.081868626 -5.4102254 0.1536277 -0.40857497 -0.016753811 0.0014923202 -0.35507143 0.749021
0.041556757 3.6189053 0.40535787 0.08749989 1.1048715e-05 0.030914623 -0.26601842 0.20390657
-0.02909075 -0.16278891 -1.2044758 0.13101387 -0.07676765 -0.08140684 -0.9920513 -0.3355361
-0.020790054 -0.95236367 0.09074004 0.16187806 0.15509067 -1.5380658 0.8384236 0.4861369
-0.30679744 -0.5594773 -0.13475546 -0.1520946 -0.16798063 2.727101 -0.5081849 -1.7382537
0.32813808 -0.0488438 -0.01649367 -0.5403933 1.2259258 -0.0056645684 -0.05923755 -0.7186603
-0.008879714 -1.397739 0.24693488 0.049521144 -0.122388296 0.014540878 -2.059527 -0.329606
-0.16875207 -0.4131233 0.039421096 0.004637745 0.10041434 -0.7794248 -0.19122635 -3.2593517
-0.02152535 1.1890996 0.28309706 -0.0021927413 -0.08875136 0.6490529 0.6055509 0.20723073
-1.0049098 -0.2621302 0.01959734 -0.006527167 0.023354353 0.035011034 -0.22571485 0.45134166
0.12005764 0.19215214 1.4038657 -0.18932892 -0.22596078 -0.7836729 0.8267257 -0.39721245
-0.092016734 -0.18820046 0.00096718414 -0.072005 -0.48375142 -0.0900151 -0.08651714 -0.1450035
-0.011800609 -0.9595761 -0.08249305 -0.64600843 -0.015934903 -0.0024510566 -0.051456615 1.3601056
0.06032416 -0.06181939 1.4123491 -0.2005581 -0.022322584 0.3274066 0.7234982 -1.1321769
0.015784087 0.10440004 -0.23368968 0.057306964 1.2667875 0.08851809 0.07535501 -0.7983756
0.019894999 -0.29674372 -0.65140605 -0.43130043 0.14012873 -0.07532779 0.10009743 1.3609751

B1.c2_r.dw.weight f4 [24, 1, 3, 3]
00000000: bce9 d83c d02d dd3d bbb2 fb3c af05 fa3d
00000010: e0ed 2c3f b460 f43d fdf4 573c ab87 1d3e
00000020: aa0e 8c3b 1ece b9bc 1e5e 89bd b73d bdbc
00000030: 40ac b9bd 9825 a9be 228b b6bd 3b80 babc
00000040: a363 e7bd c627 3fbc ad52 e83a 5a49 1d3d
00000050: a65f 0b3c f8a8 243d c080 56bf 350f 3b3d
00000060: 0fb5 9a3b a8b3 103d 5ad4 19bc 8ebf 5c3d
00000070: 7a47 023e 062d 6b3d 8929 073e 5441 db3d
00000080: 6b37 063e 46fc 693d ab9a eb3d 813f 633d
00000090: 61d5 c93c f231 253d 7a30 143d 3cc7 193d
000000a0: f3e8 7040 df53 2c3d a8b5 ed3c 1815 2c3d
000000b0: 7c81 b93c 471b 1abe 3436 ee3f 89f6 623e
000000c0: ae7a c4bf dd3f dc3d 317c 14c0 8e63 903d
000000d0: e986 b23f f277 a73e 2888 0c3d dc71 bd3d
000000e0: 34ef 2d3d 0f73 aa3d 91e9 6e3f 4eea c03d
000000f0: 5d03 183d 1a3d c63d 77d1 f63c 2510 fe3c
00000100: 3664 f83d 1d90 093d 4d6e e13d bfd6 03bf
00000110: 43f4 ee3d 1ebc f63c 190e e13d 4868 943c
00000120: f32e afbc fc67 4e3c f42a a6bc b7dd d3bc
00000130: 596c 763f 0385 dbbc 9ed5 253b 7394 783c
00000140: 3eb1 ba3b 9696 26bb 6995 653d 32b2 3f3c
00000150: e56b 8a3d 6326 35bf 298b 913d 2b64 553c
00000160: 175c 793d d770 4bbc 945d bb3c 3a64 ed3d
00000170: 81f7 cd3c 9f8e e43d 3850 b53f 9b90 013e
00000180: 2323 023d ee59 c73d 6dca 933c 8c49 9f3e
00000190: 3483 b7be eae7 fabc 9a7d 27c0 33c2 2d40
000001a0: e4df 783d c9b4 913e a960 a7be d501 27bc
000001b0: bbc8 debc 4619 9bbd f7a0 f5bc 115a a0bd
000001c0: 73b7 42bf 2930 9ebd f090 d9bc 491c 95bd
000001d0: d032 e8bc e2b0 61bd e162 70bd b35f 4bbd
000001e0: 3eb9 6bbd 9368 21bf cd40 6cbd 76c1 31bd
000001f0: 68a3 4bbd 9da2 3cbd 055c 63bd c281 6ebd
00000200: d6c7 66bd 2a4a 5bbd acc7 493c e413 63bd
00000210: 3122 57bd 8d74 56bd 9b70 67bd 2391 b2bb
00000220: 20f5 b63c 9144 43ba d19a c03b ccf1 123f
00000230: 7f1b 413b 46d2 52bb bad9 7b3c a411 0abc
00000240: e68d 9b3d 1339 47bd 7929 b83d 74d1 44bd
00000250: a512 ad3f 9c2d ad3f 596f 50bd 384f 58c0
00000260: a1aa 233f c78e 20bd 8257 dabd cc73 9abc
00000270: 8c95 ecbd 6de9 83bf 0bb2 ffbd 286b dfbc
00000280: 6433 31bd a81b 2abd 1f80 903d 16df 443e
00000290: 976c 953d cf96 343e 56e7 84bf d558 3a3e
000002a0: f0eb 913d 122f 4e3e 12db 813d 39bc 01be
000002b0: d2bb 58be 49bf fdbd de84 69be f74d b83f
000002c0: 1806 66be 0aa7 f8bd dfcc 48be 0cf0 fabd
000002d0: bbe8 d93c 93f3 083f ee59 423d 0e87 f63d
000002e0: 8a24 0e40 22f7 553e 7f5d 14bb 7fdf e6bb
000002f0: 7f1f edba 8a38 6ebd c053 cfbd 54c9 47bd
00000300: 3fa4 c7bd 89c2 e33c 161f c1bd a64d 40bd
00000310: 828d b7bd f675 56bd b32a 843d 8f74 4e3e
00000320: 354d d33c a21f 2e3e 4ed6 54be 4175 6a3e
00000330: 6fd8 6d3d aa03 563e d688 e83c c2b3 d6bd
00000340: df02 1dbe ff5f b6bd 84cf 21be 62ad 0c3e
00000350: d368 2cbe a620 b3bd 3294 0bbe 60a1 bcbd
0.02647864 0.10799754 0.030724874 0.12208115 0.6755047 0.11932507 0.013180968 0.15383784
0.004274209 -0.022681292 -0.067074046 -0.023100717 -0.09066057 -0.33036494 -0.08913256 -0.022766223
-0.11298301 -0.011667198 0.0017724835 0.03840003 0.008506691 0.040200204 -0.83790207 0.0456688
0.004721291 0.035327584 -0.009389007 0.05389362 0.12722579 0.057415985 0.13199438 0.1070582
0.13107078 0.057125352 0.1150411 0.055480484 0.02463788 0.040330835 0.036179043 0.03754352
3.764218 0.042072173 0.029017285 0.042012304 0.02264475 -0.15049468 1.8610291 0.22164358
-1.5349939 0.107543685 -2.32008 0.070502385 1.3947421 0.327087 0.034309536 0.092502326
0.04246445 0.08322727 0.93325144 0.0941969 0.037112582 0.09679623 0.030129177 0.031013558
0.12128489 0.033584703 0.11007366 -0.5149955 0.11667683 0.030118998 0.10989017 0.018116131
-0.021384692 0.012598034 -0.020284154 -0.025862558 0.96259075 -0.026796823 0.0025304328 0.015172112
0.0056973984 -0.0025419346 0.05605069 0.0117002 0.067588605 -0.707617 0.07106621 0.01302437
0.06087884 -0.01241704 0.02287177 0.11591382 0.025142433 0.11160015 1.4165106 0.12652819
0.03177179 0.097339496 0.01804086 0.311108 -0.35842288 -0.030628163 -2.617041 2.714978
0.060760394 0.2845824 -0.32690933 -0.010193308 -0.027195325 -0.0757318 -0.02998398 -0.07829679
-0.7606117 -0.077240296 -0.02655837 -0.072807856 -0.028344542 -0.05510033 -0.05868805 -0.049651813
-0.057549708 -0.6305019 -0.057678986 -0.04339739 -0.049716383 -0.046053518 -0.05550768 -0.058229215
-0.056342922 -0.053537525 0.012315672 -0.05543889 -0.05252284 -0.052357245 -0.056503873 -0.0054494306
0.022333682 -0.0007448877 0.0058778306 0.574002 0.0029465852 -0.003216879 0.015371734 -0.008427057
0.07595424 -0.048638415 0.08992285 -0.048051313 1.3521315 1.3529544 -0.05088744 -3.3798351
0.63932234 -0.039198663 -0.10661222 -0.018854044 -0.11551961 -1.0305611 -0.12485131 -0.027272776
-0.0432619 -0.04153028 0.07055687 0.19225726 0.072961025 0.17635654 -1.0383098 0.18197949
0.0712508 0.20135143 0.063406125 -0.12669457 -0.21165398 -0.123900004 -0.22804591 1.4398793
-0.22463262 -0.12141235 -0.19609402 -0.122528166 0.026600232 0.53496665 0.047449045 0.120374784
2.2209802 0.20895055 -0.0022638736 -0.007045686 -0.0018091052 -0.05815939 -0.10123396 -0.048775986
-0.09748124 0.027802723 -0.09429757 -0.04694905 -0.08962537 -0.05235859 0.06453457 0.20161651
0.025793651 0.17004254 -0.20784876 0.22896291 0.058067735 0.20899835 0.028385561 -0.10483505
-0.15333126 -0.089050286 -0.15801817 0.13738015 -0.16836862 -0.087464616 -0.13630751 -0.09210467

B1.c2_r.dw.bias f4 [24]
00000000: 7a19 a7be 3229 083e 0b2e 463e a727 1c3e
00000010: bef4 51c0 eeae 1abf 3cd3 82be 873c d23d
00000020: 073c c43e eaf4 1f3e 7e39 3e3f 4194 3dbf
00000030: d94b 65bd 478b 4d3f a266 c63e 4430 59bc
00000040: 5216 50bf c0f9 48bf 2922 0e3f 40f1 0d3f
00000050: 77cb 59bf 9e96 0c3e eeca 81bc 2cdc 203e
-0.32636625 0.13296965 0.19353501 0.15249501 -3.2805629 -0.6042317 -0.25551784 0.10265451
0.38327047 0.15620771 0.74306476 -0.7405434 -0.055980537 0.80290645 0.38750178 -0.013256136
-0.8128406 -0.7850609 0.55520874 0.55446243 -0.8507609 0.13729331 -0.015843835 0.15708989

B1.c3_d.weight f4 [12, 24, 1, 1]
00000000: f5be 083c bac8 2d3f d816 04c0 19bd 813f
00000010: 6b33 45be 5479 fbb9 f7dd bd3d 0593 2bbf
00000020: fcfc 54bd d4f2 8cbe 2814 38bc 3940 2c3c
00000030: ae8c 4cbe b5c0 3bbe b8ce 1440 e416 a9bf
00000040: 0c84 29bc 0457 aabd 22d6 20c0 0997 04be
00000050: 98f1 cbba 4302 8abd 2c5f b9be e21e 203f
00000060: d6bf 19be 5235 babe b946 c4be 4020 9f3f
00000070: 573d 833c a259 133c d1ff 80bd c16c 393f
00000080: 50b3 9a3c e454 7c3f f2de a0bf 56cc 20bb
00000090: 0dbd fd3d 2f09 d93b 42fa 9c3d 544f 51c0
000000a0: 8004 51bc 3e88 963d 58ae c43d ce35 cebe
000000b0: 9bf4 dfbb 9fcb a83e f3ef dabc 012d a23e
000000c0: a49a 6c3d 1e32 273e 0848 e0be 520d 50bf
000000d0: 2d0e ebbe 7280 873b 5171 95bc 5094 e0bf
000000e0: 2783 11be 10fe 3e3e 77f2 22be b4cb 10bc
000000f0: 895a ad3e 3948 a0be 03da 803f 8a44 4c3e
00000100: e756 093c 9d09 1dbe 416a 3e3e dba8 923e
00000110: 9b46 2a3b d71e 173f 9563 36bf 6394 a13e
00000120: bcba aabc da9e f13e 6403 14bf a7c2 18bf
00000130: 2fa7 25be 6630 97bc 144e efbc 5538 04bf
00000140: 6255 abbd 0648 7ebf b102 0e3d f1eb f23b
00000150: 0721 da3d 3f71 9cbd 8d45 b5bb e8ad fdbd
00000160: be3e 5fbb b977 623e 0497 adbb 39e7 4dbe
00000170: 5aa4 923a 949e 733e 7da2 e63e 5ed1 953e
00000180: 710d 463f 3e17 6a3d f30b c5bd 3907 833e
00000190: 51a6 b93d da79 62bd 586c 8e3d f579 ab3e
000001a0: 7f5a 61bf 75d4 98be d968 8c3d 1b6a 05bc
000001b0: 2166 d03d 812a 0bbd 6d35 1f3e b71a 8ebe
000001c0: beba 0bbd fc4b 85bd 601f 52be 2c34 bcbe
000001d0: cca1 893c 6f9a 9f3c c1f3 e8be cc6d 963e
000001e0: 5239 253f 0036 143e c813 ac3e 8bdf de3e
000001f0: 1172 653e b560 91bc a5de 043e f91f c13e
00000200: e8e8 efbe 6460 083f 8061 a73d 5c34 943a
00000210: e600 51bc e0b2 203d 850b a33e 0cec c23d
00000220: e113 29bc 15b4 19bf dfc6 5cbc 2a88 f13c
00000230: ae1b bd3b 2484 f6bd 7ff2 bdbf 6d26 42be
00000240: 5c52 d23c 7dfa 4d3e c3c9 c4bf 8ed4 973e
00000250: c6b9 6bbc 7ba7 8ebb 053c fd3e f2b1 fdbf
00000260: 30c7 90bc 75bb 913c 32a6 a03e 95c3 943b
00000270: 811e 29bd 70ec aabe 45f2 8dbf 60c3 373e
00000280: 87f0 3ebc f4f5 ab3d 843e d93c 49d2 2abe
00000290: 5685 95bb ae0e a640 4296 043e 92fe 48bf
000002a0: e809 013e 4ef4 0a3d 4999 d5bf d3f2 51be
000002b0: 1b71 0d3f 0ebd 163b 9466 1d3e 7123 8a3f
000002c0: 3818 2bbd 0cdb d7be 357b 78be 5861 913a
000002d0: c83f 8d3d b029 95be be9f 393d bd42 043f
000002e0: 2238 933b c85d a5bb 72fa b93d 7aa8 07be
000002f0: 6949 8ebb 23fe 303f c939 853d e2ad 4fbd
00000300: 5014 debe b946 c3be d4fc 14be 8804 ccbe
00000310: ab17 293e 0c9c 993c 31e4 aabd 3c3d c0be
00000320: 8f86 e03e c5c7 8cbe 35ce a9bc 00f5 d4bb
00000330: 30ff 80bd 9683 0b3a b044 09be e0ac 54be
00000340: 0ec5 583c fe96 9abd 9958 053d d1e3 643e
00000350: 6f26 aeba 2327 dfbd 258d 7cbe 12c2 373f
00000360: 7d78 733f e063 503d fdd5 d23c 8c5d c23e
00000370: 007a ba3f 2980 35bd 9088 cbbd 000c 8fbf
00000380: d694 d2bb b08b f03e 4305 9c3e bfdb 163b
00000390: 7b4a f9be ff9d ef3e ef0c 0dbd 17d8 22bf
000003a0: d255 303b 789d c1be 3748 86be 5f00 863e
000003b0: a2c8 8d3c 922a d3bf bb9e 8cbf bbc9 873e
000003c0: 75bc a63e 6a61 063e 6efc d1be ec3f 03bf
000003d0: 9fda 26be d7f3 813b 3510 b6bd d1ee 58bf
000003e0: 8b81 78be 1daf 84be 1459 953c 6e93 293c
000003f0: 5017 493e 9e4e f0bd 7452 b63d f016 adbf
0.008346309 0.6788441 -2.0638943 1.0135833 -0.19257896 -0.00047964847 0.09270852 -0.6702121
-0.051999077 -0.27529013 -0.011235274 0.010513359 -0.1997554 -0.1833523 2.325117 -1.3210111
-0.010346424 -0.08317378 -2.5130696 -0.1294824 -0.0015559671 -0.06738713 -0.36205423 0.62547123
-0.15014586 -0.36368805 -0.38335207 1.2431717 0.01602046 0.008993538 -0.06298793 0.7243157
0.018884331 0.9856703 -1.2568038 -0.0024535856 0.12389574 0.006623409 0.076649204 -3.2704668
-0.012757421 0.07350205 0.09603566 -0.40275425 -0.006834579 0.3296785 -0.026725745 0.3167496
0.057764664 0.16327712 -0.43804955 -0.81270325 -0.45909253 0.004135185 -0.01824251 -1.7545261
-0.14210187 0.18651605 -0.15912805 -0.008837629 0.33858135 -0.31305102 1.0066532 0.1994802
0.008382536 -0.15335698 0.1859522 0.28644451 0.0025982026 0.5903143 -0.712457 0.31558523
-0.020840995 0.47191507 -0.57817674 -0.59672016 -0.16177057 -0.018455695 -0.029212035 -0.51648456
-0.08365895 -0.9932865 0.034670535 0.0074133803 0.10650831 -0.076387875 -0.0055319727 -0.123866856
-0.0034064497 0.22115983 -0.0052975435 -0.20107736 0.0011187897 0.23790962 0.45045844 0.29261297
0.7736426 0.05715107 -0.0962142 0.25591448 0.090649255 -0.055291988 0.06954259 0.33491483
-0.8802871 -0.29849592 0.068559356 -0.008142973 0.101757295 -0.03397608 0.15547724 -0.27754757
-0.034113638 -0.065086335 -0.20519781 -0.36758554 0.016800784 0.01948282 -0.4549847 0.29380643
0.6454059 0.14473724 0.33608842 0.43529925 0.22406794 -0.017746309 0.12975557 0.37719706
-0.4685738 0.5327208 0.081728935 0.0011307108 -0.012756562 0.03923309 0.31844726 0.095176786
-0.010319681 -0.6004041 -0.013475149 0.029483873 0.005771122 -0.120369226 -1.4839629 -0.18959971
0.025674038 0.20115085 -1.5374073 0.29654354 -0.014387554 -0.0043534613 0.49459854 -1.981993
-0.017673105 0.017789582 0.31376797 0.0045399168 -0.041288856 -0.33383512 -1.108956 0.17945623
-0.011654026 0.08396521 0.026519068 -0.1668178 -0.004563014 5.189292 0.12947944 -0.78513443
0.12601435 0.033924393 -1.6687404 -0.20502786 0.5525071 0.002300087 0.15371162 1.0792066
-0.041771144 -0.42159307 -0.2426575 0.0011091633 0.06896931 -0.29133368 0.045318358 0.51664335
0.0044927755 -0.00504658 0.09080972 -0.13247862 -0.0043422473 0.6913778 0.06505162 -0.050702937
-0.43374872 -0.38139895 -0.14549571 -0.39847207 0.16512935 0.018751167 -0.08344305 -0.37546718
0.4385266 -0.27496162 -0.02072821 -0.006498933 -0.06298673 0.0005322037 -0.13405108 -0.20769072
0.013230575 -0.07548331 0.032555196 0.2235253 -0.0013286601 -0.108961366 -0.24663217 0.717805
0.95105726 0.0508765 0.025736803 0.37961996 1.4568481 -0.044311676 -0.099381566 -1.1175537
-0.006426434 0.46981573 0.30472764 0.0023019162 -0.48689637 0.4680023 -0.034436163 -0.63610977
0.0026906622 -0.37815452 -0.2622697 0.26172158 0.017307583 -1.6497366 -1.0985941 0.26521096
0.32565656 0.13123098 -0.410129 -0.5126941 -0.16294335 0.0039658356 -0.0888981 -0.84739405
-0.24268167 -0.2591485 0.018230952 0.010350091 0.196378 -0.11733745 0.089024454 -1.3522625

B1.c3_d.bias f4 [12]
00000000: c46e 143e 2b0b 9cbf 2a36 fbbe ed31 ad3d
00000010: 24ec 5e3e 6248 eabe 65d9 89bd f3e3 aebe
00000020: 0995 ab3c 9468 58bf 070c 043f de02 2bbf
0.14495379 -1.2190908 -0.4906476 0.08456788 0.21769768 -0.4575835 -0.06730918 -0.34158286
0.020945089 -0.84534574 0.5158085 -0.6680125

B1.c3_r.pw.weight f4 [24, 24, 1, 1]
00000000: c5b2 b1bf e5b0 813e 484b 91be 4ee0 6c3e
00000010: de0b 81bb 3d95 5fbc f395 d1bd 81ff d23d
00000020: 165e 5ebd d98c 563e b714 25be 7cb2 81bb
00000030: 3b5d 553d 020e 1b3e 91ba a7bb 3a38 16bf
00000040: 2e2b a03b 3bd6 6db9 648b 9d3d dabe ffbd
00000050: 3e3c da3c 27cd 62c0 91c8 40be a9a8 1a3f
00000060: bbc5 233b 7696 6fbf 6216 1ebe 2d0d 2b40
00000070: 3def 043c 3ab7 863c ac80 76bd 58a3 a0be
00000080: b428 963d 2879 3f3f 67c1 82be 39a3 7e3c
00000090: 8f39 933d c0d1 7f3d f393 0a3e 4558 50bf
000000a0: 5b4a 9dbb d527 3bbc 8525 893e a740 a5bd
000000b0: 4872 b9bd d08f 4bc0 b0be 203e e197 1f3d
000000c0: bb82 8abf 3e9a 123f d569 bc3f ea1b 313f
000000d0: 43f9 1ebe 0b11 d53c 7ab9 d9be 5e60 4a3f
000000e0: b5b8 013e ca3f b2bf 2031 52be b672 563d
000000f0: 403a 3cbf 80d2 8e3e 5902 6cbe ebe0 8cbc
00000100: 9c8b 28bc 75ef 723f 5420 45be af21 fbbd
00000110: 75a9 cbbd 26cc 02c0 bfdd 343f 2d6c f2be
00000120: 0886 ae3f 4b68 febe d015 d5bf 704d 97bf
00000130: ef59 9e3e aa58 b53b 273b dd3e 74bf fabf
00000140: cffa d7bd 0c55 2940 c5a6 873e d082 a5b9
00000150: 8ae1 503f 3014 ebbe caee e03b 99c0 563e
00000160: d7e2 0a3c f701 adbf 5031 103f 0b92 c1bd
00000170: 56d1 6f3d fd02 2840 d53f 2abf c38a 27be
00000180: 957e 0f3f a19a 123b 897d cc3e e9a7 d6bf
00000190: 4e04 62be d73f c1c0 aa67 77be 04b0 3abf
000001a0: 0215 ecbf e864 34c0 47e1 64bd f9f0 c5bf
000001b0: 7506 2dbe 2dc1 2ebe cb77 bbbf 23f9 0b3e
000001c0: bcd5 f5bf 3757 90bd b67a 01bf 5ea9 edbe
000001d0: 14e0 923f bec9 81bf 212b 0abf e71a aa3f
000001e0: b1bd 06bf 489a 4b40 372e c6bf 9116 81bf
000001f0: 32a5 ab3e 3bd3 dfbe bc11 ec3f d2a1 99bf
00000200: b6c7 06bf fcc5 3fbf d61f 98bf 3942 3cbe
00000210: 6ed5 0c3f 657c d93d 046f 8cbe 9304 f53f
00000220: 5ac7 c73e 59d1 b9bf 4626 af3e dc0b f43e
00000230: f3ff e0be 3efe 4040 437d debf f3e5 2ebf
00000240: bc9d e33e 8cfd 403f 9147 0840 882d 323e
00000250: 8998 0fbf 2adf 883d 4e52 963f 594a c83f
00000260: b09e 1bbe 6ee4 c4be 4ae5 c53e a4b5 ca3d
00000270: 682c 6abf c390 4dbe 4a7c 6840 8253 6040
00000280: e008 713b 821b 5c3e b745 b6bf 7b1d 453e
00000290: 4899 8dbd c7ba 323e 9039 4f3e 48c2 a9be
000002a0: e00e 833e 827b 16be 16cd a43e a726 d13f
000002b0: e3bd ab3d 487a babc aa41 a83f b50a d2be
000002c0: 55bd 9c3e 589e 1340 dd12 77be 1b01 aa3d
000002d0: fe3d 1c40 2633 d0bf 3b30 3cbd 57b5 1040
000002e0: e275 1b3c 3682 823e fb40 3040 97b7 7bbf
000002f0: bdb6 313c 51fb e13f f6f0 f6be a978 27bf
00000300: f1fa a93e 7212 e0bf 3423 3fbe bbbd adbf
00000310: 39c1 743e 98c7 793d 721f 42bc f2bd d73e
00000320: bb06 c0be 7f81 0540 e7e1 51bd e182 cf3c
00000330: 8384 023d 1ed7 063e 9458 423f 2be0 83bf
00000340: d075 fd3c 6675 98bf 31f5 c7bd 269c c93e
00000350: 2377 aabe c9b9 083f cb08 debd abaa eebf
00000360: 3e63 2dbd 4fd7 babf 0dd4 02bf d3d8 a93e
00000370: ba15 1fbd 19ee 853d 299a 5c3d 151d 643e
00000380: 190f 94be b806 84bf 78e2 1a3d 64b1 b2bc
00000390: 09f9 973d 7a48 cb3d 72e0 903e a8c8 2a3f
000003a0: cd74 cebb 065f da3e f9b9 b43d 40ec 53be
000003b0: f31b 1e3d c932 783e 3c16 943f 2f71 a8be
000003c0: d09a 813b f539 7f3f 6558 ff3c ef78 2ebe
000003d0: f45f 413e 8f6a 883d cbb6 48bd 5acb b9bd
000003e0: 031e 453c 1629 c9be b04c c63e a1ed 4a40
000003f0: b6bb 92bd 058d 5cbd eeab 5a3e 8aff 913d
-1.3882681 0.25330272 -0.28377748 0.2313244 -0.0039381823 -0.013646421 -0.10233679 0.1030264
-0.054288946 0.20952167 -0.16121183 -0.0039580446 0.052090865 0.15142062 -0.005118676 -0.58679545
0.00488796 -0.00022681888 0.07692602 -0.12487574 0.026640054 -3.5437715 -0.1882651 0.60413605
0.0024989683 -0.9358896 -0.15438226 2.6726792 0.0081136795 0.016444791 -0.060181305 -0.3137462
0.07331982 0.74794245 -0.2553818 0.015541845 0.07188713 0.062455893 0.13533 -0.8138469
-0.0048001236 -0.011423071 0.26786438 -0.08068972 -0.090550005 -3.1806526 0.15697742 0.038963202
-1.0821146 0.57266605 1.4719797 0.6918322 -0.15524773 0.026009103 -0.4252432 0.79053295
0.12668116 -1.3925717 -0.20526552 0.05235549 -0.7352638 0.27894974 -0.2304777 -0.017197093
-0.010287192 0.9489663 -0.19250613 -0.12262284 -0.09944431 -2.0437102 0.7065086 -0.47348157
1.3634653 -0.49688944 -1.6647282 -1.1820507 0.3092799 0.005534251 0.43209192 -1.9589677
-0.10545885 2.6458158 0.26494423 -0.00031568715 0.81594145 -0.4591384 0.0068644034 0.20971908
0.008476934 -1.3516225 0.56325245 -0.094516836 0.058549248 2.6251824 -0.6650365 -0.16361527
0.56052524 0.0022369998 0.39939526 -1.6769992 -0.22071955 -6.039043 -0.24160638 -0.7292483
-1.8443911 -2.8186588 -0.055878904 -1.5464164 -0.16896994 -0.17065878 -1.4645933 0.13669257
-1.9205852 -0.07047885 -0.5057787 -0.4641828 1.1474633 -1.0139692 -0.5397206 1.328946
-0.52633196 3.1812916 -1.5482854 -1.0085012 0.33524472 -0.43715844 1.8442912 -1.2002509
-0.52648485 -0.74911475 -1.1884716 -0.18384637 0.5501317 0.106194295 -0.27428448 1.9142021
0.3901928 -1.4517013 0.34208888 0.47665298 -0.43945274 3.0155177 -1.7381977 -0.68319625
0.4445628 0.7538688 2.129368 0.17400181 -0.56092125 0.0668319 1.1743867 1.5647689
-0.15197253 -0.38455528 0.38651496 0.098979264 -0.9147401 -0.20074753 3.632586 3.505097
0.0036778972 0.21494868 -1.4240025 0.19249527 -0.06914002 0.17454062 0.20236802 -0.33156037
0.25597286 -0.14695552 0.32187718 1.6339921 0.083858274 -0.022763386 1.3145039 -0.41023794
0.306132 2.3065395 -0.2412829 0.08300992 2.4412837 -1.6265609 -0.045944434 2.261068
0.009488555 0.25489968 2.753966 -0.9832701 0.010846791 1.7654821 -0.48230714 -0.6541849
0.33199266 -1.7505629 -0.18665773 -1.3573526 0.23901834 0.060981363 -0.011848317 0.42137104
-0.37505135 2.0860288 -0.051240828 0.025330963 0.031864654 0.13167998 0.7591641 -1.0302786
0.030939966 -1.1910827 -0.097635634 0.39376944 -0.3329402 0.53408486 -0.10841521 -1.8645834
-0.042330973 -1.4596957 -0.51104814 0.33173236 -0.03883908 0.06539554 0.053857956 0.22276719
-0.2891777 -1.031455 0.037813634 -0.021813102 0.074205466 0.09925933 0.28296238 0.6671243
-0.006300545 0.42650622 0.08824534 -0.20695591 0.038600873 0.24238123 1.1569285 -0.32898852
0.0039552227 0.9969781 0.03117008 -0.1703832 0.1888426 0.066609494 -0.04900245 -0.09071989
0.012031081 -0.3928916 0.38730383 3.1707537 -0.07164709 -0.053845424 0.21354648 0.07128818
