model_zoo/team13_HannahSR.pth (torch, 335729 bytes, 286 tensors)

fea_conv.eval_conv.bias f4 [24]
0	0x3d913c91	0.0709163
1	0xbc05d720	-0.008168966
2	0x3d8d4d9a	0.06899567
3	0x3d0ecb58	0.034861892
4	0xbc4d1480	-0.012517095
5	0x3c1f4260	0.009720415
6	0x3c079348	0.008274861
7	0xbc30b850	-0.010786131
8	0xbc6be8c0	-0.014398754
9	0xbc960530	-0.01831302
10	0x3d2dc614	0.04242523
11	0xbc2936f0	-0.0103280395
12	0x3cacbea4	0.021086998
13	0x39c47200	0.0003746897
14	0xbc1eebda	-0.009699786
15	0xbd238bcc	-0.039928243
16	0x3cb711f0	0.02234742
17	0xbbef8960	-0.0073100775
18	0xbbd274f0	-0.0064226314
19	0x3c8fa8a4	0.017536469
20	0x3b4a0640	0.003082648
21	0xbd101c0e	-0.035183005
22	0xbf6a670a	-0.91563475
23	0x3be2f480	0.0069261193

B1.c1_d.weight f4 [12, 24, 1, 1]
0	0x4044b201	3.0733645
1	0x3ed3f517	0.41397926
2	0x3ee9ab2a	0.456384
3	0x3fc2976e	1.5202463
4	0xbed14b26	-0.40877646
5	0x3e055929	0.13022293
6	0x3f57764f	0.841649
7	0xbd075c30	-0.0330469
8	0x3fbfdf0e	1.4989946
9	0xbf23b8c4	-0.63953805
10	0xbeea4fa1	-0.45763877
11	0x3fa8d4bb	1.318992
12	0x3f95ae9d	1.1693913
13	0x3ebdb9ba	0.3705576
14	0xbe8fab7b	-0.28060517
15	0x3f35d241	0.71023947
16	0x3d344a71	0.044016305
17	0xbe07a12a	-0.13245073
18	0xbfee7ba4	-1.8631482
19	0x3f5be3e6	0.8589462
20	0xbf9c6b91	-1.2220327
21	0xbef33340	-0.47500038
22	0x3f1c3015	0.6101087
23	0xc040d4fc	-3.0129995
24	0x3f3c1f43	0.734852
25	0x3ebc0ca3	0.3672839
26	0x3f32ef3b	0.69896287
27	0x3f4794f1	0.7796164
28	0x3dee3a09	0.11632163
29	0xbd58e225	-0.052950043
30	0x3e9d1568	0.30680394
31	0x3e9ab630	0.30217123
32	0xbd9d7436	-0.07688181
33	0xbf76611e	-0.9624194
34	0xbe92d0d0	-0.28674936
35	0x3ecc816c	0.3994249
36	0xbee92d41	-0.45542338
37	0xbdc6bcf0	-0.09704006
38	0x3f237256	0.6384634
39	0xbebf458d	-0.3735775
40	0x3fec7f1c	1.8476291
41	0x3dd7f93c	0.105455846
42	0xbfb3935d	-1.4029347
43	0x3cc0476c	0.023471557
44	0x3f88397f	1.0642546
45	0x3f02ca68	0.510901
46	0x3da00962	0.0781429
47	0x3fa60e50	1.2973118
48	0xc11c61b8	-9.773857
49	0xbff813b2	-1.938101
50	0xbbd03423	-0.0063538714
51	0x3f4d7849	0.80261666
52	0x3f0c7122	0.54860127
53	0xbdc9cb10	-0.09853184
54	0xbea8ba45	-0.32954612
55	0x4068c4a9	3.6370032
56	0x3f87f32f	1.0621089
57	0x3fa2c675	1.2716814
58	0x3e8c56d4	0.27409995
59	0xbf79bcd7	-0.9755377
60	0x3f4083d7	0.7520117
61	0x3ef27edc	0.4736241
62	0xbb513d9f	-0.0031927598
63	0xbe1aca8d	-0.1511633
64	0x3eba5431	0.36392358
65	0x3f48b8d1	0.7840701
66	0x3f55d0e3	0.8352186
67	0x3f455787	0.7708668
68	0xc0c93286	-6.2874174
69	0xbfbf9df0	-1.4970074
70	0x3dc07e1e	0.09399055
71	0xc048ec5d	-3.1394265
72	0xbfc01677	-1.5006856
73	0xbf65a621	-0.8970662
74	0x3e831f5f	0.25609872
75	0x3e0d6864	0.13809353
76	0x3ee68ee9	0.45030907
77	0xbdb957c3	-0.09049942
78	0xbe871efd	-0.2639083
79	0x3ecc5e7c	0.39915836
80	0x3f303b8f	0.6884088
81	0x3e30f763	0.1728187
82	0xbe8832c3	-0.26601228
83	0xbe9633ab	-0.29336295
84	0x3f87d006	1.0610359
85	0x3f9956b6	1.1979587
86	0x3e51696f	0.20450376
87	0xbb8cfda3	-0.004302697
88	0x3f0b1c79	0.5434032
89	0x3d51949a	0.051167108
90	0x3ea3c034	0.31982577
91	0xbd744231	-0.059633438
92	0x3dba2251	0.090885766
93	0x3d79bdc0	0.060971975
94	0x3d83f03c	0.064423054
95	0xbfc0b728	-1.5055895
96	0xbf41220b	-0.7544257
97	0xbf3417b4	-0.7034867
98	0xbfc7bd7e	-1.5604703
99	0xc01652eb	-2.348811
100	0x3f05e757	0.5230612
101	0x3effd679	0.49968317
102	0xc0096648	-2.1468678
103	0xc00c2952	-2.190022
104	0x3e8eaec8	0.27867723
105	0x3ec7340b	0.38906893
106	0x3ebcbae6	0.36861342
107	0xbf940976	-1.1565387
108	0xbfcc898e	-1.5979478
109	0x3f35bbf5	0.70989925
110	0x3f09f1f5	0.5388482
111	0x3d6f70b2	0.058457084
112	0xbf96b0f9	-1.1772758
113	0x3e1a32c1	0.15058424
114	0xbf44f6b3	-0.76938933
115	0x3e64818a	0.2231504
116	0xbeb2aac9	-0.34895924
117	0x3fbe9404	1.4888921
118	0xbebd67e8	-0.36993337
119	0xbeb4ef47	-0.35338804
120	0x3ea37f3a	0.31933004
121	0x3eaa6b1b	0.3328484
122	0xbe586e68	-0.21135867
123	0xbe994dee	-0.29942268
124	0x3ec0ef44	0.37682545
125	0x3d5aded9	0.05343518
126	0x3f02ceb8	0.5109668
127	0xbdf186bf	-0.11793279
128	0x3ee0528c	0.43812978
129	0x3ee5dbb8	0.44894195
130	0x3efbeaf4	0.49202693
131	0xbeb53a35	-0.3539597
132	0xbee8a6ff	-0.45439908
133	0x3bddc0d0	0.00676737
134	0xbe9da817	-0.30792305
135	0x3e1e5601	0.15462495
136	0xbe2732e4	-0.16328007
137	0xbced0036	-0.028930765
138	0x3ceb29ea	0.02870651
139	0xbf804268	-1.0020266
140	0xbf365c30	-0.71234417
141	0xbe4ec704	-0.20193106
142	0xbd1002a5	-0.035158772
143	0x3e14064a	0.14455524
144	0xbedc46fe	-0.43022913
145	0xbe6682b8	-0.22510803
146	0xbe2f46e3	-0.17116885
147	0xbe3b3ba5	-0.18284471
148	0xbd2d3b37	-0.0422928
149	0x3ca0906e	0.01960012
150	0xbec73fc7	-0.38915846
151	0xbcc36be3	-0.023855155
152	0x3e98bda6	0.2983219
153	0xbeafea0e	-0.34358257
154	0xbe9d754a	-0.30753547
155	0x3f94723e	1.1597364
156	0x3efcca2c	0.49372995
157	0x3e21d051	0.15802123
158	0xbd9d6abd	-0.07686374
159	0xbf380632	-0.71884453
160	0x3d88a2f8	0.06671709
161	0xbd814d64	-0.06313589
162	0xbcaa5c51	-0.020795973
163	0x3f9d2e76	1.2279804
164	0xbeb8caf4	-0.3609234
165	0xbd0aaefe	-0.03385829
166	0xbbf8fccb	-0.0075984946
167	0xbc3a4959	-0.0113700265
168	0x3e47c012	0.19506863
169	0x3fb1ea3e	1.389961
170	0xbfb00521	-1.3751565
171	0x3fa4221e	1.2822912
172	0x3fc1df80	1.5146332
173	0x3ed37095	0.4129683
174	0xbfe52840	-1.7902908
175	0xbfd91893	-1.6960624
176	0xbe100bed	-0.1406705
177	0xbe2485a3	-0.16066603
178	0xbf13a71e	-0.57676876
179	0x4002c30a	2.0431542
180	0x3e1245ee	0.14284489
181	0x3f7802fd	0.9687956
182	0xbe986a90	-0.297688
183	0x3f90fbb6	1.1326816
184	0x3f59ebd3	0.85125464
185	0xbe5c96de	-0.21541926
186	0x3d56ff9a	0.052489854
187	0xbe184324	-0.14869362
188	0x406ad403	3.6691902
189	0xbfcfc623	-1.6232342
190	0xbf2a82f3	-0.6660606
191	0x3db7856c	0.08960995
192	0xc0967de3	-4.702867
193	0x3f0e6f31	0.55638415
194	0x3eb94031	0.36181787
195	0xbf1aa7a8	-0.60412073
196	0xbf723988	-0.94619036
197	0xbedef44c	-0.4354576
198	0x3f2c4670	0.6729498
199	0x3f357a2e	0.70889556
200	0x3e82c99a	0.25544435
201	0x3f122889	0.570931
202	0x3ec91992	0.3927732
203	0xbfcd9b80	-1.606308
204	0x3efb9fe4	0.49145424
205	0xc0136cb9	-2.303511
206	0xbf62d133	-0.8860046
207	0xbe743ad1	-0.23850562
208	0xbf7ae5ae	-0.98006713
209	0x3ece4cae	0.40292877
210	0x3e93e143	0.288828
211	0xbe9af2bf	-0.30263326
212	0xbe5e6d65	-0.21721418
213	0x3fb31e1c	1.3993564
214	0xbe278b10	-0.16361642
215	0x4054f86e	3.327663
216	0x400ccd63	2.2000358
217	0x3e04a7d9	0.12954654
218	0x3f0ef0c9	0.5583616
219	0x3f67fd79	0.90621144
220	0x3f200e32	0.6252166
221	0xbd0bf652	-0.034170456
222	0xbf3cac31	-0.73700243
223	0xbd96b985	-0.07359604
224	0x3eece13d	0.46265593
225	0x3ea4a9ef	0.321609
226	0xbf531964	-0.8246062
227	0x3d54f892	0.051994868
228	0x40006978	2.0064373
229	0x3febc633	1.8419861
230	0xbf477abc	-0.7792165
231	0x3f235aed	0.63810617
232	0x4019391e	2.3941112
233	0xbe392036	-0.18078694
234	0xbe2a7346	-0.16645536
235	0x3c4a5c7a	0.01235115
236	0x3edd6057	0.43237564
237	0xbefe4269	-0.49660042
238	0x3e9b2ba1	0.30306724
239	0xc04419d2	-3.064076
240	0x3f95cc3a	1.170295
241	0x3e5226b7	0.20522581
242	0x3fad23cb	1.3526548
243	0x3f73404a	0.9501997
244	0x3f0c2dae	0.547572
245	0x3f80ac22	1.0052531
246	0x3e317a96	0.17331919
247	0xbfd4cb50	-1.6624546
248	0x4057e44a	3.3733087
249	0x3f49c350	0.7881365
250	0xbf39f420	-0.7263813
251	0x3fe8a4d4	1.8175302
252	0xbfe36d43	-1.7767719
253	0x3fa6ddac	1.3036399
254	0xbf0d5a18	-0.552156
255	0xbf8ef045	-1.1167074

B1.c1_d.bias f4 [12]
0	0x3e06144f	0.13093685
1	0x3d9d84fd	0.07691381
2	0xbb6dea38	-0.0036302935
3	0x3d177a83	0.03698207
4	0xbc39d73c	-0.01134282
5	0xbe2d90a0	-0.16949701
6	0xbeaa7942	-0.33295637
7	0xbe85f4a7	-0.26163217
8	0x3ee3a4d1	0.44461682
9	0x3da9cb73	0.08290758
10	0x3de31495	0.1108791
11	0xbf1ea637	-0.61972374

B1.c1_r.pw.weight f4 [24, 24, 1, 1]
0	0x404c14d1	3.1887705
1	0x3f1b2fbc	0.6061971
2	0xbe2a7f9a	-0.16650239
3	0x3ecf4058	0.40478778
4	0xbf3aea3a	-0.7301365
5	0xbf52b8a2	-0.8231298
6	0x3ebf224f	0.37330863
7	0x3fc9bb3e	1.5760267
8	0x3f5657b7	0.8372759
9	0xbeb13cd7	-0.3461673
10	0xbf1b2b89	-0.60613304
11	0x3e346dd1	0.17620017
12	0x3fb285dc	1.3947101
13	0xbf93017d	-1.1484829
14	0xbe3c61f4	-0.18396741
15	0xbc8322a5	-0.01600773
16	0xbf992341	-1.1963884
17	0xbe39c271	-0.1814058
18	0x3e8f0a43	0.27937517
19	0x3e37af27	0.17937909
20	0xbe4713b9	-0.19441117
21	0xbf291b65	-0.66057426
22	0x3d767a83	0.06017543
23	0xbf9a1baf	-1.2039698
24	0xbe255f8c	-0.1614973
25	0xbdaee41b	-0.085396014
26	0xbfa07127	-1.2534531
27	0xbe6bd944	-0.23032099
28	0x3f8503fc	1.0391841
29	0x3daff586	0.08591752
30	0x3e9b9a80	0.30391312
31	0xbe8c3482	-0.2738381
32	0x3ec928d1	0.39288953
33	0xbee2a224	-0.44264328
34	0x3e4d76d2	0.20064858
35	0x3e02dca2	0.12779477
36	0xbd0fed28	-0.03513828
37	0xbe4e1222	-0.20124105
38	0xbead9008	-0.3389895
39	0xbe4776c6	-0.19478902
40	0xbf19d45e	-0.6008967
41	0xbd74ce77	-0.059767213
42	0xbf300940	-0.68764114
43	0xbf384317	-0.7197737
44	0xbfa22264	-1.2666745
45	0xbd8822cb	-0.06647261
46	0xbdb38600	-0.08765793
47	0x3ea36abf	0.31917378
48	0xbf138ca2	-0.57636464
49	0x3e5f2095	0.21789773
50	0x40061d0f	2.0955236
51	0x3f93bed1	1.1542608
52	0xbea2142e	-0.3165602
53	0x3f8ae76d	1.0851876
54	0x3f4c9231	0.7991057
55	0x3caf4981	0.021397354
56	0x3f53bdec	0.8271167
57	0xbe25b05a	-0.16180554
58	0xbfdde789	-1.7336284
59	0xbe962d8e	-0.2933163
60	0xbf008e61	-0.5021725
61	0xbec278e2	-0.3798285
62	0xbf607914	-0.8768475
63	0x3f5b24a8	0.8560281
64	0x3fc9dafc	1.5769954
65	0xbf85982f	-1.0437068
66	0xc007c067	-2.1211183
67	0x3e6d80ed	0.23193713
68	0xbfd80772	-1.6877272
69	0xbffb0880	-1.9611969
70	0x3e415ba2	0.18882611
71	0xbf22c85f	-0.6358699
72	0x4037b1ff	2.870239
73	0xbf1fad7b	-0.62374085
74	0xbd3bb2e2	-0.045824893
75	0xbf2717fd	-0.6527098
76	0x3f0d5e34	0.5522187
77	0xbeadf151	-0.33973172
78	0xbf90949f	-1.1295356
79	0xbdb63336	-0.088964865
80	0x3f11b6b2	0.56919396
81	0xbeab74f3	-0.33487663
82	0xbec19af0	-0.3781352
83	0x3ea255ea	0.31706172
84	0x3fdf8188	1.7461405
85	0x3d25821f	0.040407296
86	0xbde2835d	-0.11060212
87	0xbebf3160	-0.37342358
88	0xbf151d21	-0.5824757
89	0xbea3aee2	-0.31969362
90	0x3e945f23	0.28978834
91	0xbc1f4555	-0.00972112
92	0x3fc3781a	1.5271027
93	0x3f64e409	0.89410454
94	0x3d08ae11	0.033369128
95	0x3e23d1c3	0.15997986
96	0x3c992dd2	0.018698607
97	0x3df7af03	0.12093928
98	0xbd49f27d	-0.04930352
99	0xbc963b2d	-0.018338764
100	0xbed15b5f	-0.40890023
101	0x3da0c90f	0.07850849
102	0x3e08be36	0.1335381
103	0xbdf5474c	-0.119764894
104	0x3db6db22	0.08928515
105	0x3ccd19da	0.025036741
106	0xbc893598	-0.016749188
107	0x3d83c48d	0.064339735
108	0xbb9f7dfb	-0.004867313
109	0xbc40332a	-0.011730948
110	0xbd75084e	-0.059822373
111	0xbc609962	-0.013708444
112	0x3b9a2aeb	0.0047048233
113	0xbc10b3f7	-0.008831969
114	0xbd885fd9	-0.066589065
115	0x3fbc1b15	1.4695765
116	0x3e181d45	0.14854915
117	0xbd253513	-0.04033382
118	0x3f2093f4	0.6272576
119	0xbf7ae81b	-0.98010415
120	0x3dfe81c6	0.12427096
121	0xbe88de49	-0.2673209
122	0x3f09de7f	0.5385513
123	0x3e6ea20f	0.23304008
124	0xbefa927f	-0.48939893
125	0xbe0d0f76	-0.13775429
126	0xbebb87b2	-0.36626965
127	0xbb7bfdf1	-0.0038450921
128	0xbf2ce951	-0.6754351
129	0x3e8d53e6	0.27603072
130	0xbe5fd3cb	-0.21858136
131	0x3e5ddd22	0.21666387
132	0x3ecd685a	0.40118676
133	0xbe7b327f	-0.24530981
134	0x3f2b6c4c	0.6696212
135	0xbeb1589a	-0.3463791
136	0x3ec68184	0.38770688
137	0x3e56f4d8	0.20991838
138	0x3e932c4c	0.28744733
139	0x3f57c59c	0.842859
140	0x3f579a12	0.8421947
141	0x3e6e03f5	0.23243697
142	0x3bcb13d2	0.006197431
143	0x3c09b98d	0.008406055
144	0xbda0410f	-0.07824909
145	0x3ec9ea1f	0.39436433
146	0xbee51755	-0.44744363
147	0xbf55ffe8	-0.83593607
148	0xbf0d1506	-0.55110204
149	0x3d6ea0c5	0.05825879
150	0xbe711fd7	-0.23547302
151	0xbdc9ac25	-0.09847287
152	0x4014d801	2.3256838
153	0xbecec26d	-0.4038271
154	0x3f0fedd7	0.5622229
155	0xbe16bc50	-0.14720273
156	0xbf58f8fc	-0.8475492
157	0x3e005f56	0.12536368
158	0xbf42b659	-0.7605949
159	0x3ed1b33f	0.40957066
160	0xbed4bce9	-0.41550377
161	0xbe4b8b28	-0.19877303
162	0xbf161c3b	-0.58636826
163	0xbf6dcd43	-0.9289133
164	0xbe47e531	-0.19521023
165	0x3e8a2cdc	0.2698735
166	0xbd9ee4ed	-0.07758508
167	0x3c8451f0	0.016152352
168	0x3e7571e9	0.23969235
169	0x3c9abe99	0.018889712
170	0x3d7fc87e	0.062447064
171	0x3e029281	0.127512
172	0x3c9ea762	0.019366924
173	0x3dd7e0d5	0.1054093
174	0x3e046565	0.12929304
175	0x3eadbbd8	0.33932376
176	0x3cb19a85	0.021680126
177	0xbd666718	-0.05625066
178	0x3df39540	0.118937016
179	0x3d079351	0.033099476
180	0xb9e56194	-0.00043750985
181	0xbcad2e98	-0.021140382
182	0xbda0100c	-0.07815561
183	0x3e14e457	0.1454023
184	0x3ce6b013	0.02816013
185	0x3cd253ec	0.025674783
186	0xbdf407e6	-0.11915569
187	0x3fcba989	1.5911113
188	0x3c644987	0.013933546
189	0xbd12c66d	-0.035833765
190	0xbf50b360	-0.81523705
191	0xbfaf11d5	-1.3677317
192	0xbf9f28aa	-1.2434285
193	0xbff04973	-1.8772415
194	0xbf64871c	-0.8926866
195	0x3eed1ef4	0.46312678
196	0x3ff46954	1.9094644
197	0x3f09c4d5	0.53815967
198	0x3fcce347	1.600686
199	0xbf215f15	-0.6303571
200	0xc0230cc6	-2.5476546
201	0x3ffde8e9	1.9836704
202	0xbf9220af	-1.1416224
203	0x3ff7f248	1.9370813
204	0x3ff138bf	1.8845443
205	0xbf3fb40a	-0.7488409
206	0x3f05af93	0.5222103
207	0xbf83ff74	-1.0312333
208	0x3f8540ea	1.0410435
209	0x3e841506	0.2579729
210	0xbe43e500	-0.19130325
211	0x4012b908	2.2925434
212	0xbf9570af	-1.1675013
213	0xbf352fbd	-0.7077597
214	0xbe64e0fc	-0.2235145
215	0x3f3fcccd	0.74921876
216	0x3db81ec7	0.08990245
217	0xbeb1f482	-0.34756857
218	0x3dfdace5	0.12386493
219	0x3d355e02	0.044279106
220	0xbcb94146	-0.022614133
221	0xbdd085ab	-0.10181745
222	0xbd88bce8	-0.06676656
223	0xbca076cb	-0.019587895
224	0x3d3274e5	0.04356851
225	0xbf3bb2b4	-0.73319554
226	0xbd2ce70e	-0.04221254
227	0x3df23be5	0.1182783
228	0xbe7a2634	-0.24428636
229	0xbc9d9b1a	-0.019238997
230	0xbd79e636	-0.061010562
231	0x3dafd907	0.085863166
232	0xbeeb9705	-0.46013656
233	0xbde13906	-0.109972045
234	0x3e58fa90	0.21189332
235	0x3f53aa34	0.82681584
236	0xbe5b6696	-0.21425852
237	0x3e52e496	0.20595011
238	0x3e6c794c	0.23093146
239	0x3e5c7b3a	0.21531382
240	0x3f87b0c6	1.0600822
241	0xbf08d866	-0.534552
242	0xbe76e1a9	-0.2410952
243	0xbe9b2538	-0.30301833
244	0x3f13cc01	0.5773316
245	0xbedc12c1	-0.42983058
246	0xbf67fdeb	-0.90621823
247	0x3e29cf08	0.16582882
248	0x3f800dd9	1.0004226
249	0xbdcd83f8	-0.10034937
250	0xbed9c1d7	-0.425307
251	0xbe13bc26	-0.14427242
252	0x3f3961de	0.7241496
253	0xbeea99a0	-0.45820332
254	0x3e6be657	0.23037086
255	0x3f7e6f9b	0.99389046

B1.c1_r.dw.weight f4 [24, 1, 3, 3]
0	0x3c9d82bf	0.019227384
1	0x3e23c4b5	0.15993007
2	0x3d030dd4	0.03199561
3	0x3df35926	0.11882238
4	0x3f419555	0.7561849
5	0x3de12614	0.10993591
6	0x3c94334c	0.018090867
7	0x3e11ecbf	0.14250468
8	0x3c4d0c3d	0.012515125
9	0x3d98ed99	0.07467193
10	0x3fe89172	1.8169386
11	0x3dd6a98f	0.104815595
12	0x3e8128de	0.25226492
13	0xbf7c8eef	-0.986556
14	0x3c631f92	0.013862507
15	0x3dcbaa42	0.099445835
16	0xbfaa7f0b	-1.332002
17	0x3d5442ed	0.051821638
18	0x3f3d3bfb	0.7391965
19	0x40017b58	2.0231533
20	0xbe70b6c1	-0.23507215
21	0x3fc53ecb	1.5409788
22	0xbf758f27	-0.9592156
23	0xbfc957f8	-1.5729971
24	0x3cad31d1	0.021141918
25	0xbfa14a56	-1.260081
26	0xbe920904	-0.28522503
27	0xbd55e244	-0.052217737
28	0xbdf509fb	-0.11964794
29	0xbd80402e	-0.06262241
30	0xbdd5e44e	-0.10443936
31	0xbf12e9c8	-0.5738797
32	0xbddd7146	-0.10812621
33	0xbd82aa3b	-0.06380125
34	0xbddbbcbb	-0.10729357
35	0xbd708f0a	-0.058730163
36	0xbc22e4f4	-0.009942282
37	0x3c5bd74e	0.013418032
38	0xbc48ab8e	-0.012247933
39	0x3c8a2d29	0.016867237
40	0x3ffbe47c	1.9679103
41	0x3c3bd552	0.011464434
42	0xbc5517bd	-0.013006148
43	0x3c2ca0cf	0.010536387
44	0xbc030dd5	-0.007998903
45	0xbdf5221d	-0.11969397
46	0x3f84d64c	1.0377898
47	0xbdc8be8a	-0.098019674
48	0x3fe749bf	1.806938
49	0x3f2a32e5	0.6648391
50	0xbfff894e	-1.9963777
51	0xbe854c5d	-0.26034823
52	0xbf398857	-0.72473663
53	0xbeca6870	-0.39532804
54	0x3e31c665	0.17360838
55	0xbfbd6c9e	-1.4798772
56	0xbcc20e1f	-0.023688374
57	0x3fd62274	1.6729264
58	0xbe4e9818	-0.20175207
59	0xbfc96960	-1.5735283
60	0x3ed72101	0.42017367
61	0x3f4e006a	0.8046938
62	0x3e87c9af	0.2652106
63	0xbbad5bc9	-0.0052904827
64	0xbb3849de	-0.00281202
65	0x3b1252a7	0.0022327097
66	0xbb7505e5	-0.0037387547
67	0xc0255aa0	-2.5836563
68	0xbc11e968	-0.008905746
69	0x3a19203d	0.00058412907
70	0xbbf8ee2d	-0.007596752
71	0xbb3f2cb2	-0.0029170928
72	0xbd6dfc23	-0.058101784
73	0x3e321a81	0.17392923
74	0xbdd41c81	-0.10356999
75	0x3ddcc21b	0.1077921
76	0xc0434b96	-3.0514884
77	0x3eaab5e6	0.33341902
78	0xbe1c0d69	-0.1523949
79	0x4048e84d	3.1391785
80	0xbeca5f4e	-0.39525837
81	0xbcf0983b	-0.029369464
82	0x3d360e04	0.04444696
83	0xbc57021c	-0.0131230615
84	0x3d35d4c0	0.044392347
85	0x3fa5349d	1.2906681
86	0x3d2aeb64	0.041728392
87	0xbc5f7c48	-0.013640471
88	0x3d72d373	0.059283685
89	0xbd10eef9	-0.035384152
90	0xbd9a1e8e	-0.07525359
91	0xbe568917	-0.20950733
92	0xbd449a49	-0.0479987
93	0xbe083acf	-0.13303684
94	0x40452ff7	3.0810525
95	0xbe2f9ace	-0.17148897
96	0xbd426ff7	-0.04747006
97	0xbe10c07f	-0.14135931
98	0xbd85d212	-0.06534208
99	0x3b94d791	0.004542299
100	0xbd24cee3	-0.040236365
101	0x3bd7cb8b	0.0065855435
102	0xbd1e0e52	-0.038587876
103	0xc03f8206	-2.992311
104	0xbd0d61d4	-0.034517124
105	0x3bdcdeb7	0.006740417
106	0xbd103ae5	-0.035212416
107	0x3b9b521e	0.0047400137
108	0x3e73ec63	0.23820643
109	0x3f3c757f	0.73616785
110	0x3e83030e	0.25588268
111	0x3f39d115	0.7258466
112	0xc0738699	-3.8050902
113	0x3f343063	0.7038633
114	0x3e6f1445	0.23347576
115	0x3f44971b	0.7679307
116	0x3e87e90e	0.26544994
117	0x3e8417d9	0.25799444
118	0x3f3a07f4	0.72668386
119	0x3ec04823	0.37555036
120	0x3f322075	0.69580775
121	0xc089b851	-4.3037496
122	0x3f34104c	0.7033737
123	0x3ecce77e	0.40020365
124	0x3f5c736b	0.86113614
125	0x3ecd0b04	0.40047467
126	0xbcad241f	-0.021135388
127	0xbd038bb0	-0.03211564
128	0xbc1e9930	-0.009680077
129	0xbcd0f1da	-0.025505949
130	0xbfb73cce	-1.4315431
131	0xbcba33b5	-0.022729734
132	0xbc36b1eb	-0.011150817
133	0xbcd35c5b	-0.025800874
134	0xbc9c3759	-0.01906936
135	0x39e918ed	0.00044459794
136	0x3ce3df55	0.027816454
137	0xbb507850	-0.0031809993
138	0x3caf26a2	0.021380726
139	0x3fd6945a	1.6764023
140	0x3c9f460b	0.019442579
141	0xbbc38a69	-0.0059674275
142	0x3c7f2f8e	0.015575303
143	0xbb9375fa	-0.004500148
144	0xbe3fc001	-0.18725587
145	0xbf1d0cda	-0.61347735
146	0xbe62ed48	-0.22160828
147	0xbf17a9bf	-0.59243387
148	0x405ada1d	3.4195626
149	0xbf18bf6b	-0.5966708
150	0xbe70f5d7	-0.2353128
151	0xbf1e9bda	-0.6195656
152	0xbe7c4569	-0.24635853
153	0xbcd81a2b	-0.026379665
154	0x3dca44a7	0.09876376
155	0xbd16e362	-0.036837943
156	0x3d9e6942	0.0773492
157	0x3fd36006	1.6513679
158	0x3d929ab2	0.07158412
159	0xbd45abda	-0.048259594
160	0x3d321aab	0.043482464
161	0xbd107f40	-0.035277605
162	0xbe48467b	-0.19558136
163	0x3f279a81	0.6547013
164	0xbe3b450f	-0.18288063
165	0x3f363951	0.7118121
166	0xc0096647	-2.1468675
167	0x3f37df1c	0.7182481
168	0xbe06def4	-0.13170987
169	0x3f3e841c	0.7442033
170	0xbe15a831	-0.14614941
171	0x3e67b769	0.22628559
172	0x3f09b080	0.5378494
173	0x3e55ffd3	0.2089837
174	0x3ed3eba9	0.41390732
175	0xc000abe0	-2.0104904
176	0x3ed8c8bf	0.42340657
177	0x3e708555	0.23488362
178	0x3eca649f	0.39529893
179	0x3e6283d6	0.22120604
180	0x3e19b546	0.15010557
181	0x3f2a2bb4	0.66472936
182	0x3e3d34d4	0.18477184
183	0x3f2399aa	0.6390635
184	0xc05c06e5	-3.4379208
185	0x3f261c61	0.6488705
186	0x3e45fa58	0.1933378
187	0x3f26bfd0	0.6513643
188	0x3e4f43df	0.20240735
189	0xbdaba826	-0.08381681
190	0x3e9312d4	0.28725302
191	0x3e2fd649	0.17171587
192	0x3e83096a	0.2559312
193	0xbf8468ec	-1.034452
194	0x3e6d7143	0.23187737
195	0x3e2cf794	0.16891319
196	0x3e9ea3c7	0.30984327
197	0xbd998dd8	-0.07497758
198	0x3f0dc01e	0.5537127
199	0x3e2e201c	0.17004436
200	0x3f01f1b4	0.50759435
201	0x3e3147d6	0.1731256
202	0xc03400ab	-2.8125408
203	0x3e42831e	0.1899533
204	0x3f0c7773	0.54869765
205	0x3e22e4ae	0.15907547
206	0x3f09d314	0.53837705
207	0x3d423012	0.047409125
208	0x3ddc52d6	0.10757987
209	0xbd9dc4ec	-0.077035755
210	0x3dd2fe4f	0.10302412
211	0xbe419b69	-0.1890694
212	0x3d31a1b6	0.04336711
213	0xbe1fc2d9	-0.15601672
214	0xbd0343c3	-0.032047044
215	0x3d5c5135	0.053788383

B1.c1_r.dw.bias f4 [24]
0	0xbcd3887d	-0.025821919
1	0xbe83ff8f	-0.25780913
2	0xbf417eda	-0.75584185
3	0x3bc6b2ae	0.0060637807
4	0xbeac7ae4	-0.33687508
5	0xbe53830b	-0.20655458
6	0xbe578659	-0.21047343
7	0xbf10a5c0	-0.56502914
8	0xbf2ded2f	-0.6794004
9	0x3e14409f	0.14477776
10	0x3e189ee3	0.1490436
11	0xbf83f7a4	-1.0309949
12	0x3e97741d	0.29580775
13	0xbd16cfbf	-0.036819216
14	0xbf339af4	-0.70158315
15	0xbf2d847e	-0.6778029
16	0xbd1b7e9c	-0.03796254
17	0x3d91f0a2	0.07125975
18	0x3d0eee3a	0.03489516
19	0x3de7f754	0.11326471
20	0x3e46ccfc	0.19414133
21	0x3db6ea69	0.08931429
22	0x3f6dd975	0.9290994
23	0x3d13b113	0.036057543

B1.c2_d.weight f4 [12, 24, 1, 1]
0	0xc0978f53	-4.7362456
1	0x3d071209	0.032976184
2	0x3ea57fc5	0.32324043
3	0xbe9f4a20	-0.3111124
4	0xbe2b0a99	-0.16703261
5	0x3d430e09	0.047620807
6	0x3d38fd50	0.045163453
7	0xbf5debab	-0.86687726
8	0x3c4ef0cc	0.012630653
9	0x3ef43e9f	0.47704026
10	0xbf9310ae	-1.1489465
11	0xbeb433c0	-0.35195732
12	0xbd28c533	-0.04120369
13	0x3da303e8	0.079597294
14	0x40060237	2.0938852
15	0x3fed729e	1.8550603
16	0x3df049dc	0.117328376
17	0xbf396b75	-0.7242959
18	0x3d8f7b28	0.07005912
19	0x3dd90d6b	0.105982624
20	0xbf963b1d	-1.173679
21	0x3ee99db0	0.4562812
22	0x3d25d2b5	0.04048415
23	0xc083c8c3	-4.118257
24	0xbd85fd55	-0.0654246
25	0xbd847b68	-0.064688504
26	0x3a45b9cc	0.00075426395
27	0xbc160058	-0.009155355
28	0x3c2969d5	0.010340174
29	0xbd135bd1	-0.035976235
30	0xbccc7309	-0.024957197
31	0xbdc471ba	-0.09592004
32	0xbc30731e	-0.010769634
33	0x3f3d9f7a	0.74071467
34	0xbd75be3b	-0.05999587
35	0x3cd43ca1	0.025907816
36	0xbb8656b3	-0.004099691
37	0x3bac229e	0.00525315
38	0x4081ccf1	4.0562673
39	0x3eae1e8c	0.3400768
40	0xbd313309	-0.04326156
41	0xbe15ce6a	-0.14629522
42	0xbde54501	-0.11194802
43	0x3d877a3a	0.0661511
44	0x3c05b8d1	0.008161739
45	0xbe5a1130	-0.21295619
46	0xbe2368c4	-0.15957934
47	0xbf344bd7	-0.7042822
48	0xbca13d57	-0.01968257
49	0xbd72cf80	-0.05927992
50	0xbd77f121	-0.060532693
51	0x3e4e79b3	0.20163612
52	0x3d8b8ce7	0.06813984
53	0xbcea6eb9	-0.02861725
54	0xbcb7b1bb	-0.022423616
55	0xbdf436ee	-0.119245395
56	0xb9d511e0	-0.00040639844
57	0x3ef0d6fe	0.47039026
58	0xbd804c49	-0.0626455
59	0xbf4060f7	-0.75147957
60	0xbcf3c11d	-0.02975517
61	0x3c58e3f3	0.013237941
62	0xbee6c9a6	-0.4507572
63	0x407330aa	3.7998452
64	0xbd5b2c92	-0.053509302
65	0x3e2862a3	0.16443877
66	0xbdc2f03a	-0.09518476
67	0x3b44a89d	0.0030007728
68	0x3c1476e0	0.009061545
69	0x3f347f3b	0.7050664
70	0xbe3a940d	-0.1822054
71	0xbf9214f7	-1.1412648
72	0xbc6e3bac	-0.014540594
73	0xbe03039b	-0.12794344
74	0xbed2a7a7	-0.41143534
75	0xbd0fae28	-0.035078198
76	0xbef109a7	-0.47077677
77	0xbd20f6ab	-0.03929774
78	0xbce7dd2e	-0.028303709
79	0x3d6bd737	0.05757829
80	0x3ced6a8d	0.028981471
81	0xbf9f8839	-1.2463447
82	0xbc607de6	-0.0137018915
83	0xbf7fa744	-0.998646
84	0xbd339387	-0.043841865
85	0xbc05b37c	-0.008160468
86	0xbd0e542e	-0.03474825
87	0x3e99d845	0.30047813
88	0x3cda12d4	0.026620306
89	0xbf406bc0	-0.75164413
90	0xbf81305f	-1.0092887
91	0x3d2dfbf2	0.042476602
92	0xbd478c9c	-0.04871808
93	0xbed19156	-0.40931195
94	0xbfb9e9c4	-1.4524465
95	0xbe11a334	-0.14222413
96	0x3ec93480	0.39297867
97	0xbbb0f94f	-0.0054008137
98	0x3e228114	0.15869552
99	0xbf7e4430	-0.99322796
100	0xbf4774b2	-0.7791244
101	0xbd0eb888	-0.03484395
102	0xbca20e87	-0.019782318
103	0x3e5e9dff	0.21739958
104	0x3bd460b8	0.0064812563
105	0xbf5ceaf6	-0.8629602
106	0xbe1a4f91	-0.15069415
107	0x3e37a784	0.17934996
108	0xbea0bb1f	-0.31392762
109	0xbd693b41	-0.056941275
110	0x3ce4cb21	0.02792889
111	0xbfec7dcb	-1.8475889
112	0x3cfdfcb6	0.031004291
113	0xbf469f7a	-0.7758709
114	0xbc1efe79	-0.009704226
115	0x3bb85549	0.005625401
116	0xbe9ded4d	-0.3084511
117	0xbe0d0dc3	-0.13774781
118	0x3d75efba	0.060043074
119	0x3f28f9c3	0.66006106
120	0xbd43c2c9	-0.047793183
121	0xbc75f7d1	-0.015012697
122	0xbd8ace9a	-0.06777687
123	0xbe33f267	-0.17572938
124	0xbeb11f48	-0.34594178
125	0xbb9183bd	-0.0044407533
126	0xbca0fcd0	-0.0196518
127	0x3e96f5e1	0.29484466
128	0x3bc4b805	0.006003382
129	0x3c2b04be	0.010438142
130	0x3d3f16f6	0.046652757
131	0x40fffe0b	7.999761
132	0x3b4b55d8	0.0031026509
133	0x3c0533f5	0.008130063
134	0x3ef5a53e	0.47977632
135	0x4082ee03	4.091554
136	0xbc79fa23	-0.015257391
137	0xbf7c1c2b	-0.9848048
138	0xbe0bad9e	-0.13640448
139	0x3e038e3d	0.12847228
140	0x3dbaa1fe	0.09112929
141	0xbef100b8	-0.4707086
142	0x3e4ddb9f	0.2010331
143	0x3f80c738	1.0060797
144	0x3d20098f	0.039071616
145	0x3e730d35	0.23735507
146	0xbd2522e3	-0.040316474
147	0xbd2ff774	-0.0429606
148	0x3cdf3bba	0.02725016
149	0x3e0579a7	0.13034688
150	0x3df95643	0.12174656
151	0xbd8dd8ea	-0.06926139
152	0x3c3f16c7	0.011663145
153	0xbf95c2fc	-1.170013
154	0x3bce3643	0.0062930896
155	0xbe29ab4c	-0.16569251
156	0xbacaf42c	-0.0015484146
157	0xbada50eb	-0.0016656196
158	0xbcba9ff1	-0.022781344
159	0xbe64e148	-0.22351563
160	0x3d3af5ad	0.04564445
161	0x3ef1a618	0.47197032
162	0xbefaadf2	-0.48960835
163	0x3e3cf561	0.1845298
164	0xbd1aaa96	-0.03776034
165	0x3dc54565	0.096323766
166	0xbf828f0b	-1.0199903
167	0x3e482927	0.19546948
168	0xbe5efc9b	-0.21776049
169	0x3cc7cf48	0.024390832
170	0x3d06f803	0.032951366
171	0x3e54b6e1	0.20772888
172	0xbe6652a4	-0.22492462
173	0xbbca8667	-0.006180573
174	0x3b3881ae	0.0028153467
175	0x3e0f0558	0.13966882
176	0xbc3bcb37	-0.011462024
177	0x3f25273b	0.64512986
178	0x3d14c897	0.03632411
179	0x3d4d56fb	0.05013178
180	0xbdb75596	-0.08951871
181	0x3c0c83fa	0.008576388
182	0x3f0cb66d	0.5496586
183	0x3eca34fa	0.39493543
184	0x3e083f4a	0.13305393
185	0x3ee33616	0.44377202
186	0x3dab8176	0.08374302
187	0xbe095bee	-0.13413975
188	0xbe109809	-0.14120497
189	0xbddb6c08	-0.10713965
190	0xbdf1b505	-0.11802105
191	0x3f621140	0.8830757
192	0xbccea29b	-0.02522402
193	0x3d0bbcd8	0.034115642
194	0x3dd2590f	0.10270893
195	0xbdcb0347	-0.099127345
196	0x403d3044	2.956071
197	0x3c208976	0.009798398
198	0xbb12759b	-0.002234793
199	0xbe32e743	-0.17471032
200	0xbb66e38b	-0.003523084
201	0xbead07bc	-0.33794963
202	0xbda45ff3	-0.08026113
203	0xbddbe048	-0.10736138
204	0xbd13e214	-0.036104277
205	0x3c4e1192	0.012577431
206	0xbc647de7	-0.013946033
207	0x40126ae8	2.287775
208	0x3cbecac6	0.02329005
209	0x3e6a5ab4	0.22886163
210	0xbd9987be	-0.07496594
211	0xbd996c3d	-0.07491348
212	0xbb24d382	-0.0025150483
213	0xbd6b6e05	-0.05747797
214	0xbca7a9da	-0.020466734
215	0xc086d606	-4.213626
216	0x3bb5eaf1	0.005551689
217	0x3d2f10ed	0.04274075
218	0x3e1a1bc5	0.15049656
219	0xbdba022c	-0.090824455
220	0xbe642967	-0.22281419
221	0xbd494ab1	-0.049143497
222	0xbd55662d	-0.052099396
223	0x3ebb968b	0.36638293
224	0xbc4fb2ef	-0.012676938
225	0xbeb7ee6b	-0.35924086
226	0x3b7f6a14	0.003897314
227	0xbf8dfa36	-1.1091983
228	0xbdd0815b	-0.101809226
229	0xbda84416	-0.08216111
230	0xbe4c567f	-0.1995487
231	0x3f40c89c	0.75306106
232	0xbd9de6f0	-0.077100635
233	0x3f326f19	0.6970077
234	0xbf105ee6	-0.56394804
235	0xbea5edc6	-0.3240797
236	0xbc085295	-0.00832047
237	0x3ea3b9ac	0.31977594
238	0xbf01ca61	-0.5069943
239	0xbf02a5bc	-0.5103414
240	0x3e47b9b2	0.19504431
241	0xbd4fcaa4	-0.050730363
242	0xbd8616a5	-0.06547288
243	0x3e191c19	0.14952125
244	0xbdfbc81f	-0.122940294
245	0xbd5b680a	-0.053566016
246	0xbceb781c	-0.028743796
247	0xbd385f6a	-0.04501287
248	0xbbd8c9f0	-0.0066158697
249	0xbe2cc4f3	-0.16872005
250	0xbd4d016e	-0.05005019
251	0xbfcaa130	-1.583044
252	0x3d9e63e7	0.077338986
253	0xbc85d373	-0.016336178
254	0xbe9c7434	-0.30557406
255	0xbffa308d	-1.9546067

B1.c2_d.bias f4 [12]
0	0x3f3370eb	0.70094174
1	0x3e00ad35	0.12566073
2	0xbd2eb5bf	-0.042653795
3	0xbed56b7f	-0.41683576
4	0xbe4f53e3	-0.20246844
5	0xbf3b470e	-0.73155296
6	0xbdad5319	-0.08463115
7	0x3d3dba90	0.046320498
8	0x3e1c4a8e	0.15262815
9	0x3dddcf0e	0.10830508
10	0xbd8c081e	-0.06837486
11	0xbf43b594	-0.7644894

B1.c2_r.pw.weight f4 [24, 24, 1, 1]
0	0xbf280f38	-0.6564822
1	0xbfe203d2	-1.7657416
2	0xbf74120a	-0.95340025
3	0xbd35b964	-0.044366255
4	0x3dbe2d10	0.09285939
5	0xbf53a220	-0.8266926
6	0xbf58fbff	-0.84759516
7	0x3de60f8d	0.11233435
8	0xbe2880ba	-0.16455355
9	0xbd96e77e	-0.073683724
10	0xbbed85d5	-0.00724862
11	0x3d89b388	0.06723696
12	0xbd3fdd2d	-0.04684179
13	0xbd18136b	-0.037127893
14	0xbe053e15	-0.13011964
15	0x3df3accd	0.118981935
16	0xbd63e22e	-0.055635624
17	0x3e8542c6	0.26027507
18	0xbfe5890d	-1.793245
19	0x3de14f95	0.11001507
20	0xbd749625	-0.0597135
21	0x3eba0812	0.36334282
22	0xc02eb148	-2.7295704
23	0x3d1b9a00	0.037988663
24	0xbd4f2a99	-0.050577734
25	0x3f4e6593	0.8062374
26	0x3c1bec19	0.009516739
27	0xbd1f8813	-0.03894813
28	0xbc52e2a2	-0.012871416
29	0xbd21ea89	-0.03953031
30	0x3b62a7cc	0.0034584878
31	0x3d2fde8a	0.04293684
32	0x3cbacdce	0.022803213
33	0x3ec9f24b	0.39442667
34	0xbc95434e	-0.01822057
35	0x3ea23b4f	0.31685874
36	0x3e2ca95f	0.16861485
37	0x3db3912a	0.08767922
38	0x3f0599cc	0.521878
39	0xbe6a6638	-0.22890556
40	0x3de0b09d	0.10971186
41	0x3b8995c8	0.0041987635
42	0x3f06f253	0.5271351
43	0x4015be7b	2.339751
44	0xbcd7c5b0	-0.026339382
45	0x3ec0976a	0.3761552
46	0x4024f8f7	2.5776956
47	0x3a8ae84f	0.0010597798
48	0x3dc27ad3	0.09496083
49	0x3e182aaa	0.14860025
50	0x3fca7aa6	1.5818679
51	0x3db6e38b	0.08930119
52	0xbf8fca46	-1.1233604
53	0x3d8c6fd9	0.06857271
54	0x3d7ee5c4	0.06223084
55	0x3f61849a	0.8809296
56	0x3c5deb84	0.013544921
57	0xbfe161fa	-1.7608025
58	0x3e1220cd	0.14270325
59	0xbf407436	-0.75177324
60	0xba70cd6b	-0.0009185883
61	0xbc2c096e	-0.010500295
62	0xc02ebd00	-2.7302856
63	0xbe9f805b	-0.31152615
64	0xbdd34ea7	-0.10317736
65	0xbf42f019	-0.7614761
66	0xbdf7565c	-0.120770186
67	0x3d0d21da	0.03445611
68	0x3d4c1c8a	0.049831904
69	0xbf7134d6	-0.94221246
70	0x3d9b65f0	0.075878024
71	0xbea6292b	-0.32453284
72	0x3d58c669	0.052923594
73	0x3e73d7af	0.23812746
74	0xbf2c4aa2	-0.6730138
75	0xbf8e8e9d	-1.1137272
76	0x3dae7146	0.08517699
77	0x3e0c5990	0.1370604
78	0x3e0d1b51	0.13779952
79	0x3d83fc41	0.06444598
80	0x3c54a967	0.012979842
81	0xbdb54ba5	-0.08852319
82	0x3ceefe27	0.029173924
83	0xbede1c1b	-0.43380818
84	0xbe1a58ee	-0.15072986
85	0xbe25aea0	-0.16179895
86	0xbda87d09	-0.082269736
87	0x3f5af5b1	0.85531145
88	0xbe0ab4e6	-0.1354557
89	0x3f11c2e0	0.5693798
90	0x3f510506	0.8164829
91	0x3ec51398	0.3849151
92	0xbe54ca7e	-0.2078037
93	0x3fea8d9b	1.8324465
94	0x3d3916ea	0.04518787
95	0x3d30f9ed	0.043207098
96	0x3ccdd093	0.02512387
97	0x3c0b7fa8	0.008514322
98	0x3be202a0	0.0068972856
99	0xbd751a15	-0.059839327
100	0x40854795	4.164988
101	0xbbf18b8c	-0.0073713716
102	0xbb6277c0	-0.003455624
103	0x409ff7b3	4.9989867
104	0x3be255d4	0.006907204
105	0x3f2a5f42	0.665516
106	0x3e0128cb	0.12613218
107	0xbd7007aa	-0.05860106
108	0x3c174571	0.009232865
109	0xbb3addd6	-0.0028513572
110	0x3ea6fb8e	0.32613796
111	0xbdd1c4ad	-0.10242591
112	0x3cde9b93	0.027173793
113	0xbe41741a	-0.18891945
114	0xbe9c1fe0	-0.3049307
115	0xbaa08418	-0.0012246398
116	0x3bce8b48	0.0063032247
117	0x3d9dc3fa	0.07703395
118	0x3e07c446	0.13258466
119	0xbfcf3983	-1.6189426
120	0x3c9f0019	0.019409226
121	0xbec1f8d5	-0.37885156
122	0xbcd3e81d	-0.025867516
123	0x3e90086a	0.2813142
124	0xbec292b0	-0.3800254
125	0xbd5564cd	-0.052098084
126	0xbdc4103c	-0.09573409
127	0x3d52436d	0.051333833
128	0xbd960e55	-0.07326952
129	0xc0956984	-4.6691303
130	0x3db729ee	0.08943544
131	0xbebe4455	-0.37161508
132	0xbbc9cabb	-0.0061582006
133	0x3c03fa9f	0.008055358
134	0xbedd6470	-0.4324069
135	0x3f45db89	0.7728811
136	0x3cc95e67	0.024581147
137	0x405661ec	3.3497267
138	0x3db5a4b8	0.08869308
139	0x3e0f3dec	0.13988465
140	0x3d4f3da1	0.050595883
141	0x3de194c4	0.11014703
142	0xbe88c86d	-0.26715413
143	0x3dd51220	0.10403848
144	0xbd6d3fa7	-0.05792203
145	0xbe533a04	-0.206276
146	0xbf303936	-0.68837297
147	0x3e5d970a	0.21639648
148	0x3daf4e19	0.08559818
149	0xbd8f107d	-0.06985567
150	0xbf8c0dfa	-1.0941765
151	0xbe71c15f	-0.23608921
152	0xbcb234c0	-0.021753669
153	0xbf8f234b	-1.1182646
154	0x3dcafe0f	0.09911739
155	0x3e97a6c8	0.29619431
156	0x3e7afeea	0.24511304
157	0xbff6ddb8	-1.9286413
158	0x3f36aba7	0.7135567
159	0x3f02e56c	0.5113132
160	0xbec6798b	-0.38764605
161	0xbf326edf	-0.69700426
162	0xbf31dc35	-0.69476634
163	0xbe1875cd	-0.14888687
164	0xbdef66e8	-0.1168955
165	0x3fa5050a	1.2892163
166	0xbf3911dd	-0.7229288
167	0xbfa0b5d5	-1.2555491
168	0x3e6e2a02	0.23258212
169	0x3d324e3b	0.043531638
170	0x3c464457	0.012101254
171	0xbf068ad9	-0.52555615
172	0x3faaadb3	1.3334259
173	0x3d1b44ac	0.037907287
174	0xbbae667b	-0.005322275
175	0xbee51dd3	-0.44749317
176	0xbbb44786	-0.0055016903
177	0xbfa1a565	-1.26286
178	0x3e4354e9	0.1907536
179	0x3cf7705f	0.03020495
180	0xbe023441	-0.12715246
181	0x3ccb2061	0.024795713
182	0xbfcdb6ca	-1.6071408
183	0xbdfade2d	-0.12249408
184	0xbe4cb4d4	-0.19990855
185	0xbed90e94	-0.42393935
186	0x3d3ea526	0.046544217
187	0x3da1e7d8	0.07905549
188	0x3dc3235b	0.09528228
189	0xbecda02e	-0.4016127
190	0xbe29dae0	-0.165874
191	0xc0269671	-2.6029322
192	0xbaab9e9d	-0.0013093535
193	0x3f96c5b8	1.1779089
194	0x3ea35aca	0.31905204
195	0xbccca63d	-0.024981612
196	0xbe46c1a8	-0.19409811
197	0x3f18ed85	0.59737426
198	0x3f0df234	0.554477
199	0x3e1eba50	0.1550076
200	0xbf69bc2f	-0.9130277
201	0xbeb9f82c	-0.36322153
202	0x3af5097a	0.0018694841
203	0xbd34712c	-0.04405324
204	0x3c6e38ea	0.014539937
205	0x3d03ca5e	0.032175414
206	0xbe4956a7	-0.19661961
207	0x3ed4c6f3	0.41558036
208	0x3dbbba97	0.091664486
209	0x3db3803d	0.08764694
210	0x3f8bb832	1.0915587
211	0xbe99e276	-0.30055588
212	0xbe15ffaf	-0.14648317
213	0xbed87ff9	-0.42285135
214	0x3f3cea56	0.7379507
215	0xbedeec34	-0.43539584
216	0xbdc8b5ec	-0.09800324
217	0xbe5128d4	-0.20425731
218	0xbc1e9a8b	-0.009680401
219	0xbd536bc1	-0.051616434
220	0xbedf01e2	-0.43556124
221	0xbde70c10	-0.112815976
222	0xbdbfa870	-0.09358299
223	0xbe13cc24	-0.14433342
224	0xbc3b4024	-0.011428867
225	0xbf36824f	-0.71292585
226	0xbd81cb46	-0.063375995
227	0xbf2634c2	-0.6492425
228	0xbca824b0	-0.020525306
229	0x3c1358cd	0.00899334
230	0x3d0e5c05	0.034755725
231	0x3faa15fc	1.3287959
232	0x3ce91700	0.02845335
233	0xbe504f15	-0.20342667
234	0x3faa4474	1.330214
235	0xbe50d79f	-0.20394753
236	0xbc60913b	-0.013706501
237	0x3ee77efb	0.45214066
238	0x3f39451c	0.7237108
239	0xbf91c23a	-1.1387398
240	0x3cf7274d	0.030170107
241	0x3e01ea49	0.12687029
242	0xbeb57457	-0.35440323
243	0x3d9a86d6	0.07545249
244	0x3f8bf049	1.0932704
245	0x3da33092	0.079682484
246	0x3d8aba71	0.06773842
247	0xbf068283	-0.52542895
248	0x3cc29f36	0.023757558
249	0xbea5ac11	-0.3235784
250	0xbf281d7c	-0.6566999
251	0xbf01a9d4	-0.5064976
252	0x3e159f80	0.14611626
253	0xbdc3d884	-0.095627815
254	0x3ef5f407	0.4803774
255	0x3f8274ea	1.0191929

B1.c2_r.dw.weight f4 [24, 1, 3, 3]
0	0x3d0edaae	0.034876518
1	0x3e04fc90	0.1298697
2	0x3d235925	0.039879937
3	0x3e06f8d6	0.13180861
4	0x3f4c57c9	0.7982145
5	0x3e18df65	0.14928968
6	0x3c6ea433	0.014565515
7	0x3e223290	0.158396
8	0x3b4c17d4	0.0031142132
9	0xbccb0cca	-0.024786372
10	0xbda580e8	-0.080812275
11	0xbccd2fc6	-0.025047194
12	0xbde1c601	-0.110240944
13	0xbebcaddc	-0.36851394
14	0xbddcdeeb	-0.10784706
15	0xbcbe9386	-0.023263704
16	0xbe03fd3b	-0.12889569
17	0xbc7513a9	-0.014958301
18	0x3c3adf4d	0.011405778
19	0x3d36cad7	0.044627037
20	0x3ca920cb	0.02064552
21	0x3d5334e5	0.051564116
22	0xbf5d6e79	-0.8649669
23	0x3d54e30a	0.051974334
24	0x3c6f5750	0.014608219
25	0x3d330494	0.043705538
26	0x3b984d05	0.0046478533
27	0x3d668365	0.05627765
28	0x3e06b6f1	0.13155724
29	0x3d6df7b6	0.058097564
30	0x3e14d19e	0.14533088
31	0x3d84f21d	0.06491492
32	0x3e0cd7b7	0.13754164
33	0x3d5147b4	0.051093772
34	0x3def7067	0.11691361
35	0x3d67d290	0.056597292
36	0x3cb39b69	0.021924691
37	0x3d1d314a	0.038377084
38	0x3ceea397	0.02913074
39	0x3d354de4	0.044263735
40	0x4045ae09	3.0887473
41	0x3d3b9563	0.045796763
42	0x3cd866a1	0.026416125
43	0x3d372d66	0.04472103
44	0x3cad0cd5	0.021124283
45	0xbde89e43	-0.11358311
46	0x3fe75190	1.8071766
47	0x3e82b23a	0.255266
48	0xbfb2e33e	-1.3975599
49	0x3d72e390	0.05929905
50	0xc011de48	-2.279192
51	0x3ceaa06d	0.02864095
52	0x3fa1649e	1.2608831
53	0x3eb733f2	0.3578182
54	0x3ce879a3	0.028378313
55	0x3da0a230	0.07843435
56	0x3ce12a50	0.027485996
57	0x3d91f2dd	0.071264006
58	0x3f5a2285	0.8520892
59	0x3da03df9	0.0782432
60	0x3cf8e180	0.030380964
61	0x3da09adf	0.07842039
62	0x3ce5521a	0.02799325
63	0x3cd23611	0.025660546
64	0x3de53394	0.11191478
65	0x3d11db6e	0.035609655
66	0x3dd6844f	0.104744546
67	0xbeeea7f2	-0.46612507
68	0x3ddc2bac	0.10750517
69	0x3ccf4b82	0.02530456
70	0x3dc4684a	0.09590204
71	0x3c854a95	0.016270915
72	0xbcd60554	-0.026125588
73	0x3c67508b	0.014118324
74	0xbcb9b3fb	-0.02266883
75	0xbd016735	-0.031592567
76	0x3f86877a	1.0510094
77	0xbd00b9c0	-0.031427145
78	0x3a954626	0.0011388704
79	0x3c9e44dc	0.019319944
80	0x3b019c31	0.0019776935
81	0xbb510c08	-0.003189804
82	0x3d25b8a1	0.04045928
83	0x3cbbef0b	0.022941133
84	0x3d1989fe	0.037485115
85	0xbf2fbd9b	-0.6864869
86	0x3d07b4f8	0.03313157
87	0x3c8e25b2	0.017351959
88	0x3d3b092f	0.045663055
89	0xbbe8d908	-0.0071059503
90	0x3cf45096	0.029823583
91	0x3e0405c1	0.1289282
92	0x3d1205cc	0.03565006
93	0x3e020c77	0.12700067
94	0x3fc1340f	1.5094012
95	0x3df6a09b	0.12042352
96	0x3d27f1b2	0.041001983
97	0x3dad2b16	0.084554836
98	0x3cb8f1ee	0.022576299
99	0x3e93ab87	0.28841802
100	0xbeba41f2	-0.36378437
101	0xbd3db537	-0.046315398
102	0xc01f1522	-2.4856648
103	0x40271bd8	2.6110744
104	0x3d92bebb	0.07165285
105	0x3e8da9c8	0.27668595
106	0xbeaa7ea0	-0.33299732
107	0x3ca6e1a0	0.020371258
108	0xbcc4dd06	-0.024031173
109	0xbd642571	-0.05569977
110	0xbd010987	-0.031503227
111	0xbd7df69e	-0.06200277
112	0xbf3b7dbf	-0.7323875
113	0xbd6f747b	-0.058460694
114	0xbceb416e	-0.028717723
115	0xbd645098	-0.055740923
116	0xbcc3a848	-0.023883954
117	0xbd64f88b	-0.05590109
118	0xbd80328f	-0.06259643
119	0xbd526b98	-0.05137214
120	0xbd704e6e	-0.058668546
121	0xbf1a9771	-0.6038733
122	0xbd739490	-0.059467852
123	0xbd433519	-0.04765806
124	0xbd54009f	-0.051758405
125	0xbd4b95c2	-0.049703367
126	0xbd7aa234	-0.061189845
127	0xbd6ec01a	-0.05828867
128	0xbd77e301	-0.060519222
129	0xbd6deefe	-0.05808925
130	0x3d02d9b9	0.031945918
131	0xbd6d33c1	-0.057910684
132	0xbd6ad418	-0.057331175
133	0xbd6664e7	-0.05624857
134	0xbd6cb3e6	-0.057788752
135	0xbc2ddbe2	-0.010611506
136	0x3cec699f	0.028858958
137	0x3a8a564e	0.0010554285
138	0x3c929685	0.017894039
139	0x3efe1f63	0.4963332
140	0x3c7b131a	0.015324378
141	0xbb9bf91f	-0.004759922
142	0x3ccb8223	0.024842327
143	0xbc0ed3ed	-0.008717519
144	0x3da65b1f	0.08122849
145	0xbd5595bf	-0.052144762
146	0x3df408c4	0.119157344
147	0xbd6dd2c1	-0.05806232
148	0x3fcb3736	1.5876224
149	0x3f84aeac	1.0365806
150	0xbdb317bb	-0.087447606
151	0xc05290fe	-3.2900996
152	0x3f26b32e	0.65117157
153	0xbd513f27	-0.051085617
154	0xbe0444b6	-0.12916836
155	0xbcfefb7c	-0.031125776
156	0xbe1abed6	-0.1511186
157	0xbf83a841	-1.0285722
158	0xbe127e4e	-0.14305994
159	0xbd2f62ae	-0.042818718
160	0xbd64d4b5	-0.055866916
161	0xbd75b522	-0.059987195
162	0x3d95b2cd	0.07309494
163	0x3e44c950	0.1921742
164	0x3d9a4a89	0.07533748
165	0x3e3b6a11	0.1830218
166	0xbf85999c	-1.0437503
167	0x3e3c7514	0.18404037
168	0x3da1de55	0.079037346
169	0x3e447177	0.19183908
170	0x3d942bb5	0.07234899
171	0xbde4a33e	-0.111639485
172	0xbe381a81	-0.1797886
173	0xbdc34551	-0.095347054
174	0xbe3e405b	-0.18579237
175	0x3fa2a736	1.2707279
176	0xbe485439	-0.19563378
177	0xbdc6ba16	-0.09703462
178	0xbe41ab69	-0.18913044
179	0xbdf14a85	-0.117817916
180	0x3ce0fb9b	0.027463725
181	0x3f0d6755	0.552358
182	0x3d637070	0.05552715
183	0x3e0a8599	0.13527526
184	0x400f889e	2.2427135
185	0x3e53801f	0.20654343
186	0xbb271139	-0.0025492443
187	0x39dc38a7	0.0004200388
188	0xbb99592d	-0.00467982
189	0xbd626c85	-0.055279274
190	0xbdc7cf8d	-0.09756384
191	0xbd419ead	-0.047270466
192	0xbdbf8865	-0.09352187
193	0x3d0c85c2	0.03430725
194	0xbdbaf98b	-0.09129628
195	0xbd345cb9	-0.04403374
196	0xbdaadad6	-0.08342521
197	0xbd591d82	-0.053006656
198	0x3d7c67e8	0.06162253
199	0x3e40a77f	0.18813895
200	0x3cd8a54b	0.026446005
201	0x3e3c493f	0.18387316
202	0xbe1aeb20	-0.15128756
203	0x3e64e148	0.22351563
204	0x3d60b955	0.054864246
205	0x3e5dd98e	0.21665022
206	0x3d2189bf	0.039438006
207	0xbdfb03a2	-0.12256552
208	0xbe33c50a	-0.17555633
209	0xbdf6d9ae	-0.12053238
210	0xbe34bff7	-0.17651354
211	0x3ec3b546	0.38224238
212	0xbe44f3ad	-0.1923358
213	0xbdcf1ae9	-0.101125546
214	0xbe19bb52	-0.15012863
215	0xbdd8e089	-0.10589702

B1.c2_r.dw.bias f4 [24]
0	0xbee23002	-0.44177252
1	0x3e35612e	0.17712852
2	0x3da0d31b	0.07852765
3	0x3d96a918	0.07356471
4	0xc04683c8	-3.1017933
5	0xbf17baf5	-0.5926965
6	0xbe0dbbe9	-0.13841213
7	0x3de56ff3	0.11202993
8	0x3eecd54c	0.46256483
9	0x3e03a0b3	0.1285427
10	0x3f1d5001	0.614502
11	0xbf3baee9	-0.73313767
12	0xbe3e68b9	-0.18594636
13	0x3f42fca8	0.7616677
14	0x3eb75c87	0.3581278
15	0xbce69d61	-0.028151216
16	0xbf47d1c8	-0.78054476
17	0xbf3ea0b9	-0.74463993
18	0x3ed0ad08	0.40757012
19	0x3ef01d21	0.46897224
20	0xbf3b58ee	-0.7318257
21	0x3e3b5d90	0.1829741
22	0x3d4259d5	0.04744895
23	0x3e0a93be	0.13532922

B1.c3_d.weight f4 [12, 24, 1, 1]
0	0x3c5a76f4	0.013334025
1	0x3f2f97c0	0.6859093
2	0xbfc1493f	-1.5100478
3	0x3fb2d3de	1.3970907
4	0xbe55e2c1	-0.20887281
5	0xbbb62ddf	-0.0055596675
6	0x3d8e2b6a	0.06941874
7	0xbf079e35	-0.5297578
8	0xbd9bd00e	-0.07608043
9	0xbd3c9676	-0.04604193
10	0x3a98a551	0.0011645948
11	0x3c0582b9	0.0081488425
12	0xbeb5cd9d	-0.35508433
13	0xbe095ce8	-0.13414347
14	0x40051adf	2.079765
15	0xbf90aa82	-1.1302035
16	0xbc4ad916	-0.012380859
17	0xbdeecb7f	-0.116599075
18	0xc026f4c9	-2.6086905
19	0xbe4f4912	-0.20242718
20	0x3a9a4159	0.0011768743
21	0x3dd519c9	0.10405309
22	0xbea6cae2	-0.32576662
23	0x3f0c736a	0.5486361
24	0xbda68823	-0.08131435
25	0xbea6e5da	-0.32597238
26	0xbe5ee0dd	-0.21765466
27	0x3fb10309	1.3829051
28	0xbdc596fd	-0.09647939
29	0x3b7870a7	0.0037908943
30	0xbdefbb00	-0.11705589
31	0x3f447639	0.76742893
32	0x3b979bf5	0.004626746
33	0x3f8e9bc8	1.1141291
34	0xbf7e3df9	-0.9931331
35	0x3b1c5237	0.0023852715
36	0x3de77cbd	0.11303089
37	0x3d7f3f0d	0.06231599
38	0xbcabec4f	-0.020986704
39	0xc05e6909	-3.4751608
40	0xbc8523f1	-0.01625249
41	0x3d9bcdde	0.076076254
42	0x3d93d024	0.07217434
43	0xbef1ac64	-0.47201836
44	0xbc1af45a	-0.009457672
45	0x3ec5b1b8	0.3861215
46	0x3de40a11	0.111347325
47	0x3cc862fb	0.02446126
48	0x3b0fe24f	0.0021954959
49	0xbed3a23e	-0.41334718
50	0xbec613ea	-0.38687068
51	0xbf7d7697	-0.9900908
52	0xbe58c406	-0.21168527
53	0x3c5bc5b7	0.013413838
54	0xbe8c91af	-0.27454898
55	0xbfc8acc8	-1.5677729
56	0xbd379684	-0.044821277
57	0x3dd223de	0.102607474
58	0xbe4e7f70	-0.20165801
59	0xbc4c96a4	-0.012487087
60	0x3e23b682	0.1598759
61	0xbee5906d	-0.4483675
62	0x3f31b84a	0.6942183
63	0xbe4d9c43	-0.2007914
64	0x3c286e64	0.010280225
65	0xbed830cf	-0.42224738
66	0x3e3a30fe	0.18182752
67	0x3eb45020	0.3521738
68	0xbaba36fa	-0.0014207058
69	0x3ed23fa9	0.41064194
70	0xbf29dc55	-0.66351825
71	0x3e13791c	0.14401668
72	0xbde6afb5	-0.11263982
73	0x3e8b84da	0.27249795
74	0xbf0c18be	-0.54725254
75	0xbee03a94	-0.43794692
76	0xbe599417	-0.21247898
77	0xbc58a5d0	-0.0132231265
78	0xbcbac728	-0.022800043
79	0xbf1f9435	-0.6233552
80	0x3beb9430	0.007189296
81	0xbf360e12	-0.7111522
82	0x3ccebb67	0.025235845
83	0x3c1c05d2	0.009522872
84	0x3d979346	0.07401137
85	0xbcf4cfa3	-0.029884165
86	0xbd70423a	-0.05865691
87	0x3c5d28ab	0.0134984655
88	0x3a156f41	0.0005700477
89	0x3e61f1e0	0.22064924
90	0x3c401cea	0.011725644
91	0xbea88512	-0.32914025
92	0x3c15684d	0.0091191055
93	0x3d963845	0.07334951
94	0x3edfbc2a	0.43698245
95	0x3e8c78f0	0.27436018
96	0x3f3dc89d	0.74134237
97	0x3df06569	0.117380925
98	0xbd2677cd	-0.040641595
99	0x3f02b341	0.5105477
100	0x3d9f1868	0.07768327
101	0xbd8e2d51	-0.06942237
102	0x3b732079	0.0037098213
103	0x3ead5c36	0.33859414
104	0xbf8157c1	-1.0104905
105	0xbe53070f	-0.20608161
106	0x3db60621	0.08887888
107	0xbc814b63	-0.015783018
108	0x3dc7af6c	0.09750256
109	0xbcf7d05e	-0.030250724
110	0x3e2aeeda	0.16692677
111	0xbe508504	-0.20363241
112	0xbd347023	-0.044052254
113	0xbda635c4	-0.08115724
114	0xbe3e8e77	-0.18609034
115	0xbf057238	-0.5212741
116	0x3cfad90b	0.030621072
117	0xbc0fc894	-0.008775849
118	0xbef7638e	-0.48318142
119	0x3e30c4aa	0.17262521
120	0x3f2b6c8f	0.6696252
121	0x3eca0035	0.39453283
122	0x3ec40c25	0.38290516
123	0x3f2af8a3	0.6678564
124	0x3e8bac4d	0.27279893
125	0xbc935324	-0.01798398
126	0x3da31762	0.07963444
127	0x3ec421f6	0.3830716
128	0xbeb55f92	-0.35424477
129	0x3f28aa4a	0.6588484
130	0x3d4874e7	0.04893961
131	0xbb820da7	-0.0039689126
132	0xbc612762	-0.0137423
133	0xbc10579c	-0.00880995
134	0x3ea5067f	0.3223152
135	0x3d2ea4fe	0.042637818
136	0xbbcc7479	-0.0062394706
137	0xbebf66a6	-0.37383002
138	0x3c95f183	0.018303638
139	0x3d11e800	0.035621643
140	0x3c9df54e	0.01928201
141	0xbed05ae7	-0.40694353
142	0xbfad4217	-1.3535794
143	0xbe374ed1	-0.1790116
144	0x3d8921c0	0.066958904
145	0x3eb5a608	0.35478234
146	0xbf9bfc38	-1.2186346
147	0x3f034f93	0.51293296
148	0x3deebb5e	0.11656831
149	0xbba728c5	-0.0051012957
150	0x3efe6011	0.49682668
151	0xbfd5a9f8	-1.6692495
152	0xbd93d804	-0.07218936
153	0xbe396949	-0.1810657
154	0x3ea58e91	0.32335332
155	0x3bd4a894	0.0064898226
156	0x3b357174	0.0027686032
157	0xbe7a4980	-0.244421
158	0xbf97d4bc	-1.1861796
159	0x3c16b8dd	0.009199348
160	0xbca7a23c	-0.020463102
161	0x3db4087d	0.087906815
162	0x3d3c0352	0.045901604
163	0xbe875278	-0.26430106
164	0xbb5b88ef	-0.0033498367
165	0x40845d34	4.1363773
166	0x3d9355f4	0.07194129
167	0xbf23cf97	-0.6398863
168	0x3dcff151	0.10153449
169	0x3e0623d8	0.13099611
170	0xbfbfdfc5	-1.4990164
171	0xbce0a80f	-0.027423887
172	0x3f37ae19	0.71750027
173	0x3bd626ab	0.0065353713
174	0x3d9f3125	0.077730455
175	0x3facbec3	1.3495716
176	0xbce19fb0	-0.027541965
177	0xbdf0b34d	-0.11752949
178	0xbe0486a2	-0.12941983
179	0xbb03ce20	-0.0020111874
180	0x3da64114	0.081178814
181	0xbe64348d	-0.22285672
182	0x3cc60987	0.024174465
183	0x3f220693	0.6329128
184	0x3b3c3db0	0.0028723292
185	0x3bcb4da4	0.006204324
186	0x3d9edee8	0.0775736
187	0xbe28a161	-0.16467811
188	0xbbd1d0ea	-0.0064030783
189	0x3d7016d0	0.058615506
190	0x3d7f2a64	0.062296286
191	0xbe06a244	-0.13147837
192	0xbeab086b	-0.3340486
193	0xbf0f7111	-0.560319
194	0xbdd395dd	-0.103313185
195	0xbe9eb36e	-0.3099627
196	0x3e36d22c	0.17853612
197	0x3ca31078	0.019905314
198	0xbc83e54b	-0.016100546
199	0xbce196ca	-0.027537722
200	0x3ed07219	0.4071205
201	0xbe8383bb	-0.2568644
202	0xbcd4974e	-0.025951054
203	0xbc41ce14	-0.011828918
204	0xbdeaa51c	-0.11457273
205	0xb86dbdb3	-5.6681874e-05
206	0xbe04d0dc	-0.12970299
207	0x3cb13893	0.021633422
208	0x3c5696b0	0.01309745
209	0xbd8e3aa6	-0.0694478
210	0x3cfd6f3e	0.030936833
211	0x3e8f4b8d	0.27987328
212	0xbc66b10c	-0.014080297
213	0xbdbc6c00	-0.09200287
214	0xbe93b6e2	-0.28850466
215	0x3f1c23cb	0.60992116
216	0x3f7f2219	0.99661404
217	0x3e6f1421	0.23347522
218	0xbf5d0bec	-0.86346316
219	0x3ec147f1	0.377502
220	0x40241743	2.5639198
221	0xbd2506e4	-0.040289775
222	0xbd84b4d2	-0.06479801
223	0xbfe69013	-1.8012718
224	0x3b318ca6	0.002709189
225	0x3eea2589	0.45731762
226	0x3db65318	0.089025676
227	0x3bc37c1e	0.0059657237
228	0xbe9b3145	-0.30311027
229	0x3e754361	0.23951484
230	0xbe186c45	-0.14885052
231	0x3f3afd0f	0.73042387
232	0x3ba562cc	0.005047178
233	0xbe7e43bc	-0.24830526
234	0xbe175932	-0.14780119
235	0x3e205247	0.15656386
236	0x3cea1e0a	0.028578777
237	0xc00dac0b	-2.2136257
238	0xbf8f78fe	-1.1208799
239	0x3eeadb5a	0.45870477
240	0x3e120ef9	0.14263524
241	0xbdff03a1	-0.12451864
242	0xbee293b5	-0.44253317
243	0xbf38039f	-0.71880525
244	0xbc170732	-0.009218024
245	0x3c3af979	0.011412018
246	0xbe50bbfe	-0.20384213
247	0xbf674da8	-0.9035287
248	0xbdf6f8af	-0.120591514
249	0xbeafd1bc	-0.34339702
250	0xbc476eec	-0.012172442
251	0x3c3f1ef9	0.011665099
252	0x3e07a0d3	0.13244943
253	0xbe0e62e5	-0.13904913
254	0xbd0adc61	-0.033901576
255	0xbfc1bafc	-1.5135188

B1.c3_d.bias f4 [12]
0	0xbdedd053	-0.11612
1	0xbf93a5dc	-1.1534991
2	0xbf1f429d	-0.6221102
3	0x3db16772	0.08662309
4	0x3e52d32a	0.20588365
5	0xbecd330a	-0.40078002
6	0xbe397721	-0.1811185
7	0xbeace818	-0.33770823
8	0x3dde67bc	0.108596295
9	0xbf115178	-0.56764936
10	0x3ef356f2	0.47527272
11	0xbf28f65b	-0.6600091
